prediction_model_test_muscle_blood/prediction_model/prediction_model.pth (torch, 260839 bytes, 9 tensors)

net.0.weight f4 [256, 81]
-0.08263286 0.10551027 0.058717363 0.10085776 -0.039432198 0.09718757 0.10063521 -0.07312755
-0.07283607 0.081191055 -0.101493664 -0.03086485 -0.0072140694 -0.05448939 -0.060180705 -0.08161403
-0.081284136 -0.07635432 -0.021512218 -0.035310537 -0.05053033 0.07995347 -0.09617472 -0.015685387
0.10596041 0.007132016 0.006380111 0.0591496 -0.07086858 -0.07860361 0.0010511875 -0.02796325
-0.017742075 -0.04013124 -0.06123065 -0.10395845 -0.10949126 0.056301616 0.04246462 0.09379005
0.028497912 -0.092267714 -0.08583731 0.09097689 0.09379918 -0.072084695 0.07254007 0.04273381
0.016128682 0.04941853 -0.022920817 -0.06806229 -0.043067694 0.037270717 0.10060648 0.029406004
0.039382137 0.07679687 -0.097413965 0.09741583 0.04812614 -0.046437316 -0.003916025 0.015797846
-0.052030854 -0.04954566 -0.08639055 0.10904599 0.089302726 0.044606812 -0.044213176 -0.060104158
-0.09276067 0.04464858 0.013829999 -0.087259226 -0.10290713 0.044149913 0.01583653 0.048041247
0.016864307 -0.044057682 -0.07419318 0.033313617 -0.09865412 0.0020175 0.017575918 0.05980427
-0.10697209 0.08055271 -0.039376978 -0.00076735887 0.08375396 -0.110783964 0.05614353 0.0003972581
-0.034133248 0.009997083 -0.029473528 0.05951316 0.04293587 0.08410464 -0.013391971 -0.10302766
-0.10582264 -0.023689438 -0.06865204 0.06533666 0.04164079 0.06207766 -0.040631212 -0.10869498
0.03513364 0.030184627 -0.012688083 -0.012304682 0.09276626 -0.03320561 0.00066889654 -0.045481417
-0.08211876 -0.065817244 -0.09439541 0.010098008 -0.051582035 0.026732832 0.10577675 0.09509227
0.006498402 -0.0916389 0.006056917 0.034673814 0.09745184 0.08803803 -0.022130417 0.0040469575
0.07589517 -0.008245324 -0.040250394 -0.045368757 -0.103415094 0.1101528 0.054490928 0.08532139
0.098161764 -0.021865442 0.086957015 -0.095235124 0.015434522 -0.041529026 -0.015007282 0.06903798
-0.06213929 -0.043242794 0.06885249 0.001578508 -0.061259016 -0.10831821 0.026841724 0.05634845
0.10663697 -0.04798376 -0.011780128 -0.008542299 -0.000856176 -0.06685281 0.09049504 -0.010581285
-0.03945271 -0.109466776 -0.07517126 0.08463431 0.056094 0.05322232 -0.07823534 0.041866787
-0.04765746 -0.106806025 -0.0023222268 -0.024452724 -0.10754553 0.07673112 0.022758745 -0.106019884
0.08474002 -0.07661191 -0.0905699 0.043091886 -0.050553218 0.009542316 0.03535173 -0.044193573
0.061462454 0.09331191 -0.09189233 -0.085008115 0.0989468 0.09283341 0.05684694 -0.03632184
0.01821614 -0.008517712 -0.08583334 0.026566587 0.050205313 -0.038458623 0.03395527 -0.10953825
0.09503708 -0.093518645 -0.048906855 0.06188982 -0.08041571 -0.040071815 0.10842598 -0.05945027
-0.025840454 0.07954822 0.023858748 -0.0017926395 -0.024432436 0.0079786405 -0.08400962 -0.00063153356
0.02298861 -0.076090574 -0.02744326 0.06143228 0.02646602 -0.10325815 0.056800716 -0.05206916
0.06965455 -0.021153197 0.066150464 0.06751292 -0.0714414 0.11004216 -0.00937292 0.03714975
-0.053700183 -0.06313588 -0.04677076 -0.0099152485 0.0035789546 -0.008301007 0.04466792 -0.08664702
0.018802991 0.03482003 -0.06562177 -0.022031406 -0.048803434 0.014267052 0.0053659594 0.07410504
00000000: 6b3b a9bd c515 d83d 9e81 703d 838e ce3d
00000010: a883 21bd 470a c73d d519 ce3d e6c3 95bd
00000020: 142b 95bd 7f47 a63d e9db cfbd 48d8 fcbc
00000030: 0064 ecbb 4430 5fbd 0b80 76bd 4225 a7bd
00000040: 4c78 a6bd a75f 9cbd 643a b0bc c8a1 10bd
00000050: e4f8 4ebd a5be a33d 40f7 c4bd a47e 80bc
00000060: c501 d93d b0b3 e93b 4010 d13b da46 723d
00000070: 8c23 91bd eefa a0bd 00c8 893a 3013 e5bc
00000080: d457 91bc a860 24bd fdcc 7abd 2be8 d4bd
00000090: f43c e0bd 869c 663d 62ef 2d3d ff14 c03d
000000a0: 7474 e93c dbf6 bcbd 79cb afbd 1752 ba3d
000000b0: c919 c03d 24a1 93bd e38f 943d a609 2f3d
000000c0: 4c20 843c 166b 4a3d 70c4 bbbc 3e64 8bbd
000000d0: c067 30bd 2ea9 183d c50a ce3d dce4 f03c
000000e0: 2a4f 213d ad47 9d3d f980 c7bd f381 c73d
000000f0: ea1f 453d 0e35 3ebd 0052 80bb 7c6a 813c
00000100: 4e1e 55bd 64f0 4abd 87ed b0bd 8153 df3d
00000110: 59e4 b63d a2b5 363d e018 35bd c72f 76bd
00000120: 4ef9 bdbd 6ee1 363d 3897 623c f7b4 b2bd
00000130: f9c0 d2bd 8ad6 343d 9cbb 813c e6c6 443d
00000140: 0427 8a3c d475 34bd 98f2 97bd dc73 083d
00000150: 2c0b cabd 0938 043b 5ffb 8f3c 52f5 743d
00000160: 2f14 dbbd d2f8 a43d c149 21bd 9528 49ba
00000170: 3287 ab3d b4e2 e2bd c2f6 653d 1447 d039
00000180: 4ecf 0bbd ceca 233c 7872 f1bc 12c4 733d
00000190: 86dd 2f3d 0e3f ac3d ff69 5bbc 2a00 d3bd
000001a0: 8ab9 d8bd 5a10 c2bc 7199 8cbd 3acf 853d
000001b0: 888f 2a3d 2545 7e3d ea6c 26bd 799b debd
000001c0: 4be8 0f3d c045 f73c ade1 4fbc 9499 49bc
000001d0: 3dfc bd3d 9b02 08bd e358 2f3a b94a 3abd
000001e0: e12d a8bd 31cb 86bd 6152 c1bd 1e72 253c
000001f0: af47 53bd d0fe da3c 7ba1 d83d bcbf c23d
00000200: 8cf0 d43b 2dad bbbd 1a79 c63b 2106 0e3d
00000210: d594 c73d 484d b43d d94a b5bc 579c 843b
00000220: ed6e 9b3d 6517 07bc 99dd 24bd 97d4 39bd
00000230: 4bcb d3bd cb97 e13d e131 5f3d fbbc ae3d
00000240: 0909 c93d 281f b3bc 8516 b23d a20a c3bd
00000250: 14e1 7c3c 571a 2abd 1ae1 75bc c963 8d3d
00000260: c585 7ebd 5b1f 31bd 8902 8d3d f0e5 ce3a
00000270: bcea 7abd f0d5 ddbd 2de3 db3c a2cd 663d
00000280: 7c64 da3d 9e8a 44bd 7001 41bc 00f5 0bbc
00000290: 0071 60ba 20ea 88bd 7755 b93d 205d 2dbc
000002a0: 2a99 21bd 1e30 e0bd 64f3 99bd c154 ad3d
000002b0: d2c2 653d a6ff 593d da39 a0bd 827c 2b3d
000002c0: 7834 43bd 1ebd dabd 8030 18bb 1451 c8bc
000002d0: d540 dcbd 3525 9d3d 8c70 ba3c f420 d9bd
000002e0: 2d8c ad3d b4e6 9cbd b67c b9bd 1e81 303d
000002f0: e410 4fbd 6057 1c3c facc 103d 5204 35bd
00000300: 0ec0 7b3d 511a bf3d 0c32 bcbd bc18 aebd
00000310: 9fa4 ca3d 711f be3d 56d8 683d 36c6 14bd
00000320: 043a 953c e08d 0bbc 64c9 afbd 2ca2 d93c
00000330: 16a4 4d3d ca86 1dbd ae14 0b3d 9755 e0bd
00000340: cda2 c23d b486 bfbd 8e52 48bd 2e80 7d3d
00000350: feb0 a4bd 5822 24bd 710e de3d 2082 73bd
00000360: 5caf d3bc 2dea a23d 6c73 c33c 00f7 eaba
00000370: 8826 c8bc d8b8 023c 3c0d acbd 808d 25ba
00000380: 9c52 bc3c 60d5 9bbd b0d0 e0bc 6aa0 7b3d
00000390: 44cf d83c 0279 d3bd dea7 683d 7946 55bd
000003a0: 0ba7 8e3d 7849 adbc e579 873d 3744 8a3d
000003b0: de4f 92bd c95d e13d e090 19bc 562a 183d
000003c0: b9f4 5bbd 624d 81bd b292 3fbd 9173 22bc
000003d0: e58c 6a3b f200 08bc b5f5 363d fe73 b1bd
000003e0: bb08 9a3c 739f 0e3d b564 86bd 357b b4bc
000003f0: 1ce6 47bd 5ac0 693c eed4 af3b 62c4 973d

net.0.bias f4 [256]
-0.008774966 -0.0019336076 -0.07913286 0.049324546 -0.003054492 -0.03409844 -0.046169776 0.055022232
-0.10715719 -0.066503115 -0.08021516 -0.015826516 -0.030542389 0.056619443 -0.068961546 -0.027186513
-0.03379771 -0.09598686 0.09001797 -0.064595774 0.017924465 0.07842799 -0.046248727 0.09828439
-0.072833225 -0.052025188 -0.012905618 -0.04291577 0.093095325 0.048328426 0.06074109 0.00421039
-0.11104443 0.053207286 -0.010037498 0.07647429 0.07622736 -0.011678614 -0.054557405 -0.061066728
-0.059833053 0.01459549 0.113545 0.0054972023 -0.0520281 -0.09498758 0.012779513 0.032726493
0.0058481693 0.092527054 0.054810505 0.019849777 0.03754626 0.099803485 -0.030511297 0.005955018
0.07672306 -0.032918688 -0.08660695 -0.024788594 0.046044298 0.08489648 -0.047778554 -0.034412608
-0.03898281 0.020576827 0.09541311 -0.049088016 -0.08447584 0.10342001 0.0985396 -0.040824145
-0.040721253 0.007811889 0.016966306 0.008544765 0.012922749 -0.06457325 -0.046379074 0.04136031
0.009090595 0.08859409 0.018591307 -0.0601144 0.077494375 -0.0907217 -0.0926102 -0.07423022
0.08015436 0.06492834 0.07626713 0.08945102 0.070217036 -0.053495158 -0.018560678 -0.1035194
0.004996589 0.00030270964 0.08486321 0.008991105 -0.013389083 -0.021492774 0.0977714 0.10478582
-0.01123126 0.010149821 0.022558667 -0.111352995 0.060029093 0.09626279 -0.07365388 -0.060910385
0.08054693 -0.02427206 -0.06000129 0.047252763 0.057331912 0.049787693 -0.08478391 0.04600858
-0.10921894 -0.020752216 -0.05084993 0.091548316 0.0064959377 0.09994334 -0.028694855 -0.08525358
-0.038670793 -0.0808609 -0.049282566 -0.049388092 0.07217942 0.100153536 -0.03436628 -0.08652099
-0.03264255 0.023699276 -0.06794446 -0.08869194 -0.056561485 0.029661573 -0.0799369 -0.0043011564
0.04925155 0.005495578 0.07485712 -0.019431883 -0.058507677 -0.0779847 -0.08785697 0.00061098614
0.07349112 -0.0328833 0.0044870977 -0.01301001 -0.07162969 0.08704821 -0.013819394 0.09448346
0.07980607 -0.071947 0.10680712 0.07804277 -0.017438538 -0.02488967 -0.0131903365 0.10582865
0.006303467 -0.103877604 -0.0010098071 -0.003324805 0.0006391108 0.063422404 0.10634924 0.059051387
-0.009274155 0.09502857 -0.0032267557 0.007182941 0.079131894 0.10745351 -0.036775604 0.049931906
-0.03179893 -0.03313282 0.045274537 -0.09101178 -0.02767609 0.044317283 -0.03682293 -0.066344604
-0.092855625 0.10167819 -0.050678995 0.04366908 0.028800962 -0.01854793 0.10294137 0.088333055
-0.060569346 -0.040056124 -0.10784706 -0.02692836 -0.08619387 -0.045814052 0.06948518 -0.084036686
-0.094072744 -0.06767569 0.00015182048 -0.035104923 0.09261781 -0.06352826 -0.030341536 0.09924025
0.0010931042 0.053366713 -0.0641595 -0.09487869 -0.067028314 -0.029113105 -0.09585343 0.06141817
-0.052417286 -0.09399068 -0.10259138 0.09833089 -0.008640304 -0.09978012 0.06214454 -0.009659479
0.04714375 0.029188722 0.06294202 -0.104029454 0.043728746 -0.018436199 0.0133606205 0.015920889
-0.07171959 -0.098500215 -0.05661209 -0.11029509 0.08982956 0.10312147 0.07913264 0.04922585
-0.01015827 -0.059001967 0.10884137 0.025710685 -0.027454883 -0.09235082 -0.03567139 0.10803359
00000000: e0c4 0fbc 1b71 fdba 6910 a2bd 8908 4a3d
00000010: df2d 48bb ceaa 0bbd 851c 3dbd fe5e 613d
00000020: 3b75 dbbd c932 88bd d947 a4bd 9ca6 81bc
00000030: 0834 fabc cae9 673d b63b 8dbd 40b6 debc
00000040: 786f 0abd c294 c4bd 575b b83d ca4a 84bd
00000050: 54d6 923c db9e a03d 4e6f 3dbd 5449 c93d
00000060: 9629 95bd 5d18 55bd 1672 53bc 72c8 2fbd
00000070: c3a8 be3d 07f4 453d a6cb 783d 50f7 893b
00000080: 436b e3bd e2ef 593d 5174 24bc 8d9e 9c3d
00000090: 171d 9c3d a857 3fbc 9677 5fbd 1b21 7abd
000000a0: 8113 75bd ec21 6f3c 488a e83d e021 b43b
000000b0: 6b1b 55bd d988 c2bd 2a61 513c 370c 063d
000000c0: 00a2 bf3b d37e bd3d fb80 603d 009c a23c
000000d0: 1bca 193d c565 cc3d d4f2 f9bc 5022 c33b
000000e0: fb20 9d3d bfd5 06bd fc5e b1bd 7311 cbbc
000000f0: f298 3c3d 35de ad3d 72b3 43bd 3cf4 0cbd
00000100: 70ac 1fbd bc90 a83c f367 c33d 8410 49bd
00000110: ab01 adbd dfcd d33d 21cf c93d 3837 27bd
00000120: 54cb 26bd e0fa ff3b ecfc 8a3c 58ff 0b3c
00000130: f0b9 533c fb3e 84bd fcf7 3dbd 6e69 293d
00000140: b8f0 143c d170 b53d cc4c 983c 843a 76bd
00000150: 5fb5 9e3d 4ccc b9bd 6baa bdbd 0306 98bd
00000160: f827 a43d 26f9 843d f131 9c3d 1932 b73d
00000170: f3cd 8f3d bd1d 5bbd 900c 98bc fb01 d4bd
00000180: 6dba a33b 00b5 9e39 c3cc ad3d 6d4f 133c
00000190: e25d 5bbc 9d11 b0bc 5f3c c83d f399 d63d
000001a0: 5203 38bc 6f4b 263c f4cc b83c 0a0d e4bd
000001b0: 11e1 753d 6d25 c53d d8d7 96bd 2b7d 79bd
000001c0: caf5 a43d 33d6 c6bc eac3 75bd 1d8c 413d
000001d0: ded4 6a3d 2eee 4b3d 30a3 adbd 7e73 3c3d
000001e0: 2eae dfbd 8d00 aabc 0448 50bd af7d bb3d
000001f0: e0db d43b 18af cc3d 7911 ebbc 6e99 aebd
00000200: 4465 1ebd 669a a5bd 84dc 49bd 2b4b 4abd
00000210: ced2 933d 4c1d cd3d a8c3 0cbd eb31 b1bd
00000220: 32b4 05bd fc24 c23c 7726 8bbd 1fa4 b5bd
00000230: 04ad 67bd d4fc f23c f5b5 a3bd b7f0 8cbb
00000240: febb 493d 4014 b43b b14e 993d 9d2f 9fbc
00000250: bfa5 6fbd 71b6 9fbd 5bee b3bd 962a 203a
00000260: 8382 963d a4b0 06bd 8108 933b f027 55bc
00000270: 96b2 92bd 5546 b23d bd6a 62bc 8b80 c13d
00000280: 5d71 a33d f358 93bd b1bd da3d e3d4 9f3d
00000290: 44db 8ebc 6ce5 cbbc 481c 58bc b1bc d83d
000002a0: 508d ce3b c8bd d4bd 815b 84ba f9e4 59bb
000002b0: 008a 273a 9be3 813d a1cd d93d dedf 713d
000002c0: a0f2 17bc 579e c23d fa77 53bb e05e eb3b
000002d0: e70f a23d 9610 dc3d 04a2 16bd 6685 4c3d
000002e0: 983f 02bd 48b6 07bd cb71 393d 6264 babd
000002f0: f8b8 e2bc 0a86 353d a4d3 16bd aedf 87bd
00000300: 172b bebd a83c d03d c794 4fbd 59de 323d
00000310: ffef eb3c d4f1 97bc edd2 d23d f6e7 b43d
00000320: 9017 78bd e411 24bd ebde dcbd dd98 dcbc
00000330: 6986 b0bd 84a7 3bbd 3f4e 8e3d 6d1b acbd
00000340: 36a9 c0bd 8d99 8abd 0032 1f39 2eca 0fbd
00000350: 68ae bd3d 1b1b 82bd d08e f8bc 793e cb3d
00000360: 7e46 8f3a 0e97 5a3d 0e66 83bd c24f c2bd
00000370: 2446 89bd 9b7e eebc ce4e c4bd 9e91 7b3d
00000380: 82b3 56bd 307e c0bd 6e1b d2bd b561 c93d
00000390: 1090 0dbc 8559 ccbd 468b 7e3d cb42 1ebc
000003a0: ce19 413d 301d ef3c bfe7 803d 650d d5bd
000003b0: ea1c 333d 8307 97bc 81e6 5a3c 866c 823c
000003c0: b8e1 92bd 7bba c9bd 14e2 67bd 64e2 e1bd
000003d0: 8ff8 b73d 5931 d33d 4b10 a23d 0ba1 493d
000003e0: df6e 26bc 0cac 71bd 39e8 de3d 379f d23c
000003f0: 10e9 e0bc 6d22 bdbd 2a1c 12bd b740 dd3d

net.2.weight f4 [128, 256]
-0.0071245655 0.029668778 0.0041105077 -0.012528986 -0.022199258 -0.0020405576 0.003599137 0.006470017
0.044275142 0.012164295 -0.056202136 -0.05290138 0.041497536 -0.023484007 -0.021367878 0.05555451
-0.041338474 -0.005930282 0.017999552 0.024194464 -0.00023293495 0.019280165 0.04560157 0.061201245
-0.061199337 -0.043972537 0.020107158 -0.032832265 -0.044595897 0.02146624 -0.003835395 0.026159279
-0.014395818 0.055079 -0.022002377 -0.026247673 -0.013041154 0.013226002 -0.0333578 -0.0071192607
0.035626322 -0.027291648 -0.047430694 -0.0010260493 0.012566164 -0.01825153 -0.050317235 -0.020416126
0.0071911514 -0.026549853 0.017721191 -0.05554665 -0.006900236 0.053173564 -0.031100012 -0.041067675
0.023858793 -0.050580047 -0.056078784 0.038726293 0.0188867 -0.012448452 0.010753475 -0.030078478
0.0075243413 0.016309097 -0.0059038997 -0.037018187 0.036328673 -0.0039784387 -0.027671143 0.019793496
-0.015020765 -0.048789233 -0.026859067 0.010127239 0.0012610257 0.033363856 -0.023571752 -0.010721259
0.011151522 -0.058296822 0.0009764433 0.021976434 -0.012787148 -0.038204335 -0.019202895 0.045355313
-0.0020390376 -0.037044726 0.012605086 0.02465839 -0.0026750714 -0.058121443 0.04815744 0.043257356
0.007901914 0.059236236 0.049714185 0.0024946406 0.02107799 0.009116679 -0.033620827 0.026626214
-0.05334954 0.007744886 -0.018903673 0.050893627 0.04786828 0.032778576 0.02999726 0.025797859
0.019794792 0.04563179 0.025229752 -0.032553628 0.013752073 -0.018739693 -0.024297789 -0.04306622
-0.05072429 0.018247895 0.009945661 -0.015135214 0.02851262 -0.009494394 -0.05052074 0.039224997
-0.034440435 -0.043605007 -0.0095058605 0.006693162 0.002435349 -0.035337433 0.0012853071 -0.011024311
0.032710455 -0.046656474 -0.05511879 -0.029152796 -0.0153766945 -0.05305148 -0.043883696 0.022279695
-0.03434272 -0.026316695 -0.01690472 -0.06076602 0.012237102 0.029996753 0.009793088 0.048867814
-0.044517897 0.00015369058 0.033365972 -0.005098209 0.0072200745 0.031959936 0.046057276 0.019448325
0.010207862 0.0041027144 -0.021272086 -0.050286196 -0.048429012 0.02582205 0.004990734 -0.050554164
-0.056030378 -0.003985949 0.05101116 0.0030855015 0.02707047 0.03855394 0.05321466 0.019863516
-0.026741035 0.008541152 0.051569752 -0.008975215 -0.009846941 -0.010331646 0.010438062 -0.054231785
-0.025835201 0.05766546 0.059981592 -0.046966575 -0.0005572364 -0.06085089 -0.035531312 -0.011322126
-0.06126135 -0.031206869 0.040014967 0.049459733 0.009130947 -0.026390322 0.047307275 -0.03984019
0.050663553 0.0028157607 -0.01639679 -0.027056448 0.0032248795 -0.026923358 -0.04583051 -0.0032894462
-0.038437195 -0.0036575869 0.04905781 -0.048709854 0.050057873 0.0128740445 -0.028289966 0.05166191
-0.0012625605 0.026545838 -0.059220597 -0.00016215444 -0.054512113 0.053381726 -0.014971606 0.05027093
0.04945209 0.016334057 0.0036832094 0.05031184 0.002987355 -0.0048979744 0.011186495 -0.05538331
-0.05054217 -0.016151838 0.01809664 -0.043701425 -0.05042529 -0.014040202 -0.02943819 -0.008704573
-0.017750494 0.0451082 -0.059535965 0.032030374 0.019796655 0.0059166476 0.038115688 0.06182339
-0.05245389 -0.05847896 -0.02661325 0.030904956 0.040149122 -0.046770275 0.055663355 0.022681318
00000000: 3075 e9bb f00b f33c 70b1 863b 6046 4dbc
00000010: 38db b5bc e0ba 05bb 80df 6b3b 7002 d43b
00000020: da59 353d c04c 473c 3634 66bd 1eaf 58bd
00000030: 52f9 293d 8861 c0bc b00b afbc 208d 633d
00000040: 8852 29bd d052 c2bb cc73 933c 7833 c63c
00000050: 0040 74b9 70f1 9d3c b6c8 3a3d 28ae 7a3d
00000060: 28ac 7abd 8c1c 34bd c4b7 a43c 207b 06bd
00000070: 30aa 36bd f8d9 af3c 405b 7bbb fc4b d63c
00000080: 70dc 6bbc 849a 613d 543e b4bc 5c05 d7bc
00000090: 90aa 55bc e0b1 583c 30a2 08bd b048 e9bb
000000a0: e8ec 113d bc92 dfbc b046 42bd 807c 86ba
000000b0: 50e2 4d3c 3c84 95bc 7219 4ebd b83f a7bc
000000c0: c0a3 eb3b 147f d9bc 082c 913c e284 63bd
000000d0: 601b e2bb 86cc 593d 74c5 febc 9436 28bd
000000e0: 8473 c33c 062d 4fbd deb2 65bd 769f 1e3d
000000f0: 48b8 9a3c 98f4 4bbc 582f 303c 2467 f6bc
00000100: c08e f63b a89a 853c 8075 c1bb 62a0 17bd
00000110: 60cd 143d 905d 82bb 98ae e2bc f825 a23c
00000120: a819 76bc 38d7 47bd 8c07 dcbc b8ec 253c
00000130: 0049 a53a 8aa8 083d 8c19 c1bc 38a8 2fbc
00000140: e0b4 363c a6c8 6ebd 00f8 7f3a ec07 b43c
00000150: 3081 51bc 267c 1cbd 644f 9dbc 7ec6 393d
00000160: 60a1 05bb 36bc 17bd 9085 4e3c 6400 ca3c
00000170: 4050 2fbb c010 6ebd bc40 453d a02e 313d
00000180: 0877 013c b2a1 723d 1aa1 4b3d 207d 233b
00000190: c0ab ac3c 205e 153c feb5 09bd 381f da3c
000001a0: 0c85 5abd d0c8 fd3b e0db 9abc d675 503d
000001b0: 8811 443d d442 063d d0bc f53c 0856 d33c
000001c0: b028 a23c 66e8 3a3d a0ae ce3c f456 05bd
000001d0: 6050 613c fc83 99bc 280c c7bc 3466 30bd
000001e0: 46c4 4fbd 9c7c 953c 20f3 223c b0f9 77bc
000001f0: 4c93 e93c 608e 1bbc d6ee 4ebd 64aa 203d
00000200: 6a11 0dbd 2a9b 32bd 78be 1bbc 5052 db3b
00000210: 609a 1f3b fcbd 10bd c077 a83a 509f 34bc
00000220: 66fb 053d dc1a 3fbd 3ec4 61bd d8d1 eebc
00000230: 88ee 7bbc 824c 59bd 64bf 33bd e883 b63c
00000240: f4aa 0cbd 1c96 d7bc c47b 8abc cae5 78bd
00000250: 207e 483c c0bb f53c 3073 203c 9e29 483d
00000260: 6658 36bd 0028 2139 c2aa 083d e00e a7bb
00000270: 6096 ec3b 6ce8 023d 8ea6 3c3d 1852 9f3c
00000280: e03e 273c 1070 863b cc42 aebc e6f8 4dbd
00000290: 805d 46bd c488 d33c 5089 a33b e211 4fbd
000002a0: 1c80 65bd 909c 82bb 14f1 503d 2036 4a3b
000002b0: e4c2 dd3c bcea 1d3d 9ef7 593d d0b8 a23c
000002c0: 0410 dbbc 30f0 0b3c ce3a 533d c80c 13bc
000002d0: 1055 21bc 1046 29bc 6804 2b3c 2622 5ebd
000002e0: 58a4 d3bc 9e32 6c3d 42af 753d 0660 40bd
000002f0: 8013 12ba c83e 79bd 4889 11bd 7080 39bc
00000300: 2eed 7abd 8ca5 ffbc bce6 233d 4a96 4a3d
00000310: f899 153c 8430 d8bc 46c5 413d 782f 23bd
00000320: 9684 4f3d a088 383b 9052 86bc 7ca5 ddbc
00000330: 8058 533b 608e dcbc c6b8 3bbd c093 57bb
00000340: 5270 1dbd 20b4 6fbb d8f0 483d fc83 47bd
00000350: 7c09 4d3d a8ed 523c 5cc0 e7bc 709b 533d
00000360: 807c a5ba a876 d93c 4c91 72bd 0008 2ab9
00000370: 1848 5fbd cca6 5a3d 784b 75bc e4e8 4d3d
00000380: 468e 4a3d 00cf 853c 0062 713b ca13 4e3d
00000390: 80c7 433b 307f a0bb 9047 373c 9cd9 62bd
000003a0: 4e05 4fbd dc50 84bc 683f 943c 4400 33bd
000003b0: c08a 4ebd e008 66bc 5c28 f1bc a09d 0ebc
000003c0: 7c69 91bc 60c3 383d fcdb 73bd 4832 033d
000003d0: 982c a23c 70e0 c13b 321f 1c3d 863a 7d3d
000003e0: e4d9 56bd a287 6fbd 0804 dabc 642c fd3c
000003f0: 6873 243d 3092 3fbd 42ff 633d 2cce b93c

net.2.bias f4 [128]
-0.008962244 -0.006252876 -0.013922095 0.061700627 -0.062286783 -0.0072353706 0.029128112 -0.04812085
-0.045632638 -0.0035784557 -0.01628396 -0.047420368 0.03522858 -0.042932447 0.030333161 -0.060298115
0.040678076 0.042342633 0.039870344 -0.0014476031 -0.02759233 -0.063868165 0.038002 -0.03534016
0.046029244 0.029824419 0.0028907445 0.055009462 -0.059660718 0.017553642 -0.015156373 0.059607327
0.060870916 0.041191645 0.027362324 -0.0517058 0.0117731085 0.061891146 0.035715394 -0.03853564
0.047215927 0.0044088736 -0.031623244 -0.04497583 -0.057186715 0.05875938 -0.03206995 0.048452638
-0.009580516 0.00633657 0.060331352 0.015649416 -0.05479132 0.012667599 0.018478826 0.038972728
-0.06055247 0.02754573 -0.009522401 0.06033791 0.03370696 -0.03980839 -0.031156283 0.010189019
-0.012072235 -0.03852319 0.023934063 0.052328937 0.0034438148 0.055002548 0.027162362 -0.007946616
0.043743424 0.013290659 0.033820257 0.01773129 0.035137646 0.018741302 0.02726636 -0.014345966
-0.05766961 -0.024891712 -0.06125834 -0.024797177 0.056710467 0.013095014 -0.04143154 -0.050085623
-0.02608084 0.04519835 -0.002940929 0.01680538 -0.048470523 0.05974677 -0.062575504 -0.0520634
0.030274242 0.06195818 0.0002675727 -0.034885027 0.026588617 0.046388574 0.0034364334 -0.041811083
0.058436587 -0.013208425 -0.060314946 -0.03246978 -0.049390025 0.01425942 -0.062401675 -0.035113037
-0.011276445 0.00892958 -0.02690977 -0.011360459 -0.008711267 -0.026747841 0.03373546 -0.02758416
0.0021409004 -0.05232829 -0.041561715 0.029171273 0.05472485 0.026971065 0.011045658 -0.03395539
00000000: 60d6 12bc ede4 ccbb 8019 64bc ccb9 7c3d
00000010: 6d20 7fbd b016 edbb 149e ee3c 5e1a 45bd
00000020: 4ae9 3abd 8684 6abb f065 85bc dc3b 42bd
00000030: d84b 103d efd9 2fbd 407d f83c 28fb 76bd
00000040: 0e9e 263d 786f 2d3d 164f 233d 80bd bdba
00000050: 4f09 e2bc 50cd 82bd fca7 1b3d d8c0 10bd
00000060: 2989 3c3d 5752 f43c a572 3d3b 9a51 613d
00000070: cc5e 74bd a8cc 8f3c 7052 78bc d026 743d
00000080: c853 793d 92b8 283d f426 e03c 76c9 53bd
00000090: ffe3 403c 9281 7d3d 4e4a 123d 8cd7 1dbd
000000a0: 7d65 413d 5078 903b 6087 01bd 9338 38bd
000000b0: 9e3c 6abd adad 703d c85b 03bd 4676 463d
000000c0: 99f7 1cbc 00a3 cf3b 021e 773d 3433 803c
000000d0: dd6c 60bd c38b 4f3c e860 973c dea1 1f3d
000000e0: de05 78bd 95a7 e13c d803 1cbc e224 773d
000000f0: 4f10 0a3d 1f0e 23bd 763b ffbc d8ef 263c
00000100: a0ca 45bc 7eca 1dbd 5e11 c43c de56 563d
00000110: a0b1 613b 5a4a 613d 9a83 de3c 8632 02bc
00000120: 4e2c 333d 10c1 593c 1c87 0a3d 3641 913c
00000130: 7eec 0f3d 5c87 993c b45d df3c 580b 6bbc
00000140: f836 6cbd b4e9 cbbc 06ea 7abd 7323 cbbc
00000150: 3c49 683d 788c 563c 1eb4 29bd 9526 4dbd
00000160: 7ca7 d5bc e821 393d 9abc 40bb 70ab 893c
00000170: 0789 46bd 07b9 743d 9627 80bd 6f40 55bd
00000180: b001 f83c dcc7 7d3d 0049 8c39 9ae3 0ebd
00000190: 5fd0 d93c f201 3e3d c935 613b 1942 2bbd
000001a0: 345b 6f3d 2668 58bc ce0c 77bd 08ff 04bd
000001b0: 324d 4abd 58a0 693c e698 7fbd b0d2 0fbd
000001c0: d7c0 38bc 604d 123c e171 dcbc 3821 3abc
000001d0: b4b9 0ebc 4a1e dbbc 322e 0a3d 2df8 e1bc
000001e0: 594e 0c3b 3056 56bd 9e3c 2abd 98f8 ee3c
000001f0: 2a27 603d 6cf2 dc3c d9f8 343c cf14 0bbd

net.4.weight f4 [64, 128]
-0.07608151 0.049680643 -0.03685549 -0.02434773 0.00037106127 0.058848836 0.0788539 0.05647958
-0.071676135 -0.06473092 -0.07259364 -0.04195232 0.052293263 -0.03606648 -0.062176503 -0.063011885
-0.024960935 -0.021124102 0.06449226 -0.004819028 0.015032202 -0.08484325 0.051819198 -0.083278745
-0.0058997795 0.022412807 0.059561647 -0.044923786 0.07448632 0.012019135 -0.0553853 0.077415384
-0.034954783 0.022574417 -0.08155708 -0.08361335 -0.053980216 -0.0012615845 0.047116034 -0.006285973
-0.05101482 -0.03248638 0.020943262 0.038542815 0.04466877 0.0067081526 0.038099714 0.05451157
0.035321727 -0.0012364835 -0.034659997 -0.026234504 -0.07325054 0.07870462 0.046619646 0.034746923
-0.004318796 -0.041075245 0.022166826 0.061222084 0.08415837 0.064147405 -0.08767143 -0.051889986
0.0011575222 0.07283958 0.04632125 0.07428605 -0.064379856 -0.013829328 0.0005782619 -0.06391823
-0.0763437 0.059954114 -0.014423765 0.04516674 0.0025335625 0.016344681 -0.05643149 -0.07746123
-0.074704394 0.08466647 -0.079706356 -0.067177914 -0.058187317 0.023469925 -0.052670136 0.058966406
-0.04117007 -0.055222888 -0.07807512 -0.05494024 -0.005018361 0.05764257 -0.03387557 -0.057368055
0.015246883 0.010044195 -0.016385749 0.034645766 -0.0078572035 0.01622659 0.078012995 0.028774157
0.06786009 -0.06051378 -0.01502572 0.06434799 0.07416736 0.024442539 -0.06416726 0.028239496
-0.018337779 -0.047953945 -0.08394251 -0.085375935 0.060484596 -0.047703415 0.019143753 0.038103335
-0.037556782 -0.066409275 -0.08117185 -0.051162966 -0.05514047 -0.05048184 0.0056530535 -0.08581193
0.044204526 -0.045568857 0.036137655 -0.06302315 0.08230833 -0.08306824 -0.08310421 -0.05862657
0.036728106 -0.06608254 0.063816555 -0.004877098 0.04725624 0.07234528 0.071177654 -0.0160847
-0.007300794 -0.041404862 -0.060988437 -0.034622665 0.044295214 -0.041247383 0.03834998 -0.04554753
-0.030648049 0.08651484 -0.055824004 0.0019525886 0.06871728 -0.057029616 0.034192935 0.0809549
0.082869075 0.07818786 -0.06494588 0.03086906 -0.017069273 -0.0445066 0.04367379 -0.05106436
0.017581165 0.022515528 -0.04449171 0.059309952 0.01623249 -0.0459119 -0.03283584 -0.07480294
0.030157916 0.063886695 -0.051908657 -0.0074457973 0.023181885 0.03642658 -0.031952947 0.054871418
0.07971262 0.060551874 -0.011724725 -0.08066531 -0.08697034 -0.07088953 -0.013554774 0.053941913
0.045004882 -0.07803496 0.02456338 -0.054064713 0.02488771 0.05039958 -0.043262202 0.0029734522
-0.030645933 -0.024619639 -0.061981723 -0.08513908 0.08642573 0.030016266 -0.07992499 -0.059591144
-0.018309422 0.08351187 -0.045232195 -0.029393442 -0.08496951 -0.04888812 -0.052282155 -0.00911358
0.03841608 0.025361821 -0.080901116 -0.06164692 -0.044960678 0.06974285 0.03154446 -0.058204636
-0.06315418 0.04015716 -0.057744775 -0.056163732 0.049318917 -0.07927436 0.041330017 -0.044187546
0.031126648 -0.026642844 0.009509489 0.04564371 0.033569597 -0.027393173 -0.043238316 -0.052280057
-0.08023643 -0.019995727 0.073627956 -0.075051196 -0.008149534 0.028195746 -0.043255236 -0.009884998
0.012489758 -0.018610075 0.07786707 0.031594127 -0.013701342 0.0689654 -0.008248553 -0.06715072
00000000: 9fd0 9bbd ee7d 4b3d c8f5 16bd e474 c7bc
00000010: 008b c239 7a0b 713d 277e a13d 2257 673d
00000020: f0ca 92bd a591 84bd f9ab 94bd 32d6 2bbd
00000030: 7631 563d 72ba 13bd caac 7ebd 600c 81bd
00000040: e07a ccbc 740c adbc 8514 843d f0e8 9dbb
00000050: a049 763c 4cc2 adbd 5e40 543d 0c8e aabd
00000060: f052 c1bb 109b b73c eaf6 733d 0102 38bd
00000070: 498c 983d e8eb 443c b2db 62bd f58b 9e3d
00000080: bf2c 0fbd fced b83c 6607 a7bd 7a3d abbd
00000090: 5c1a 5dbd c05b a5ba befc 403d 90fa cdbb
000000a0: eaf4 50bd 7010 05bd 3491 ab3c 12df 1d3d
000000b0: 9af6 363d 10d0 db3b 720e 1c3d 8647 5f3d
000000c0: 84ad 103d 8011 a2ba a4f7 0dbd bee9 d6bc
000000d0: 6104 96bd e32f a13d 3ef4 3e3d ca52 0e3d
000000e0: b084 8dbb 843e 28bd 3497 b53c 02c4 7a3d
000000f0: 395b ac3d b75f 833d 148d b3bd 988a 54bd
00000100: 00b8 973a eb2c 953d 5abb 3d3d 4923 983d
00000110: 96d9 83bd 6894 62bc 8096 173a 90e7 82bd
00000120: 165a 9cbd 7292 753d a851 6cbc c200 393d
00000130: 200a 263b 48e5 853c b524 67bd fea3 9ebd
00000140: 9efe 98bd 9d65 ad3d 163d a3bd 9394 89bd
00000150: d355 6ebd 0044 c03c a4bc 57bd c286 713d
00000160: f3a1 28bd 6531 62bd d9e5 9fbd 0409 61bd
00000170: 1071 a4bb 9e1a 6c3d 1cc1 0abd c4fa 6abd
00000180: 10ce 793c 6890 243c 683b 86bc b8e8 0d3d
00000190: 80bb 00bc a0ed 843c 47c5 9f3d c8b7 eb3c
000001a0: 3bfa 8a3d 4cdd 77bd 702e 76bc e1c8 833d
000001b0: 0fe5 973d b83b c83c 206a 83bd 8456 e73c
000001c0: 1c39 96bc 5b6b 44bd 0dea abbd 94d9 aebd
000001d0: b2be 773d a864 43bd 5cd3 9c3c 3e12 1c3d
000001e0: 24d5 19bd 9601 88bd 6d3d a6bd 4290 51bd
000001f0: f9da 61bd 0cc6 4ebd 403d b93b 2abe afbd
00000200: ce0f 353d 69a6 3abd 1405 143d 4812 81bd
00000210: 4591 a83d ae1f aabd 8a32 aabd 6a22 70bd
00000220: 3670 163d 4856 87bd 41b2 823d 10d0 9fbb
00000230: c28f 413d c329 943d 97c5 913d 10c4 83bc
00000240: 803b efbb 2598 29bd 03cf 79bd 7fd0 0dbd
00000250: e66e 353d 04f3 28bd de14 1d3d 0c90 3abd
00000260: 9e11 fbbc b12e b13d b6a7 64bd 00ee ff3a
00000270: a5bb 8c3d e397 69bd e40d 0c3d afcb a53d
00000280: 43b7 a93d f520 a03d 5802 85bd 1ce1 fc3c
00000290: dcd4 8bbc 8d4c 36bd 4ae3 323d dd28 51bd
000002a0: 6006 903c 7c72 b83c f03c 36bd feee 723d
000002b0: 00fa 843c 1e0e 3cbd e07e 06bd 4932 99bd
000002c0: bc0d f73c 07d7 823d 2c9e 54bd e0fb f3bb
000002d0: f0e7 bd3c 0a34 153d 18e1 02bd dac0 603d
000002e0: 5f40 a33d 3e05 783d 1019 40bc db33 a5bd
000002f0: 811d b2bd 882e 91bd d814 5ebc 32f2 5c3d
00000300: 0a57 383d cbd0 9fbd 2439 c93c f672 5dbd
00000310: 50e1 cb3c ca6f 4e3d b533 31bd 40de 423b
00000320: 2e0d fbbc 20af c9bc 8ce0 7dbd 665d aebd
00000330: f9ff b03d ace4 f53c b7af a3bd d815 74bd
00000340: a4fd 95bc 4508 ab3d 6545 39bd 84ca f0bc
00000350: 7f04 aebd e93e 48bd d025 56bd 2051 15bc
00000360: 2e5a 1d3d 98c3 cf3c 7caf a5bd 7b81 7cbd
00000370: b028 38bd 57d5 8e3d c434 013d fc67 6ebd
00000380: fb56 81bd d67b 243d c985 6cbd f10b 66bd
00000390: a202 4a3d 985a a2bd aa49 293d 00fe 34bd
000003a0: 50fd fe3c 1842 dabc b0cd 1b3c e6f4 3a3d
000003b0: 4680 093d a667 e0bc a91a 31bd 9d23 56bd
000003c0: ff52 a4bd 14ce a3bc 41ca 963d 71b4 99bd
000003d0: a085 05bc c4fa e63c 672c 31bd b0f4 21bc
000003e0: d8a1 4c3c 2874 98bc c578 9f3d d868 013d
000003f0: 987b 60bc bb3d 8d3d f024 07bc 5186 89bd

net.4.bias f4 [64]
-0.036524206 0.06275161 0.036947154 -0.066237435 -0.086272955 0.009374231 0.020445095 0.063644566
-0.025668621 -0.010595836 -0.03278019 0.02172665 -0.010907404 -0.082341224 -0.031912453 0.03594839
0.0070139 0.07133012 0.01101365 0.08191618 0.014028937 0.03418998 0.05771228 0.03651177
0.037323806 0.07586827 0.02030241 0.017141387 -0.08654926 -0.06289024 -0.06923335 0.08599195
0.037313662 -0.07263434 -0.051620215 0.027675755 0.08459783 -0.024722684 0.043176644 0.045778263
0.011293388 0.054349236 0.059414785 0.024589058 -0.023345588 -0.065761775 -0.088361 -0.023848929
-0.03541248 -0.066519715 -0.039325703 -0.076768965 -0.032399625 -0.038859095 -0.048904926 -0.063280135
-0.04605375 -0.058109976 0.059149347 0.041587606 0.045608826 0.07889049 -0.000121101504 -0.009313092
00000000: 689a 15bd eb83 803d e655 173d 7ea7 87bd
00000010: e0af b0bd 6096 193c 797c a73c 1558 823d
00000020: 0047 d2bc 289a 2dbc 8544 06bd 16fc b13c
00000030: f8b4 32bc 84a2 a8bd a2b6 02bd 9e3e 133d
00000040: dcd4 e53b 8715 923d 9972 343c acc3 a73d
00000050: a0d9 653c cb0a 0c3d b663 6c3d 5e8d 153d
00000060: d9e0 183d d360 9b3d 3d51 a63c 186c 8c3c
00000070: bd40 b1bd 99cc 80bd 37ca 8dbd 8c1c b03d
00000080: 36d6 183d 50c1 94bd b86f 53bd 44b8 e23c
00000090: a141 ad3d 3a87 cabc fed9 303d fd81 3b3d
000000a0: e707 393c 4e9d 5e3d eb5c 733d fe6e c93c
000000b0: 3f3f bfbc 1cae 86bd 9df6 b4bd d45e c3bc
000000c0: ad0c 11bd 7d3b 88bd fd13 21bd 0c39 9dbd
000000d0: 78b5 04bd b72a 1fbd 8850 48bd 0499 81bd
000000e0: dba2 3cbd ba04 6ebd 9646 723d c457 2a3d
000000f0: 52d0 3a3d 5691 a13d e0f7 fdb8 f095 18bc

net.6.weight f4 [32, 64]
0.06992908 -0.01996784 0.001263395 -0.118098155 -0.02131389 -0.034797385 0.04074453 -0.033999532
-0.0038817972 0.06731112 -0.04357776 0.0061067343 0.050064743 0.020314157 -0.104314476 -0.08574073
-0.004017651 0.117547855 -0.11353131 0.11725314 -0.009655878 0.106788486 0.02861546 -0.06803107
-0.057384983 -0.09455319 -0.101544544 0.09842272 -0.0057128966 -0.08122225 0.08572571 -0.075427964
0.07816592 -0.02597566 -0.008504152 0.053255647 0.11032781 0.07305005 -0.0992316 0.006415114
0.12038717 -0.0972254 -0.070384726 0.044354856 -0.01670301 -0.020780265 0.043831438 0.11070345
0.03187506 0.013756245 0.032848194 -0.06867045 -0.017419338 -0.076957315 -0.04421276 -0.0348119
0.055789188 -0.097820714 0.018125236 0.018347055 -0.084939495 0.10538161 0.06783189 -0.04832238
-0.011416212 -0.06392278 0.009428337 -0.07775859 -0.047641784 -0.07599141 0.0597155 -0.10720682
-0.12279548 -0.05504303 0.11271678 -0.11883567 0.11212566 -0.04316522 -0.030196577 0.0014138818
-0.06303238 -0.072320625 0.03153412 -0.09666527 -0.07658373 -0.104928054 0.10547649 0.08043046
-0.04073752 -0.11731066 -0.010785999 -0.022721652 0.03544207 0.072919376 0.05336733 0.072695665
0.027583182 0.022770174 0.027218118 -0.049192928 0.052653387 0.09200339 0.015004938 0.036366865
-0.09720269 0.11449964 -0.08904588 -0.08543295 -0.110335186 -0.0052576214 0.06086515 -0.0043164343
0.09443629 0.054436833 -0.035321206 0.08049789 -0.034712475 -0.0006798158 0.055442974 -0.0901836
0.11876631 -0.029133484 0.029142514 0.103712976 0.048077896 -0.058720566 0.028332233 -0.041706223
-0.056437373 -0.00923112 -0.10671282 0.11089914 0.08478704 0.03999397 0.057509106 0.0042366236
-0.10939206 -0.08884451 -0.036466353 0.019359628 0.063022465 -0.04186213 -0.015379921 -0.013324037
0.121040285 0.03311017 0.07166434 0.035969846 -0.048223674 -0.07883372 0.113789834 0.10601792
0.0899875 0.006122604 -0.09580913 -0.08389956 -0.08384161 0.055299718 -0.003154412 -0.044120457
0.027973711 0.03425445 -0.0998555 -0.035827618 -0.07802766 0.11309754 -0.11432694 0.112297215
0.08796117 -0.113282315 0.075852744 0.008363186 0.015571796 0.12010527 0.019814432 -0.021382913
0.09780926 0.0035713613 0.083510585 0.09922914 -0.026882373 0.0019218356 -0.015456421 0.067999505
0.07146174 0.122143656 0.0700293 -0.056508668 0.1022021 -0.0862622 -0.020459104 -0.0018555459
0.06193383 -0.06938355 0.010862812 0.113472804 -0.10673544 -0.04736209 -0.0335184 -0.12151629
0.07577586 -0.061670166 -0.034633584 0.037760414 -0.05965937 0.021122724 0.030048952 -0.12008503
-0.064392425 0.0074053705 0.10591886 0.047848515 0.10516414 0.086594455 -0.06524291 0.0808125
0.080230124 -0.034214333 0.1000077 -0.036511403 0.07986296 0.058507886 -0.022455066 0.055022214
-0.03052488 0.0026919318 0.020951182 0.11091526 0.074896336 0.06638075 0.036645763 0.016293434
0.09560262 0.02308837 0.076510206 -0.048237726 -0.11548454 -0.026649773 0.037994668 0.08761966
0.044964235 -0.10400961 0.123230234 -0.082908705 -0.04247117 -0.055301074 0.018693434 0.09731522
-0.08595863 0.0007956028 0.10905753 -0.09458969 -0.023056328 0.04583177 -0.05421271 0.1119279
00000000: fa36 8f3d 9893 a3bc 8098 a53a 72dd f1bd
00000010: 789a aebc b487 0ebd bce3 263d 1843 0bbd
00000020: c065 7ebb 6ada 893d 987e 32bd 001b c83b
00000030: b010 4d3d e069 a63c d4a2 d5bd d698 afbd
00000040: 80a6 83bb eebc f03d 1a83 e8bd 6a22 f03d
00000050: b033 1ebc ecb3 da3d f86a ea3c e053 8bbd
00000060: 840c 6bbd 1aa5 c1bd 96f6 cfbd da91 c93d
00000070: 4033 bbbb da57 a6bd f690 af3d fa79 9abd
00000080: 7415 a03d e8ca d4bc 0055 0bbc 9822 5a3d
00000090: 8cf3 e13d 449b 953d f039 cbbd e035 d23b
000000a0: 8c8d f63d 1c1e c7bd de25 90bd 70ad 353d
000000b0: c0d4 88bc 603b aabc 9888 333d 7eb8 e23d
000000c0: 6c8f 023d e061 613c d48b 063d 18a3 8cbd
000000d0: 00b3 8ebc cc9b 9dbd 7018 35bd ec96 0ebd
000000e0: 3483 643d 3a56 c8bd 607b 943c 904c 963c
000000f0: c2f4 adbd 50d2 d73d 72eb 8a3d b0ed 45bd
00000100: 100b 3bbc f2e9 82bd 5079 1a3c e53f 9fbd
00000110: 0824 43bd 62a1 9bbd 3d98 743d 408f dbbd
00000120: 327c fbbd cd74 61bd 0ed8 e63d 1e60 f3bd
00000130: 23a2 e53d 04ce 30bd d05e f7bc 0052 b93a
00000140: 1f17 81bd d61c 94bd ec29 013d 71f8 c5bd
00000150: eed7 9cbd 85e4 d6bd 0f04 d83d bab8 a43d
00000160: 63dc 26bd 9240 f0bd c2b7 30bc c222 babc
00000170: b42b 113d c156 953d b497 5a3d 77e1 943d
00000180: 20f6 e13c 8488 ba3c 88f8 de3c 867e 49bd
00000190: 14ab 573d 466c bc3d 45d7 753c 6cf5 143d
000001a0: 3412 c7bd ca7e ea3d b05d b6bd 78f7 aebd
000001b0: 6af7 e1bd 2048 acbb bc4d 793d e070 8dbb
000001c0: d067 c13d 28f9 5e3d f8ac 10bd 14dc a43d
000001d0: ab2e 0ebd ab35 32ba 2c18 633d 2eb2 b8bd
000001e0: c03b f33d 58a9 eebc 48bc ee3c 7867 d43d
000001f0: 54ed 443d fa84 70bd 0019 e83c 25d4 2abd
00000200: e02a 67bd 203e 17bc 408c dabd 171f e33d
00000210: d4a4 ad3d b8d0 233d ab8e 6b3d 60d3 8a3b
00000220: f208 e0bd 1cf4 b5bd be5d 15bd 1598 9e3c
00000230: ec11 813d a077 2bbd 10fc 7bbc 104d 5abc
00000240: f8e3 f73d 889e 073d c1c4 923d 1e55 133d
00000250: 3086 45bd 9373 a1bd a50a e93d ec1f d93d
00000260: 5e4b b83d 20a0 c83b 9437 c4bd 88d3 abbd
00000270: 26b5 abbd f581 623d 40ba 4ebb a7b7 34bd
00000280: 2029 e53c 654e 0c3d 0a81 ccbd fbbf 12bd
00000290: f7cc 9fbd af9f e73d 3e24 eabd 15fc e53d
000002a0: fc24 b43d 8f00 e8bd af58 9b3d bf05 093c
000002b0: d920 7f3c c0f9 f53d e051 a23c 382b afbc
000002c0: 3950 c83d 800d 6a3b 9907 ab3d a638 cb3d
000002d0: 6c38 dcbc 1ae6 fb3a ee3c 7dbc 5343 8b3d
000002e0: 885a 923d 7426 fa3d 866b 8f3d a275 67bd
000002f0: 564f d13d 3caa b0bd da99 a7bc ca35 f3ba
00000300: 54ae 7d3d f618 8ebd f0f9 313c 6e64 e83d
00000310: 1c98 dabd c0fe 41bd 974a 09bd 88dd f8bd
00000320: 6030 9b3d db99 7cbd f2db 0dbd aaaa 1a3d
00000330: 625d 74bd 9009 ad3c 3829 f63c 24ef f5bd
00000340: 2de0 83bd c0a8 f23b fdeb d83d cefc 433d
00000350: 4c60 d73d 6f58 b13d 139e 85bd 0681 a53d
00000360: b14f a43d 5424 0cbd d6d0 cc3d fb8c 15bd
00000370: 318f a33d f7a5 6f3d b0f3 b7bc f95e 613d
00000380: 500f fabc 1f6b 303b d0a1 ab3c 8a27 e33d
00000390: 4063 993d a1f2 873d de19 163d cf79 853c
000003a0: 4ecb c33d d223 bd3c 62b1 9c3d ec94 45bd
000003b0: 2983 ecbd a050 dabc 4ca0 1b3d f071 b33d
000003c0: 6b2c 383d fe02 d5bd 2260 fc3d 0acc a9bd
000003d0: 40f6 2dbd 6183 62bd f922 993c 344d c73d
000003e0: 140b b0bd 0090 503a 8e59 df3d 3db8 c1bd
000003f0: a0e0 bcbc 18ba 3b3d 260e 5ebd 743a e53d

net.6.bias f4 [32]
-0.010940596 -0.032916885 -0.03759384 0.11121077 -0.09598738 -0.004642371 -0.05662456 0.0892022
0.005216671 0.076500565 -0.08030481 -0.06666136 0.073283315 0.0064134696 0.049640596 -0.0077548027
-0.042759076 0.025647754 -0.06901655 -0.11282732 0.046925984 0.032461002 -0.094733134 0.092504054
0.03137342 -0.09377608 0.009081788 -0.073831126 0.073461026 -0.05387718 0.09231702 -0.025714688
00000000: 3040 33bc dbd3 06bd 00fc 19bd 79c2 e33d
00000010: 0895 c4bd 081f 98bb 28ef 67bd a5af b63d
00000020: 9cf0 aa3b 54ac 9c3d d976 a4bd c085 88bd
00000030: 9015 963d 1528 d23b f053 4b3d 001c febb
00000040: 2424 2fbd 3d1b d23c 8d58 8dbd 0312 e7bd
00000050: 7635 403d d4f5 043d 7203 c2bd c472 bd3d
00000060: 6a81 003d ac0d c0bd c8cb 143c c634 97bd
00000070: bc72 963d 51ae 5cbd b510 bd3d 9ca7 d2bc

net.8.weight f4 [1, 32]
-0.00097213686 -0.07310321 -0.07886926 -0.0760363 -0.11713184 0.013593029 -0.04170413 -0.11903865
0.11457616 -0.064413026 -0.01710396 0.11309512 0.104949385 -0.0073187137 -0.16107355 0.092901275
0.12754379 0.036096305 -0.096892685 0.09649596 -0.11895998 -0.13425498 0.004975155 0.03446299
0.045835022 0.09025894 -0.10341157 -0.121193096 0.038859263 -0.054776605 -0.054772276 -0.017562544
00000000: 00d7 7eba 23b7 95bd 3586 a1bd ebb8 9bbd
00000010: d1e2 efbd 4cb5 5e3c f3d1 2abd 89ca f3bd
00000020: e8a6 ea3d faea 83bd 9b1d 8cbc 6a9e e73d
00000030: b4ef d63d d2d1 efbb 77f0 24be 0643 be3d
00000040: d79a 023e b8d9 133d ac6f c6bd ad9f c53d
00000050: 4aa1 f3bd 237a 09be a006 a33b 1029 0d3d
00000060: 81bd 3b3d aed9 b83d 72c9 d3bd 1634 f8bd
00000070: e42a 1f3d 6f5d 60bd e558 60bd 53df 8fbc
