prediction_model_test_muscle_blood/prediction_model/prediction_model.pth (torch, 259803 bytes, 9 tensors)

net.0.weight f4 [256, 80]
00000000: b0f2 643d ebfa 1ebd f69c e3bd fc83 a2ba
00000010: 5374 5dbd d41d 9abc 4578 c73c 130f a43d
00000020: 3406 a7bd 6af4 043d 0361 e4bd aea5 83bd
00000030: 9661 7f3d 3bdb 823d 3978 c33d 1d4e 0b3b
00000040: 2c3f 63bc 08c6 81bc da3e 213a 856f b63d
00000050: 4e5d 663c c54f 383c 2306 8c3d 2347 653d
00000060: 610b f1bd b590 58bc 53a4 2abd a3d9 983c
00000070: 8d72 69bd ce6b cd3d ba95 4abd 5f42 d3bd
00000080: 04c2 a13d 5589 dcbd 22a9 0b3d a1c2 0c3d
00000090: 07ad 38bd d3d4 d63c 4d3c 913d c235 da3c
000000a0: d3f0 93bd 075a 4fbb 788e 45bd 83c0 05bd
000000b0: 80fa e4bc 745d 753d 71fb 3dbd cadf b03d
000000c0: 2cf8 c5bd 73f5 0ebd fc4b e13c 1c10 a13c
000000d0: a126 4f3d a582 dbbd af15 823d dd33 cf3d
000000e0: 15d6 2d3d 421e a93d e974 abbc e918 a43d
000000f0: 9d19 773c fa36 c23d d010 51bd 8f8e 573d
00000100: 9688 b5bd 19de 7cbc f5a4 1abd 8784 733c
00000110: c3c4 70bd b476 e8bd 1da6 cfbd 91c2 48bd
00000120: 8fe7 963d 7020 2d3c 4db6 b3bc 79ef 9bbc
00000130: b17f dabd f2ea 97bc d0b0 ba3d 063d 62bd
00000140: 5816 b7bb 7ada ab3d a08b 1bbd 0331 9a3d
00000150: c8f7 4a3b 6182 5f3c af15 113d 2fbd 9e3b
00000160: 8362 81bd 720c a6bd 8c29 d73d 36f4 843d
00000170: 31f9 7abd e768 0e3d 2f8f 59bc 5811 66bd
00000180: 47ac acbc 2557 4a3d ab06 b63d 11a1 f0bc
00000190: 6372 1b3d 3f12 a83d 7dd1 dabd 845a c9bc
000001a0: 0ec9 e5bd de2e 40bd 1761 6cbd 8b88 613d
000001b0: 0391 443d 5025 103d 8798 6cbd 23a8 15bd
000001c0: f834 483d e38b c9bd 9680 c5bd 6f0a c73c
000001d0: 45b8 5d3d 24ef 34bd 7dc9 c1bd 58bb a1bd
000001e0: 7c15 a1bd dff9 343d 3089 7e3d 6e27 bfbd
000001f0: a58f 32bd e19c c5bb a9e9 18bd afc4 48bd
00000200: 84ec 473d 6b74 3c3d 704d a4bd 557d cdbd
00000210: f9c5 4f3d 8c15 363d 1145 d23d 103c b93c
00000220: 1239 0fbc 6afd 93bd a2ca c3ba 27e5 db3d
00000230: 20c7 4ebc 423a 92bd d528 603d b961 afbb
00000240: 4af2 d63d 35a0 9cbd 9b50 953d 1829 9d3d
00000250: b7a1 1b3b 4fbe 47bd 889c cd3d b647 e1bc
00000260: f1b4 8dbd f5af d23c 2fae e2bd ae28 cd3d
00000270: d69d be3d 1fa2 083d 9960 9f3c ca97 1d3d
00000280: 8a2d 49bd 9525 dbbc 8300 763d dfd1 acbd
00000290: fe38 40bd 34e7 423c 5ef5 c8bd e9d3 f63c
000002a0: abfb 493d c2aa 943a 1389 55bd 9ea6 b9bd
000002b0: e298 c7bd 4ced 16bd 4c83 123d ce9d 6fbc
000002c0: 1c39 9cbd d5e5 a23d 5eb8 e5bd 004a ae3d
000002d0: 1d2c f43b 9561 cbbd f299 68bd 8d01 9d3a
000002e0: 5646 8fbd f29d 95bc 1940 da3c bb8b babc
000002f0: 4a4d 0ebd f618 83bd dc97 d9bd bdb3 9dbd
00000300: 95e6 26bc 4951 6a3d 2d99 c73c f56f 83bd
00000310: 0359 60bc 46cf 37bb 1cef 6e3d 06f9 da3d
00000320: 858d 123d d290 80bd c723 8cbd 3f66 eb3c
00000330: 4f40 dc3c 3ac2 97bd 70ed d9bd d8a5 1a3d
00000340: 3fd2 b3bc e8b8 bf3d d76b 99bc f625 0f3c
00000350: 41bf af3d a443 e23d f3b1 c03d a2d6 7bbd
00000360: 25d6 47bb ec67 e23c 6410 a33d 5809 e2bd
00000370: e223 803c 0492 603c 391a 8d3d 69d7 803d
00000380: c182 3f3d 14ac a13c aab9 d53d 785d 903c
00000390: 3e68 cd3d 5b4f bc3c 5a3e 3fbd c805 873c
000003a0: 6f66 893d 2d8c 793d 9bac 2f3d aea6 b63d
000003b0: 53e4 313d 5b90 d2bd 272f 87bd 592f b53d
000003c0: a581 c13d eb35 d73c 0fc7 f13c 13f7 a3bd
000003d0: 2095 32bd 2664 aebc 39c0 6f3d d770 9abd
000003e0: 7d6b d23d de80 ddbd 4a87 933d 7907 723d
000003f0: d3b3 453d 8078 67bc 1ef1 9e3a 1054 973c
0.055895507 -0.038813513 -0.11113922 -0.0012398954 -0.054066014 -0.018813051 0.024349341 0.08010688
-0.0815548 0.032459654 -0.11151316 -0.06428085 0.062348925 0.06389471 0.09544415 0.0021256276
-0.013870042 -0.015841499 0.0006151028 0.089079894 0.0140603315 0.011249487 0.06837108 0.055976044
-0.117697485 -0.013218095 -0.041660618 0.018658465 -0.05699401 0.10030328 -0.049459197 -0.10315394
0.07898334 -0.107683815 0.034096844 0.0343653 -0.045086887 0.02622453 0.070915796 0.026636962
-0.07223668 -0.0031639354 -0.048231572 -0.032654297 -0.027951479 0.059903577 -0.04638237 0.086364344
-0.09666476 -0.034902047 0.027502052 0.019661002 0.05057395 -0.10718278 0.06351792 0.10117314
0.042440493 0.08257724 -0.02092977 0.08012564 0.01508179 0.09483142 -0.051041424 0.05262619
-0.08863942 -0.015433812 -0.03775497 0.01486314 -0.058781397 -0.11350766 -0.101391055 -0.049013678
0.07368385 0.010566816 -0.021937514 -0.019035088 -0.106688865 -0.018544648 0.091157556 -0.055233978
-0.0055873804 0.083912805 -0.037974954 0.075288795 0.0030970443 0.013641925 0.03542107 0.00484433
-0.06317618 -0.081078425 0.10505971 0.06491892 -0.061272804 0.03476801 -0.013278767 -0.056168884
-0.021078242 0.049399514 0.088879906 -0.029373677 0.037950885 0.08206605 -0.10684488 -0.024579294
-0.11219989 -0.046919696 -0.05770978 0.05506186 0.047989856 0.035191834 -0.05776265 -0.0365373
0.04887864 -0.098411344 -0.096436664 0.024296967 0.05413081 -0.044173375 -0.09462259 -0.07897061
-0.07865426 0.04418361 0.06214255 -0.093336925 -0.04359402 -0.0060306643 -0.03733221 -0.049015697
0.048809543 0.046009462 -0.080225825 -0.10033671 0.05072591 0.044454142 0.102670796 0.022611648
-0.008741634 -0.07226069 -0.0014937709 0.10737067 -0.012620717 -0.07140018 0.05472644 -0.0053522256
0.10495432 -0.076477446 0.07290765 0.07673854 0.0023747513 -0.048765477 0.100396216 -0.027500015
-0.069192775 0.025718668 -0.11068379 0.10017525 0.093074486 0.033357736 0.019455241 0.038474835
-0.049115695 -0.026751319 0.06005908 -0.08438467 -0.046929352 0.011895943 -0.09812425 0.030130344
0.049312275 0.0011342394 -0.052132677 -0.09064983 -0.09745957 -0.036847398 0.035769746 -0.014625026
-0.0762808 0.07953993 -0.11216806 0.08510208 0.007451548 -0.09930722 -0.05678744 0.0011978612
-0.069958374 -0.01826379 0.026641892 -0.022771707 -0.034741677 -0.06401245 -0.10624668 -0.07700298
-0.010186811 0.057206426 0.024365032 -0.064178385 -0.013693097 -0.0028047129 0.0583335 0.10692029
0.035779495 -0.06277622 -0.068427615 0.028735278 0.026886133 -0.07410093 -0.10640991 0.037755817
-0.02195084 0.0936144 -0.01872818 0.008737078 0.08581401 0.11048058 0.09408941 -0.061483987
-0.003049263 0.027637444 0.07962111 -0.110369384 0.01564211 0.013706688 0.06889767 0.06291086
0.046755556 0.019735374 0.10435803 0.017622694 0.10029648 0.022987058 -0.046690322 0.016482249
0.06708991 0.060924698 0.04288922 0.089185104 0.043430638 -0.1028144 -0.066007905 0.088469215
0.09448556 0.026270827 0.029513864 -0.0800611 -0.043599248 -0.021287989 0.058532927 -0.07541054
0.10274408 -0.10815595 0.07203539 0.059089158 0.048267197 -0.0141278505 0.0012126302 0.018472701

net.0.bias f4 [256]
00000000: 1d7f 613c efae 9e3d bac1 7e3c 2d20 91bd
00000010: 50ae 00bd c286 e23c f5b1 b03d 1f8d c83d
00000020: 7f05 42bc 4774 f5bd 7e2c a63c 666f a5bd
00000030: 789e dfba 7774 443d d71e fabc a1f9 193b
00000040: 2b4a af3c ac39 62bd ace1 01bd 4e7e 113e
00000050: 5623 ca3d 4d2a 0e3e 13bb 5abd ebbc f83d
00000060: 3052 8e3d b1cf 183d 12aa df3d 2d16 ea3a
00000070: cc67 ef3b 2c56 dd3c fd79 db3c 46e2 103c
00000080: 2ac6 c23c f3f8 7a3c f0ee 033d 846f c63d
00000090: c53c b3bd 1ecb b13d 86eb 783d a713 0cbd
000000a0: 9ec9 1a3e 4c24 c43d 24f4 1abd 1d37 d23c
000000b0: 0e54 8e3c 76ce 4f3d ba2f cebd 903c d6bd
000000c0: 4a87 0dbd e721 a93d b6d3 9ebd ea88 b63d
000000d0: e488 fd3c 8ad8 af3d 7d2d dc3d a467 023d
000000e0: cbbd be3d 43af 193d 8f34 36bd 0da9 23bd
000000f0: 17d5 e5bb b278 08be f95f a0bc 34b1 073d
00000100: e610 26bd 5c1d 6b3b 46b1 193d 8f90 3a3d
00000110: ac0d 01be d901 833d aa1d 963d 382c c7bd
00000120: 1633 22bc 68b0 1d3b eda8 ba3d 0a2c febc
00000130: 7214 463d a317 453d 56bb c53d bd0c 893d
00000140: 96e9 7b3d 87c0 6a3d 273c 10bd b8e1 81bc
00000150: bcbb 9a3d 4012 96bd 4e0e dc3d e80c 15bd
00000160: 80f7 d1bd 17d8 66bb 0495 16bd 8769 e13d
00000170: bc95 15bd 0b31 843d bc84 bdbc 1c1d 44bc
00000180: 3901 fcbc fdb7 6ebd feb0 543d f6d9 183d
00000190: b75a debd ee32 333d 99fe 363d a974 86bc
000001a0: d855 713d 97ed e13c 43b9 5fbd 0038 ccbd
000001b0: b33e 94bd 6765 933c 3969 e83d e75a dabc
000001c0: afd2 9ebd 8b90 bd3d 57af 32bd beca 813d
000001d0: 715e c1bd 0710 f0bc f2be d9bd 6371 84bd
000001e0: 529f 293d 20db febc ea86 733d 2bea 783d
000001f0: 37e5 843b 1d1d 833d 3d30 c03d d41c afbc
00000200: a5d5 b7bd d5ce d03d fe2b 91bd e16d e7bd
00000210: a98a 803d dff8 0fbd 19da f23d 0037 253c
00000220: 072f a03b a466 a7bd 6f1f 8d3c 2f10 abbd
00000230: afd9 29bb a1a1 813c a551 d3bd e442 24be
00000240: 9517 143e 1dbe c33c 6fe5 813d 34ac 81bd
00000250: 114d 4a3c 4d55 aa3d cd73 3ebd 5cff 7dbd
00000260: 7706 ac3d 7bb0 c6bd a6e5 d7bc 24bc c4bd
00000270: 1ae2 c23d 0b41 89bd 456f 1e3d 3878 05be
00000280: 99c5 463d 9655 963d c071 cdbd bfed a4bc
00000290: 66dd 7bbd b924 5e3d b0fc b63d 5a26 8bba
000002a0: 66f6 963c c727 cdbd d697 f3bd 2caa da3d
000002b0: 4381 bc3d b19f db39 bb86 32bd d4d5 84bd
000002c0: d776 913d 0579 3abc 0a17 853d 5c69 913d
000002d0: 6aad 1c3e 3a66 273d 62d3 d4bd 608e e2bd
000002e0: d259 eeba 5c0e c53d 4cbf 02bd 2605 3a3c
000002f0: 0298 c43c 0695 afbd c3bf 81bd 4f0a 00bd
00000300: 8db9 41bc 33d3 7e3d 064e 9c3d e792 02be
00000310: 0048 dd3c 8362 973d a9fa 873c 5a64 c8bd
00000320: 08f5 163e 4158 fabd e23b fabb ab6e aa3d
00000330: d89c cc3d 4e41 f03c e9c9 1cbd 86c2 3f3c
00000340: 7c0a 1c3b 0245 fabd 5276 aa3d 1434 ae3d
00000350: 2900 723d 1c53 6c3c 0dbd a13d ff4c aa3d
00000360: 89ed 443d 2dab 1abe b113 b73d 520f aa3c
00000370: 73bd 0a3d 1db6 4e3d 3cae 3439 06cf 5fbd
00000380: 1e87 5ebd 01e8 ccbc c760 b73c 5c09 f4bc
00000390: 0ad7 643d cb59 bf3c 5b90 9d3c ba0a 43bd
000003a0: b8f9 a23d 7388 063d 9e1d 03bd 2018 66bd
000003b0: 04b4 0bbe 7164 56bd 2695 00be 226d 11bc
000003c0: 2e24 73bc 8489 68bb 130b 903d 80ea b3bd
000003d0: 8970 c93c 0638 643d afc4 033d 67a1 0dbe
000003e0: 6860 6cbd c9db 833d 0d1d 22bb 086e b23c
000003f0: fb2c e23c c385 323d 5729 65bd a2e6 bcbc
0.013763216 0.0774821 0.015549118 -0.07086215 -0.031416237 0.027652148 0.086276926 0.09792542
-0.011842131 -0.11985069 0.020284887 -0.08077888 -0.0017060777 0.047962632 -0.030532284 0.0023494738
0.02139767 -0.05523078 -0.031709358 0.14208338 0.09870021 0.13883324 -0.053401064 0.12145408
0.0694927 0.037307445 0.1092111 0.0017859392 0.0073060747 0.027018629 0.026791567 0.00884301
0.023776133 0.015318143 0.03221029 0.09689239 -0.08751825 0.0868132 0.060771488 -0.03419843
0.15115973 0.095772356 -0.037830487 0.025661046 0.017374065 0.050734006 -0.10067697 -0.1046077
-0.03455285 0.082584195 -0.077552244 0.08912833 0.030949064 0.085862234 0.10750864 0.03183712
0.09313544 0.03752066 -0.044483718 -0.03995614 -0.0070139277 -0.13327292 -0.019577013 0.03312798
-0.04054346 0.0035875654 0.037522577 0.045548018 -0.12602872 0.06396837 0.07329877 -0.09725231
-0.009899875 0.0024061445 0.09114251 -0.031026859 0.048359342 0.048118245 0.09654872 0.06691883
0.06150206 0.057312515 -0.035213616 -0.015854701 0.07555339 -0.073277 0.10744916 -0.03638926
-0.10252285 -0.0035224014 -0.036763206 0.11006456 -0.03651975 0.06454667 -0.023134582 -0.011969831
-0.030762302 -0.058280934 0.051926605 0.03731724 -0.10857146 0.043749742 0.044676397 -0.01641305
0.058919758 0.027579112 -0.05462004 -0.09971619 -0.072385214 0.017992688 0.11348195 -0.026654674
-0.077550285 0.09256085 -0.04362425 0.06337498 -0.094418414 -0.029304517 -0.10632123 -0.06466939
0.041411705 -0.031110346 0.059454836 0.060770195 0.004055645 0.06402037 0.09384201 -0.021376051
-0.08976296 0.101957 -0.07088469 -0.113002546 0.06276447 -0.03514945 0.11858005 0.010083914
0.0048884186 -0.08173874 0.017226903 -0.08352696 -0.0025917103 0.015824141 -0.10318307 -0.16041142
0.14462121 0.023894364 0.06342589 -0.06331673 0.012347476 0.08317051 -0.046497155 -0.062011108
0.083996706 -0.0970163 -0.026354622 -0.096061975 0.09515782 -0.06701859 0.038680334 -0.13034141
0.048528288 0.07340543 -0.10031462 -0.020132897 -0.06149044 0.05423424 0.08934915 -0.0010616288
0.018428039 -0.100173526 -0.11894195 0.10676989 0.09204342 0.00041889914 -0.04358552 -0.06486097
0.07102745 -0.011381392 0.06498535 0.07100174 0.15300527 0.040868975 -0.103918806 -0.11062312
-0.0018184728 0.096218795 -0.031920716 0.011353767 0.023998264 -0.08573346 -0.06335404 -0.03125983
-0.011824024 0.062213134 0.07632069 -0.12751351 0.027011871 0.073918365 0.016599016 -0.097847655
0.1474191 -0.12223864 -0.007636533 0.083218895 0.09990853 0.029328015 -0.038278494 0.011704093
0.002380996 -0.122201934 0.08323349 0.08506027 0.059082184 0.014424112 0.07897387 0.08315467
0.048078094 -0.15104361 0.08939303 0.020759258 0.03387208 0.050466646 0.00017231045 -0.054640792
-0.054328077 -0.025012972 0.022385014 -0.02978962 0.05586914 0.023358246 0.019233873 -0.04761765
0.07957786 0.032844972 -0.032010667 -0.05617535 -0.1364289 -0.052341882 -0.12556896 -0.008876117
-0.014840169 -0.0035482356 0.07033362 -0.08784962 0.024589794 0.05571749 0.032169994 -0.13831101
-0.057709128 0.06438405 -0.0024736554 0.021780983 0.027609339 0.043584596 -0.055947628 -0.023059193

net.2.weight f4 [128, 256]
00000000: 80a2 07bb 60f7 103c a644 123d 5d37 7abd
00000010: 302e f5bc 8ad0 15bd 9076 9e3c 0afa 233d
00000020: ae5f 51bd cdf3 873c 52dc 653d 7847 4c3d
00000030: ae5d 73bd dc5b dabc fccf 0cbd a2f5 2f3d
00000040: 0ced a53c f076 f63b e08a 803b d41d 403d
00000050: bc24 00bd 656b 0bbc c42d 5dbd d438 ea3c
00000060: 7458 05bd 0b9b 92bb 96e9 4fbd 1ac7 673d
00000070: 4624 0e3c 0a2d 1d3d 1034 60bd 0c16 fdbc
00000080: 9bdd dd3c 7abf 43bd 2c96 463d 5012 9fbc
00000090: 3c45 0f3d e89a 71bc 07f0 a83b c097 2cbb
000000a0: a18f 6e3d b476 9fbc cc77 a03c 248d 0fbd
000000b0: 1a39 2d3d 2c8d 783d 5ce0 27bd 3ad4 0b3d
000000c0: deb0 083d 7077 17bd 0861 d53c 370c 76bd
000000d0: 686d 313c e13d 22bd ac3e b5bc 5403 2abd
000000e0: 404c febc b7bb 5b3c e092 eabb 6077 35bd
000000f0: 6dab 4e3c d8c8 6f3d 4c79 5bbd 20fb 76bb
00000100: 5816 75bd 2086 673b 604a fa3b 7044 20bd
00000110: 3a73 72bd f08d 7c3d de6b 52bd 0ca3 15bd
00000120: 3867 48bd 94a8 78bd f89a 48bd d8af d23c
00000130: 8434 9d3c 861d 17bd 0030 723c 98d3 353c
00000140: 4cf8 bbbc 7d90 5dbd 0031 c6ba bc6e 37bd
00000150: 689b 41bc 5067 b5bb 9c95 5dbd dc28 d8bc
00000160: 7a01 243d 98b3 76bc 5c3c 40bd cd92 453d
00000170: c03d 30bb a02a 72bb d606 6c3d 6cfb eebc
00000180: c1ce 2dbc 2816 f53c aa6c 373d a9e7 62bd
00000190: a0ca c33b 608a 493d b338 643d 1326 35bd
000001a0: 5314 143d cc15 88bc e443 6c3d 1ac9 ea3c
000001b0: 5c06 88bc 1056 37bc e805 6cbc 3c53 73bd
000001c0: 589d f33c 549e 183d 0064 55ba c01e 133c
000001d0: 4cf7 7b3d d270 1ebd e48a 903c daea b1bb
000001e0: 009c 21b9 4074 9f3b 00dd 983a 66d1 6fbd
000001f0: 1a32 17bd cefe 25bd 10c6 20bd 0002 653d
00000200: b9b6 323d bc34 363d 26b9 873c f68b 51bd
00000210: 5c53 e33c 3cb7 f13c c956 76bd 6e59 78bd
00000220: 5450 6d3d d882 d2bc 10cb 8cbc 3a88 09bd
00000230: b86c 8fbc dda2 23bd 98bf 7abc b36e 473d
00000240: 80df 183b 40b2 8abb e4a7 7dbd c0db a63c
00000250: 1657 6a3d 305f 06bc 1be5 d3bc 221e 273d
00000260: a81a 1dbc 3569 7abd c8b3 2d3d a02c f2bc
00000270: d019 d3bc f6f1 45bd f2d3 863c 202c e0bc
00000280: 7c84 0cbd 4026 7abd 3094 fe3b a40d 21bc
00000290: 8cfa 96bc 9898 36bc 40a7 323c 1ac8 7c3d
000002a0: 4059 8e3c 4600 9c3c a535 533d 3474 e7bc
000002b0: b058 693d 6c9b 863c e594 15bb 8e19 573d
000002c0: d166 00bd c065 52bb 9c6b 1d3d fef8 1bbd
000002d0: 4ad9 ecbc 369f 7dbc a45d ca3c 9c0a a13c
000002e0: eced 90bc 09c2 80bd 2823 213d a88c 203c
000002f0: e720 333d c41b 0fbd 80a2 f6ba 4066 633b
00000300: 2038 2fbd 501c 483d 8692 143d 40dd 5e3b
00000310: de38 24bd f583 81bd 4277 09bd 9542 33bd
00000320: 2c35 d93c 2866 a13c 20d3 03bc 0c4b f63c
00000330: e09e 79bb d745 4abd bc11 b23c c6a2 46bd
00000340: a882 efbc 911f c43c fe27 43bd 4c1b 043d
00000350: c2da 1dbd 0092 9bbc 4036 e53c b12c 81bd
00000360: 14de e1bc b0e8 d93c 003e 15bd b04a c33c
00000370: e5be 793c 20f2 7abb 21fc 13bd a8f6 61bd
00000380: 34f8 53bd 1e28 2bbd 8073 6dba 8056 5ebd
00000390: 60a3 05bd 08a4 3a3c 0732 433c 42a9 5b3d
000003a0: 3d95 ee3c 0026 11bb 60e5 ca3c 5085 3bbd
000003b0: 625d 1f3d 7aea 123d 48f2 443c 603c cd3b
000003c0: e7d7 86bc acf6 62bd 33c1 2a3d 8066 b6bb
000003d0: 9c33 403d 06ce f3bc e11c 85bc 2f50 60bd
000003e0: 8fcc 7d3c fef6 793d 77bb 163d cc6f 15bd
000003f0: 7e48 e93c 44ac 4f3d 7869 553c a0e1 cb3b
-0.0020696223 0.008848041 0.03571 -0.061087955 -0.02992925 -0.03657583 0.019343644 0.040033378
-0.051116638 0.016595745 0.056118317 0.049872845 -0.05941551 -0.02665513 -0.034378037 0.042958863
0.020254634 0.0075215027 0.003922805 0.046903446 -0.031285033 -0.008509492 -0.053998724 0.02859155
-0.03255506 -0.004474049 -0.050759874 0.056586362 0.00867564 0.03837303 -0.05473715 -0.030894302
0.027083209 -0.04779003 0.04848306 -0.019417912 0.034978136 -0.014746405 0.0051555666 -0.0026335567
0.058242444 -0.019465782 0.019588374 -0.03504671 0.042290784 0.060681507 -0.04098545 0.034137942
0.0333718 -0.03697914 0.026047245 -0.060070243 0.010829307 -0.039609794 -0.02212461 -0.04150708
-0.031042218 0.013411454 -0.007158622 -0.044303298 0.012614113 0.05854115 -0.053582475 -0.0037686303
-0.05983576 0.0035327747 0.0076382607 -0.039127767 -0.05919192 0.0616588 -0.0513724 -0.036532447
-0.048926562 -0.060707644 -0.048975915 0.025718614 0.01919008 -0.03689339 0.014781952 0.011097811
-0.022945546 -0.054092873 -0.0015120804 -0.04478334 -0.011816837 -0.0055359975 -0.054097757 -0.02638667
0.04004047 -0.015057467 -0.046932563 0.048235703 -0.0026892275 -0.0036951676 0.057623707 -0.029172622
-0.010608376 0.029917791 0.044781365 -0.05539671 0.0059750825 0.04920423 0.055718135 -0.044225764
0.036152195 -0.016611956 0.057681933 0.028660346 -0.016604595 -0.0111899525 -0.014405705 -0.05940555
0.029738113 0.03726037 -0.00081402063 0.008979499 0.061515138 -0.038681813 0.017644353 -0.005429608
-0.00015412271 0.004866153 0.0011662543 -0.058549307 -0.036913015 -0.040526204 -0.039251387 0.05591011
0.04363129 0.044483885 0.016567778 -0.051158868 0.02774971 0.029506318 -0.06014136 -0.06063216
0.057937935 -0.025697157 -0.017186671 -0.03357718 -0.017507896 -0.03995024 -0.015304469 0.048689555
0.0023326576 -0.004232675 -0.06192769 0.020368457 0.057211958 -0.008201405 -0.025866082 0.04080022
-0.009588875 -0.06113549 0.04240778 -0.029562294 -0.025769144 -0.048326455 0.016458485 -0.02736479
-0.034306034 -0.061071634 0.00776913 -0.009829912 -0.018430017 -0.01114478 0.010904133 0.06171427
0.017376542 0.0190431 0.05156483 -0.028253652 0.056969345 0.016431533 -0.0022824344 0.052514605
-0.031348053 -0.0032104105 0.038432702 -0.038079254 -0.028912205 -0.015479853 0.024702854 0.01965838
-0.017691575 -0.06287009 0.03934017 0.00979916 0.04373255 -0.03493859 -0.0018816739 0.0034698397
-0.042778134 0.048855126 0.03627255 0.0034006387 -0.040093295 -0.06323997 -0.033561 -0.04376467
0.026514612 0.019702032 -0.008045942 0.030065082 -0.0038089082 -0.04938301 0.021736972 -0.048495077
-0.029237106 0.023940833 -0.04764556 0.032252595 -0.0385387 -0.018990517 0.02797997 -0.06307352
-0.027571715 0.026600212 -0.03643608 0.023839325 0.015243267 -0.003829129 -0.03612912 -0.05516687
-0.051750377 -0.041786306 -0.00090580434 -0.05428171 -0.03262651 0.011391647 0.011913783 0.053628214
0.029123897 -0.0022147894 0.024767578 -0.045781434 0.038907416 0.035868146 0.012020655 0.006263301
-0.016460372 -0.055411026 0.041688155 -0.005566418 0.04692422 -0.029761326 -0.016249122 -0.05476397
0.015490665 0.061026566 0.036799874 -0.03648357 0.02847695 0.050701395 0.013025634 0.006221965

net.2.bias f4 [128]
00000000: f167 633d 25ce b1b8 1c62 aabd 76e1 41bd
00000010: bcdf 04bc cecf 53bd 3846 173d b0fe c13d
00000020: 12d2 7ebd 6c80 263d 628a bfbd 1d88 683d
00000030: 14d9 bebd 76b8 89bc 28c8 3d3c c49a 24bd
00000040: ebf9 b9bd dc67 4a3d d0ea 363d 64b4 f5ba
00000050: f88a 293d a8ba 153c 7dc9 81bd 1efc 643c
00000060: ff7f 6bbc 1d60 c83a 1ca9 38bc 311c 5ebd
00000070: f062 e7bb d0b4 433d fe5b 963c 7a4e 573b
00000080: 4414 abbc 21a1 ed3c eb42 9e3c ecc1 d9bc
00000090: e0b4 14bc a76b ed3c d4d3 f2bc 6f77 ca3c
000000a0: 0216 d7bb 3cd9 7ebd 7a14 86bc a451 c3bd
000000b0: a014 7dbd ba7b 69bc 6625 b03c c09c bf3c
000000c0: 1449 bdbd 5037 4cbd 02f1 93bc ab05 1fbd
000000d0: c8d5 1f3d 2811 80bc 3118 65bd 9d56 b93d
000000e0: 7072 bc3c b2bd 4e3d 19d3 343c 01fc 0fbd
000000f0: 5527 80bb d059 a63d 355c e43b 8da0 783d
00000100: e263 13bd 351f cf3c 30ce 13bd 2e21 503c
00000110: f77e 3abd ae48 303d ad5d f4bc 49c1 e8bc
00000120: 8e00 8d3c cf9c 84bd 9712 4cbc 97b1 26bd
00000130: 2c67 7f3c a05c dfba 6911 563d ea26 da3c
00000140: f2ac 4db9 e9ed 7db9 bfcc 8dbc 5347 19bd
00000150: ead1 a53d 9270 3bbb ec21 10bd a91e a7bc
00000160: f4d1 2dbd 66a9 703d 57e4 f63b e6c6 32bc
00000170: 585f a33d 699f 673b d7a9 033d d02e b4ba
00000180: 1911 2b3b c00d f93a 8466 abbb 3eb0 f03b
00000190: 8609 503d 7777 cfba c6bc 023d fe63 96bc
000001a0: 2f23 803d 57dd 3339 50a8 c0bc 5b90 203d
000001b0: bcfc 703d 2c74 f7bc d47a b0bc d850 80bc
000001c0: c5d6 c9bc 5c71 303d c72e cf3c a368 00bd
000001d0: f911 10bd 0ea3 4d3d 3c03 45bd ce86 8b3c
000001e0: 9d3a b53b 2e01 463a f8cb ef3c b37c bcbd
000001f0: 9504 b4bd e9d3 8a3c a006 e73b ac35 4cbd
0.055519048 -8.478415e-05 -0.08319494 -0.047334157 -0.008109983 -0.05171185 0.0369322 0.09472406
-0.062212057 0.040649816 -0.09352566 0.056770433 -0.09318748 -0.01681159 0.0115833655 -0.04018666
-0.09080871 0.049415454 0.04465753 -0.0018745777 0.041392297 0.009138741 -0.06337259 0.013976125
-0.014373778 0.0015287433 -0.011270788 -0.054226104 -0.007061355 0.047779858 0.018354412 0.0032853172
-0.020883687 0.029007496 0.019319018 -0.026581727 -0.009076327 0.028981997 -0.029642023 0.024715154
-0.006563903 -0.06221889 -0.016367186 -0.09537056 -0.061787248 -0.01425069 0.021502208 0.023390174
-0.09242454 -0.049857438 -0.018059257 -0.038823765 0.039022237 -0.01563318 -0.055931274 0.09049723
0.023003787 0.050473876 0.011036658 -0.03515244 -0.0039109387 0.08122599 0.0069689997 0.06069999
-0.035983928 0.025283435 -0.036085308 0.012703223 -0.04553124 0.043038063 -0.029829824 -0.028412478
0.017212179 -0.06475221 -0.012455604 -0.040696707 0.015588563 -0.0017041154 0.052262697 0.026629884
-0.0001961475 -0.00024216589 -0.017309545 -0.037421536 0.080966786 -0.0028601033 -0.0351886 -0.020400362
-0.042436555 0.0587553 0.0075345444 -0.010911679 0.0797717 0.0035342819 0.032144394 -0.0013746861
0.002610272 0.001900129 -0.0052307267 0.0073452285 0.050790332 -0.001582845 0.03191831 -0.018358227
0.06256711 0.00017153226 -0.023517758 0.039200168 0.058834776 -0.030206762 -0.021542944 -0.01566355
-0.024638543 0.043076858 0.02529086 -0.03134979 -0.03517339 0.05020433 -0.048098788 0.017032053
0.005530669 0.00075532764 0.029272065 -0.09203472 -0.087899365 0.01694675 0.0070503503 -0.049855873

net.4.weight f4 [64, 128]
00000000: a176 a73d b737 88bd 9620 6bbc 62c5 903d
00000010: 3cfe 91bd 5a9b 313d 50b1 b0bc aee2 86bd
00000020: 253a 3dbd 64d9 5bbd 750f 90bc 7b1d 173d
00000030: fc67 99bd 14a7 a23a ece8 f93c f5a0 d83b
00000040: c72f be3d c7ba 19bd 3c0e 993d 2e62 86bd
00000050: ff94 603d 4360 7fba f880 a2bd b6e5 9ebb
00000060: 151e e2bc ef50 9ebd d14a 0c3d e72d eb3a
00000070: 48c6 a43d cd19 893d 1fa1 9c3d f8c6 533d
00000080: 691a 1fbd aa28 a53d d15f 823c 41e4 28bd
00000090: 784d 3e3d 120d 2a3c c110 9f3c e959 41bd
000000a0: 7dc8 633d fb4d 98bd 41f2 263d b17a af3c
000000b0: e459 263d 047e a93d 58ae 9bbd d1f5 a2bc
000000c0: 1f1c 843b 3670 853d 17b9 9a3d c247 a9bd
000000d0: a97b 4dbd 3b08 aebd 3b25 12bd 4cac 8a3c
000000e0: 7f4b acbd c836 96bd 13d8 5fbc 2ad5 873d
000000f0: b44f 9cbc 0094 a53c 89ee 67bd 2f8d 8ebc
00000100: 42da 12bd f312 3abd 6cdd a2bd 9a8e 553d
00000110: fdec 143b fbf9 90bc ba88 c4bc 86e4 833d
00000120: 30f4 6e3c 9d2e 6ebc 8786 803d 0951 b33c
00000130: 66b3 ac3d 2424 febc f430 12bd 1c09 27bd
00000140: 8a92 7abd 4714 cabc 3d9c 34bd a7ee 363d
00000150: 54d0 98bd 7a9a bebc 4f11 c73c 205a aa3d
00000160: c580 03bd d2b6 c8bd 706d 863d a493 89bd
00000170: 1e62 b7bd 2fc8 9d3d 5648 82bd f0b3 98bd
00000180: 6c7f 473d cb1b abbd 0781 313d 67a2 a2bd
00000190: 3e1c 6d3d 0753 eabc 0c86 d83c 8bd1 553b
000001a0: 3819 843d 768a 573d 6260 1fbd 8aec 7abd
000001b0: def8 88bd 87c6 a2bd 9592 89bd 3fd1 52bd
000001c0: 9ce4 8fbd b06c 303d 8959 76bd d94d 5e3d
000001d0: d21f 36bd 1f49 113d bbc7 833d d299 6c3c
000001e0: 1b65 e6bc 4a5b 953d 5f1a a2bd 4470 76bd
000001f0: d1f8 aabd 793a 0dbd 4370 d9bc b490 b83d
00000200: a893 193d 4c51 30bd ce28 18bd a534 8dbd
00000210: 49b7 50bd 5368 19bd 28a6 a93d 5622 8bbc
00000220: 32e8 243c abb3 42bd 8880 5bbd c78d 85bd
00000230: 7adc b6bd ecc2 abbd f903 a5bc 579d 5f3c
00000240: 0318 d93c 19d6 b13b bd11 893c adb7 973d
00000250: 6f88 0f3d 62e4 8f3d 1a53 393d ece7 9d3d
00000260: 209e 513d 4491 93bd a78f 9f3d 1a55 afbc
00000270: a809 483d 514b 9b3d 6622 993c a71d 7e3d
00000280: c9dc 65bd 13bf 88bd 6aaf 643b b0cf 973d
00000290: 78dd 98bd 485b 53bd 1b02 493d 08cc df3a
000002a0: 5f52 933c f46b da3c 05b6 5c3d 4a9e 8a3d
000002b0: 17ed a7bc 9aa1 793c b3de a0bd abdb 803d
000002c0: 5c47 c0bb 20a9 a23d e314 32bd 146e 7a3d
000002d0: 6766 9a3d d577 b33d 1a8d 22bd 6e58 f33c
000002e0: 1999 2fbd 045d 5d3d 2b55 393d 8abb e83c
000002f0: d203 93bd 483f b1bc d4f9 483d 9dca 723c
00000300: 6205 c2bc 03cf 1d3c fbd9 6dbd 71d9 1ebc
00000310: d67f 9abd 6101 9cbd 4d0b c73c 5458 893d
00000320: 4ac1 17bd d58b 82bc 2bf7 893d 6c8b 93bd
00000330: ff3a c93c 5986 72bd e3d6 213d 9bfa 7cbd
00000340: 8cb8 3cbb 1529 f83c 3911 863d b932 343d
00000350: f183 32bd 534f 7fbd fd79 21bd 27e0 913d
00000360: f7ba 073c 5d5f debc 79b4 3c3d 389d a43d
00000370: bbbd a4bd e34b 6fbd 1367 783d 44c5 ad3d
00000380: b017 5b3d f759 77bd b62b 87bd f555 673b
00000390: 2a8c 2c3c 4453 623d 9e18 3a3d 3acd e9bc
000003a0: 11e1 5d3d 5e2c 17bc 42ac 00bc 8275 983d
000003b0: 2fa8 9f3d bf30 f4bb 70a5 9cbd 28fd 98bd
000003c0: c640 17bc 63d6 613d c7c0 fabc 025a cebc
000003d0: 71af a63d 9ab2 3f3d c2ed 53b9 1ba3 a33d
000003e0: 64a7 e7bc a4b4 343d 1973 94bd 3d78 9dbc
000003f0: 8b4b f23c bcf1 933d 64ab 47bd b0fc 943c
0.081769235 -0.06651252 -0.014351031 0.07068898 -0.071285695 0.043361045 -0.021568924 -0.065862045
-0.04619803 -0.053674117 -0.017585495 0.03689335 -0.074905366 0.0012409412 0.030506574 0.0066109844
0.092864566 -0.03753164 0.07473418 -0.06561695 0.054829594 -0.0009741822 -0.07934755 -0.004849161
-0.027602235 -0.077302806 0.034251038 0.0017942757 0.08045632 0.06694374 0.07647919 0.051703423
-0.038843546 0.08064397 0.01591483 -0.041233305 0.0464606 0.010379093 0.019417169 -0.047204886
0.055611122 -0.074367486 0.040758375 0.021420809 0.04061307 0.08275989 -0.07601613 -0.019892605
0.0040316726 0.06515543 0.07554834 -0.0826564 -0.05016676 -0.084976636 -0.035680037 0.01692786
-0.08412837 -0.073346674 -0.013662356 0.06632455 -0.019080974 0.020212173 -0.05662397 -0.017401306
-0.035852678 -0.045428228 -0.07952389 0.05213795 0.0022724264 -0.017697325 -0.023990978 0.06440072
0.014584586 -0.014537481 0.06275659 0.021889227 0.08432655 -0.031023093 -0.035691217 -0.04078017
-0.061174907 -0.024667872 -0.044094313 0.04466119 -0.074616104 -0.02326702 0.024300246 0.08317971
-0.032105226 -0.09800495 0.06563842 -0.06717613 -0.08954261 0.077041976 -0.06361453 -0.07456195
0.048705503 -0.083549105 0.04333594 -0.07941132 0.057888262 -0.028604044 0.026431106 0.0032626118
0.064501226 0.05262228 -0.038910277 -0.061260737 -0.06688093 -0.07948022 -0.067174114 -0.051469084
-0.07026026 0.043072402 -0.06014398 0.05427346 -0.04446394 0.035470124 0.0643458 0.0144409705
-0.028124383 0.07292803 -0.07915186 -0.06016566 -0.08348239 -0.034479592 -0.026542788 0.09011975
0.03749433 -0.04304628 -0.03714829 -0.06894807 -0.050956044 -0.037453007 0.08283645 -0.016984146
0.010065125 -0.047534626 -0.053589374 -0.065211825 -0.08928771 -0.08386788 -0.020143496 0.013648353
0.026500707 0.0054271338 0.016732091 0.0740808 0.035042223 0.070259824 0.045245267 0.07710251
0.05117619 -0.072054416 0.077910714 -0.021402884 0.048837334 0.07582725 0.01869316 0.062039997
-0.05611876 -0.066770695 0.0034894594 0.0741266 -0.07464117 -0.051600724 0.049074274 0.0017074356
0.017983614 0.026662804 0.053884525 0.067684725 -0.020498795 0.015236283 -0.078549765 0.06291898
-0.0058678817 0.07942414 -0.04347695 0.061140135 0.07539063 0.087630905 -0.039685346 0.029705252
-0.042870615 0.054043785 0.045247238 0.028409738 -0.07178463 -0.02163662 0.04906638 0.014818815
-0.023684207 0.009631875 -0.05806921 -0.009695397 -0.07543914 -0.076174505 0.02429738 0.067063004
-0.03704957 -0.015935818 0.06736597 -0.07204327 0.024564264 -0.059210155 0.039511573 -0.061762433
-0.0028796522 0.030293027 0.06546254 0.043993685 -0.04358286 -0.06233151 -0.039422978 0.07122832
0.008284322 -0.027145082 0.04607055 0.080377996 -0.08044001 -0.05842198 0.060645174 0.08484891
0.053489387 -0.06038853 -0.06600134 0.0035299037 0.010531465 0.05525519 0.045433633 -0.028540242
0.05416972 -0.009226887 -0.007853569 0.07444288 0.0779575 -0.0074521 -0.07648742 -0.07470161
-0.009231752 0.055136096 -0.030609502 -0.025189403 0.081389315 0.046801187 -0.000202111 0.07990094
-0.02827806 0.044117585 -0.07248516 -0.019222373 0.029577037 0.072238415 -0.048747435 0.018186897

net.4.bias f4 [64]
00000000: 80bb aa3b 18f8 6cbc 50a3 86bd 8149 0a3d
00000010: 816f abbc a55a 573d f342 813d db41 aebd
00000020: 1d1e 903c f19e 913d e5ab 96bc afad 163d
00000030: 657f b73c 49c7 78bd a4a2 773d 4638 cabd
00000040: ab47 5a3d 00da a3bd d1c0 983c b846 27bd
00000050: 74c3 ad3d 750d 0ebe ee6e c63c 4642 3abd
00000060: fe04 e73c ddb4 9bbd bd3f ef3d dd2f 543d
00000070: e5e2 84bd ffeb 88bd cfbd a73d 84d1 063e
00000080: a4d3 93bd 54f8 133d 826d c3bb c729 66bd
00000090: 72f6 753c 8a79 3a3d 76a4 5ebd 7b7e 8cbd
000000a0: a418 4f3d d52c 8c3d 5942 68bc 05b8 d03c
000000b0: 886b 58bd 5510 b0bd 581f 303d 3e26 8abd
000000c0: 90fe 23bd d796 86bd e497 11bc a210 c8bd
000000d0: 297a 38bc 188c 653c 8a38 93bd 5f48 93bd
000000e0: 6b2e f73c 988e 4c3d c6de 143e 6ac9 e13d
000000f0: 7084 95bd a5c3 193c 2d2a 05bb c7c4 39bd
0.00521034 -0.014463447 -0.06574118 0.033761505 -0.020927193 0.05257668 0.06311598 -0.08508655
0.017592484 0.07110394 -0.018392513 0.03678673 0.022399614 -0.060736928 0.06045784 -0.098740146
0.053291004 -0.080005646 0.01864663 -0.040838927 0.08484545 -0.13872321 0.024222817 -0.04547336
0.028200623 -0.07602856 0.11682079 0.05180346 -0.06488589 -0.06685638 0.081905 0.13165861
-0.072181016 0.036125496 -0.005963982 -0.056192186 0.01501237 0.045526065 -0.05435606 -0.06860062
0.05056061 0.068444885 -0.014175975 0.025478372 -0.052836925 -0.08596865 0.04299864 -0.06745575
-0.04003769 -0.06571739 -0.008886311 -0.097687975 -0.011259594 0.014010452 -0.07188518 -0.07191538
0.030173501 0.049940675 0.14538106 0.11024745 -0.07300651 0.009385024 -0.0020319328 -0.045353677

net.6.weight f4 [32, 64]
00000000: b2ba 93bd e70b f5bd 9d84 a9bd 70fe fdbc
00000010: f6fc 52bd 847d e83d 9ffa f1bb ff57 d4bc
00000020: 5ef1 e03d cffd 433d dcfd b93d f2f4 05bd
00000030: 4f65 d2bd b56a 6c3d ac25 36bd f0c2 24bd
00000040: 7152 f9bc 9e98 983d c7e5 ecbd c081 01be
00000050: 36e1 bb3d 17f3 fabb ba0d 943d acf3 bc3d
00000060: dd1d 4f3d a7c3 e73b 716f e33b 0812 b7bd
00000070: 90bf 843c fc3f 733c 6b0e a2bd c5bb df3d
00000080: 5366 45bd 1d7c 373d 49c2 8dbd 305a c63d
00000090: 6ec3 c3bd 759a 103c 00b8 a73c d71e 4f3d
000000a0: 61b7 bcbc 5243 d1bd 9024 9b3d 16e3 8ebd
000000b0: 1e89 f2bd 4510 54bc 4de1 0b3b fd47 503d
000000c0: 7665 aebd 0c29 5fbd b425 7b3d a811 afbd
000000d0: b421 1a3d 8c6d c4bd adde c9bd 7d74 e13c
000000e0: 0d00 8bbd c048 38bc 6005 6bbd 3363 dcbd
000000f0: 18da a23d 5752 733b 9163 9ebd 4502 973d
00000100: eb80 25bc 9338 7dbc 78f4 fa3d d038 40bd
00000110: 698c 813d c776 c23d 5632 10bd 2e36 163d
00000120: b1b6 e93d edd1 45bd bcf7 df3b 8f1f 50bc
00000130: 0bd5 d33d 1351 7b3c cff5 09bd c7f6 a83c
00000140: 74f0 6e3d 624a abbb 4087 c53c 890f 8d3b
00000150: f705 813d 16f5 2a3d 1020 17bd 555b cbbc
00000160: f283 d1bd 851e 233d 86a8 9f3d b570 35bd
00000170: 95b2 f83c e941 c13d 7442 5d3d db2c 89bd
00000180: e9ba 013a ad2a 303d 4a8e 163d a922 0e3d
00000190: 5ec4 ba3d 3567 0a3c 7f63 003e 7604 18bb
000001a0: 3bbd c0bd 64c3 f0bd 7eb8 4fbc 6a95 713d
000001b0: 7f6d f53d 3afe 863d a558 f93d 1b55 003d
000001c0: ee12 ecbc cad3 48b9 8c95 e73d d1b2 25bc
000001d0: 090b e33d d29e aa3d 67e3 04bd a409 db3d
000001e0: abdb a9bd 4ad7 963d 1d4c ff3b b198 cc3d
000001f0: 107b 35bd aff5 e0bd cb74 d03d 7165 a43d
00000200: 40ef cd3d 64be 74bd 3779 8c3d a749 e6bd
00000210: b901 99bd 0521 88bd 382e 9b3d a291 acbd
00000220: bc80 ed3c 267c 003e 6eab b73c e872 99bb
00000230: a9bd 4339 e387 e93d 1e65 bcbc c316 88bd
00000240: e4ce 9a3d 8552 0b3e ac85 973c 3a10 163d
00000250: bcb2 9f3c 60c2 d73d d6f3 eebd e7f9 46bd
00000260: 9cf7 003c 5084 e13b c910 fdbc c48f 9d3d
00000270: 36e9 0a3d 36a2 e83d d8c8 0b3e 97df eb3d
00000280: 6246 993d 29f9 d4bd d241 743b 5978 49bc
00000290: 556e e1bc 3f4e cfbd 663e 01be f0c8 bd3d
000002a0: f19a d83d a3f1 d73d 1618 b0bc a3e6 cf3d
000002b0: 22d1 903d 69c4 843d 501e aebd 1b7e 953d
000002c0: cce1 5dbd ee61 65bd 52c9 13bd 49d7 3ebb
000002d0: d2b9 18bc a07e c7bd fcaf 2abd e065 ac3c
000002e0: 48f0 943d 497a a1bd f687 e7bc d8f3 0b3c
000002f0: cf33 ea3d 4283 e9bd 3682 66bd db6e b4bd
00000300: 8381 913d 2a53 70bd fd43 d3bd b26b 06bd
00000310: c60a 053d 30c0 f33c 7075 c43d c5b5 493d
00000320: daeb afbd 8403 bdbd e967 f7bd 579e 523c
00000330: 39cb 0e3d ffb0 c3bd b713 b13d a19e b0bb
00000340: 886e f03c 266a c5bd 1631 d1bc 0576 d2bd
00000350: 500c f13c 3268 85bd 6dea 0c3d 8fcd b9bc
00000360: c41b 3f3d 745d a83d be97 fb3d 5bb3 273d
00000370: 8448 433d 92c1 98bc 9240 323d 3d86 743c
00000380: e472 9fbd 4c84 ee3c 310a ccbd c8ee 7ebd
00000390: f41a 8dbd d25f 9ebd 6704 8ebc 6b20 02be
000003a0: d275 95bc 4846 81bd 3a51 c7bd 8560 5dbc
000003b0: bd4a 973d a038 963d 5cc9 eabc 5630 943b
000003c0: c8b9 49bc c0a0 993b e97e ad3d 101f ac3d
000003d0: 0c5d 3dbc b80b 8bbd f80b bfbd addb 94bc
000003e0: 847e 43bd 40ab dd3c a4d2 ffbd 6028 ef3d
000003f0: deda 16bd 1072 04be effd 2c3d 2b41 b3bc
-0.07213344 -0.11965161 -0.08277247 -0.031005114 -0.051510774 0.11352065 -0.0073846127 -0.025920866
0.10983537 0.047849473 0.09081623 -0.0327043 -0.10273229 0.05771895 -0.04446952 -0.04022497
-0.030434819 0.074509844 -0.11567264 -0.12647152 0.09173815 -0.007658373 0.07229181 0.09226164
0.05056559 0.007072884 0.006940775 -0.08938986 0.016204625 0.014846798 -0.07912906 0.10924486
-0.048193287 0.044796098 -0.069218226 0.09685171 -0.0955876 0.008825888 0.02047348 0.05056652
-0.02303666 -0.102179185 0.07575333 -0.06976907 -0.11842559 -0.012943332 0.0021344007 0.050849903
-0.08515446 -0.054482505 0.061315253 -0.085482895 0.037629798 -0.09591207 -0.09856925 0.027521366
-0.06787119 -0.011247814 -0.057378173 -0.10761108 0.07951754 0.0037127936 -0.077338345 0.0737348
-0.010101537 -0.015455383 0.1225366 -0.04692918 0.06325609 0.09495311 -0.035204254 0.036672764
0.11411799 -0.048295904 0.006834952 -0.012702837 0.10343369 0.015339154 -0.033681687 0.020625485
0.058334783 -0.005227373 0.024112344 0.0043048305 0.06299966 0.04173764 -0.03689581 -0.024823824
-0.10230245 0.039824028 0.07795815 -0.04429694 0.030358592 0.094363995 0.054018453 -0.066980086
0.0004948811 0.04300945 0.03675679 0.034701023 0.09119485 0.008447458 0.12537955 -0.0023196018
-0.09411093 -0.11756018 -0.012678264 0.058980383 0.11983775 0.065914586 0.12175111 0.031331163
-0.02881762 -0.00019152384 0.11307821 -0.010113434 0.11086089 0.08331074 -0.03244343 0.10695198
-0.082938515 0.07365282 0.007791056 0.09990061 -0.044306815 -0.109843604 0.101785265 0.08027161
0.10055399 -0.059751883 0.068590574 -0.11244517 -0.07471032 -0.06646923 0.07577175 -0.08426215
0.02899205 0.12547359 0.022420611 -0.0046828873 0.00018667303 0.114028715 -0.022997435 -0.066449665
0.075589925 0.13605697 0.018496357 0.03663657 0.019494407 0.10535121 -0.11667602 -0.04857817
0.007871535 0.006882228 -0.030891793 0.07693437 0.033913814 0.11359064 0.13650835 0.11517256
0.074841276 -0.10399086 0.0037270677 -0.0122967595 -0.02751843 -0.10122346 -0.1262146 0.092668414
0.10576428 0.105441354 -0.02149586 0.10151412 0.07071139 0.06482775 -0.085018754 0.07299443
-0.054170415 -0.056001596 -0.036080666 -0.002912002 -0.009321647 -0.09740949 -0.041671738 0.021044672
0.072723925 -0.07884652 -0.028263073 0.008542024 0.11435663 -0.114019886 -0.056276523 -0.088102065
0.071047805 -0.05867306 -0.10315702 -0.03281755 0.032480977 0.029754728 0.09592712 0.049245615
-0.08589907 -0.09229186 -0.12080366 0.012855134 0.034861777 -0.09555244 0.086463384 -0.005390004
0.02934958 -0.09639387 -0.025536101 -0.10276417 0.029424816 -0.06514014 0.034403253 -0.022681026
0.04665734 0.0822095 0.12284802 0.04094253 0.04767658 -0.018646989 0.04351861 0.014924583
-0.077855855 0.029115818 -0.09962881 -0.06223944 -0.068899065 -0.0773312 -0.017336084 -0.12707679
-0.018244658 -0.06312233 -0.097322896 -0.013511782 0.07387302 0.07335019 -0.028660469 0.0045223637
-0.01231236 0.0046883523 0.08471472 0.08404362 -0.011557829 -0.067893445 -0.09328455 -0.018171156
-0.047728077 0.027059197 -0.124913484 0.11677623 -0.03682982 -0.12934136 0.042234357 -0.02188166

net.6.bias f4 [32]
00000000: 0558 f0bd f0eb bebc b791 a93d e0dd 2fbe
00000010: 7562 60bd b57c c1bd de8b 19be 154e 8a3d
00000020: c6e1 99bd 18ef 23bd f3d6 87bc 4388 163e
00000030: 3706 383d 3a1a e03d 076c 38bb e9db 963d
00000040: 7455 06bc a29e da3c 34a9 2fbe 66a3 7dbd
00000050: d2b9 6b3c edc5 e03b 8aaf a8bd 7c6b d73d
00000060: 2668 543c 6f0b 453c 9a50 5ebd 0b21 943d
00000070: 2397 07bd 26bd 1e3e 18d4 b3bd 3afe 013e
-0.117355384 -0.023305863 0.08279746 -0.17174482 -0.054781396 -0.09447614 -0.14994761 0.06753174
-0.07513766 -0.04002294 -0.016581988 0.14700417 0.044927802 0.10942502 -0.0028140561 0.07366163
-0.008199085 0.02668697 -0.1715439 -0.061923407 0.014387565 0.006859532 -0.082366064 0.10518548
0.012964284 0.012026652 -0.054276086 0.07232865 -0.03310312 0.15501842 -0.08780688 0.12694636

net.8.weight f4 [1, 32]
00000000: 2170 de3d d59c ac3d f9a2 b7bd a094 af3d
00000010: 7546 74bd ca32 6636 b858 a83d b8b6 e8bd
00000020: f50a a6bd 67cd c1bd 12e3 143e dbd0 02be
00000030: dd0e 20be d3f8 12be add5 283e 6ea4 7c3c
00000040: f1a0 183e dc1f 693d 91a2 1a3e b526 ea3c
00000050: 38ff 39be 75b1 9abd 9c92 013e 563a 69bd
00000060: e137 193e 0f5d 02be a810 063e 5ed9 0dbe
00000070: ba69 acbd ed9a 21bd 8548 733d 575b 20be
0.10861231 0.08428351 -0.089666314 0.0857327 -0.059637506 3.4302234e-06 0.08220047 -0.11362976
-0.08107559 -0.094630055 0.14539745 -0.12774985 -0.1563067 -0.14352731 0.16487761 0.0154200625
0.14905144 0.05691515 0.15101077 0.02858291 -0.18163764 -0.075533785 0.12653583 -0.0569404
0.14962722 -0.12730812 0.13092291 -0.1385245 -0.08418603 -0.03945439 0.059395332 -0.15659843
