prediction_model_test_muscle_blood/prediction_model/prediction_model2.pth (torch, 259839 bytes, 9 tensors)

net.0.weight f4 [256, 80]
000000 fb 87 05 3d 8d 01 d4 3c db ce f1 bc 90 d9 fd 3c
       0.032600384 0.025879646 -0.029517582 0.030987531
000010 93 fc ea bc 7f af 99 bd ee 8b 34 3d 86 e9 62 bd
       -0.02868489 -0.07504176 0.04407876 -0.055398487
000020 f0 a7 79 bd 45 b1 ea 3c 5a 28 09 bd 2b 89 96 bd
       -0.060951173 0.028648982 -0.033485748 -0.073503815
000030 b7 74 39 3d 6b a7 71 3d 36 c0 32 3d 68 55 67 3d
       0.045277324 0.058997553 0.043640338 0.056477934
000040 95 e0 1b bc 87 cf c9 3d 7a 9b 9b 3d 74 2b a1 bd
       -0.009513994 0.09854036 0.07598014 -0.07869616
000050 fc e2 58 bd ed d2 ce 3d 79 66 c6 bc ab df 89 bd
       -0.052950844 0.10098825 -0.024218785 -0.067321144
000060 59 b4 60 3d 91 40 17 bd 4d 0b 1f bd 0e 6a 5f 3d
       0.054859493 -0.03692681 -0.038829137 0.0545445
000070 26 48 df bd ed f8 5a bc a5 b0 1c 3d b0 62 74 3d
       -0.10902433 -0.013365013 0.0382544 0.05966443
000080 b6 94 d3 bc 39 24 ac 3d 48 02 8f 3c df 4b b7 3c
       -0.025827747 0.084053464 0.017457142 0.022375045
000090 97 79 8e 3c 28 12 c2 3d b3 3d c7 3d fa ce e4 3c
       0.017391963 0.09476119 0.09728565 0.027930725
0000a0 92 2a 40 3b b0 c8 b4 bd e6 77 87 bd 5b 7b 58 bd
       0.002932225 -0.088273406 -0.06614666 -0.052852016
0000b0 fe 82 92 bd af b7 93 3d fd 59 8c 3d 7b ac 0f 3d
       -0.07153891 0.07212769 0.068531014 0.0350766
0000c0 21 e9 86 3d 0a 8d a1 3d e4 e8 61 bd 0c 71 0e 3c
       0.065874346 0.07888229 -0.055153742 0.008693945
0000d0 75 59 d2 3d 3f 7e ef bc c9 74 9f ba b9 c6 c9 bd
       0.10270969 -0.029235004 -0.0012165542 -0.098523565
0000e0 fd 59 91 bd b1 12 e1 bd 39 f4 ee bc be 6e 2d 3d
       -0.07097242 -0.10989893 -0.029169189 0.04234194
0000f0 d7 4c 17 3c c3 7a ee bd e3 8b b3 bd d1 d7 ae 3d
       0.009234629 -0.11644509 -0.08766916 0.085372575
000100 5e 0b c5 3d 7b 52 92 bd 1f 36 f6 3c 55 90 40 bd
       0.09621309 -0.07144638 0.030055104 -0.047012646
000110 c1 0b 9d 3d 83 dc 9c bd f9 b6 5c bc 6c 50 83 3c
       0.076682575 -0.07659247 -0.013471358 0.01602956
000120 92 1c 86 bd bf 07 66 bb dc 37 5e 3d c6 f8 9c 3b
       -0.06548418 -0.0035099832 0.05425249 0.0047903983
000130 a8 d2 dd bd bc dd 1f bd d2 bc c3 3d f7 b5 95 3d
       -0.10831195 -0.03902982 0.09557499 0.07310098
000140 6a 94 62 bd fe e2 23 bd 87 63 b6 3d 90 0e ab bd
       -0.05531732 -0.0400114 0.08905702 -0.08352387
000150 46 0a 7d bd a2 a8 0a 3d e8 51 59 3d d6 60 d9 bd
       -0.061777376 0.033852227 0.053056628 -0.10614173
000160 14 3b 24 3d 4a df 07 ba 32 06 25 bc 24 32 e1 3d
       0.040095404 -0.0005183114 -0.010072278 0.10995892
000170 6b 9a 82 3d ee 65 aa bd 4f b6 51 bd 78 73 91 bb
       0.06377109 -0.08320223 -0.051199254 -0.004438814
000180 42 f4 6c 3d 3f 8c a7 3c d9 90 9a 3d 2c e9 d8 bd
       0.05785013 0.020452617 0.07547159 -0.10591349
000190 d3 d9 8f bd b5 d8 16 bb fa 9e 08 3c 3c a7 a4 3d
       -0.070239685 -0.002301735 0.008338684 0.0803971
0001a0 79 20 bb bd 4e eb 1a 3a 93 7c d8 3d cc 94 af 3b
       -0.09137053 0.0005909697 0.10570636 0.005358314
0001b0 6e 5a c7 bd 0f 74 8d 3d bb 52 8a 3c 1c 5d a9 3c
       -0.09734045 0.06906902 0.016885152 0.02067428
0001c0 1a c4 d0 3c 4b da be 3d 08 f9 d6 3d 7b 32 25 bd
       0.025484134 0.0931898 0.10496718 -0.040331345
0001d0 bd ff 97 bd 94 15 23 bd d8 a5 c4 3d 42 c0 8e 3c
       -0.07421825 -0.0398155 0.09601945 0.01742566
0001e0 0f 21 95 3d 70 ad c7 bd 1d d7 56 bc 56 b1 e9 bd
       0.07281696 -0.097498775 -0.01311281 -0.11410777
0001f0 40 c5 55 3d 70 a0 db 3d 11 3e 83 bd 64 8d d1 bd
       0.052190065 0.107239604 -0.064083226 -0.10232046
000200 02 aa 49 3d 1a 08 ba bd df 1a 97 3d 30 11 8d ba
       0.049234398 -0.090835765 0.07378172 -0.0010762569
000210 82 83 2e 3d ef 0f 9f 3d ab 8e 2b bd 96 63 10 bb
       0.042605884 0.07766711 -0.041884106 -0.0022032014
000220 45 b9 6a bd 81 a2 91 bd 6c 58 93 bd 66 81 ca bc
       -0.057305593 -0.07111073 -0.071945995 -0.024719905
000230 5d b8 b5 3d c9 8c e5 bd 1e 17 14 bc dc 68 bf bd
       0.08873055 -0.11208493 -0.009038715 -0.09346172
000240 eb b4 76 3d 2f 34 54 3d 2e 0f 2b 3d ff 30 9b bd
       0.06023113 0.05180758 0.041762523 -0.07577705
000250 bc a1 bd 3d 5d 92 87 3b 56 d3 d0 3d 36 c7 1e 3b
       0.09259364 0.004137321 0.10196559 0.0024227626
000260 13 de 48 bd 72 4a 0b 3d 5e 5f 88 bd 49 28 82 3d
       -0.04903991 0.034006543 -0.06658815 0.0635534
000270 44 66 d4 3d 18 c1 41 bd da 1c 5b bc f2 7d da bd
       0.10371068 -0.04730329 -0.013373578 -0.106685534
000280 38 b6 24 3d af 88 9a 3d b9 91 3a 3d e0 5f ff ba
       0.04021284 0.075456016 0.04554913 -0.0019483529
000290 7b 46 cd 3c 52 7a a6 bd be 48 af bd 46 a6 88 3a
       0.025058022 -0.081287995 -0.08558796 0.001042553
0002a0 06 5e 7b bd 2e 5a 68 3d 66 c0 cb 3d b8 8b 87 bb
       -0.061368965 0.056726627 0.099488065 -0.004136529
0002b0 81 3f 13 3d 61 5c 3c ba e4 6b bc bd f2 bb 20 bd
       0.035949234 -0.00071853964 -0.09200266 -0.03924174
0002c0 db b7 cc bd a8 b9 b9 3c 37 47 8b 3c 36 aa e3 bd
       -0.09996005 0.022671536 0.017001731 -0.111164495
0002d0 2b 3c 62 bc 77 8b cc 3d fc 70 aa 3d 86 4c c8 bd
       -0.0138082905 0.09987538 0.08322331 -0.09780221
0002e0 99 88 1e 3d c0 56 9c bc f1 ac 09 3d ad 6c 94 3d
       0.03870449 -0.019084334 0.033612195 0.07247291
0002f0 8b 3e 69 3c b5 f7 40 bd 7b 31 a0 3d a1 6c 63 3d
       0.014236103 -0.04711123 0.07821938 0.05552352
000300 3b 75 d1 3d 7e 01 25 bd 3e bf 18 3d b1 7c a3 3d
       0.10227438 -0.040284626 0.037291758 0.079827674
000310 ed c6 3e bd 70 65 45 3b b8 8a 98 3c 6a 6c ac bd
       -0.04657643 0.0030120276 0.018620834 -0.08419116
000320 67 92 50 bd e1 af c9 3c 46 ba 45 3d ce 21 34 3b
       -0.05092087 0.024619998 0.048273347 0.002748597
000330 7a 62 f7 bd 06 4a be bd 0c 30 e9 bc 07 88 7a bb
       -0.1207933 -0.092914626 -0.028465293 -0.0038228051
000340 8d 06 a0 3d 2e 98 ed bc 6e f1 6c 3d 7e 4a aa 3d
       0.078137495 -0.029003229 0.057847433 0.083149895
000350 fb 08 40 3c 44 38 5a ba d7 3b cf 3d e2 51 f7 3c
       0.011720891 -0.0008324424 0.101188354 0.030190412
000360 01 f2 9d 3c 80 84 ca bd 74 ae b1 bd 18 d9 ba bd
       0.019280436 -0.098885536 -0.086758524 -0.091234386
000370 1d 22 cb 3c 20 b5 dc bd 8d 43 41 bc 74 ab 5a bb
       0.02479654 -0.10776734 -0.0117958905 -0.0033366354
000380 1c 9f ad bd 93 36 b7 3d 79 e3 a0 bd 79 0a cb bc
       -0.08477613 0.08945956 -0.07855887 -0.024785267
000390 71 0c 4a 3c b4 27 ec bd a9 a8 8d bd 1a 88 f3 bc
       0.012332068 -0.1153101 -0.06916935 -0.029727984
0003a0 e5 32 0b 3d 50 5a c0 3d 20 a2 0f 3d 33 42 ef 3b
       0.033984084 0.09392226 0.035066724 0.0073015927
0003b0 73 a4 54 bd 58 34 eb 3b 39 80 ba 3d 6b c8 7b bd
       -0.051914643 0.0071778707 0.09106488 -0.06147043
0003c0 ff 8e 7e bd a1 a8 dc 3d 87 07 98 bb c9 30 a8 bd
       -0.06214809 0.10774351 -0.004639569 -0.0821243
0003d0 70 0e af 3d 7d b9 ec 3c cf db 98 3c 87 72 89 bb
       0.085476756 0.028897041 0.0186595 -0.004194561
0003e0 82 ef cd bd 59 92 80 bd 67 c1 a9 bd d1 36 c3 3d
       -0.10055448 -0.062779136 -0.08288842 0.0953194
0003f0 17 f3 b1 3d 69 ed b4 3d c1 78 a6 3d be 2d d9 3d
       0.08688944 0.08834345 0.08128501 0.10604428

net.0.bias f4 [256]
000000 e7 6d 8d bd d0 3e ca 3b df 27 1b 3d 2b 97 e6 bd
       -0.06905728 0.0061720386 0.03787982 -0.11259302
000010 e5 a0 78 3e 3b 09 89 3d 84 76 41 3d 19 08 a8 3d
       0.24280126 0.06691214 0.047232166 0.082046695
000020 f2 ae c5 bd fa 02 a1 bd 8f 5c 5b 3d 13 90 cb bd
       -0.09652509 -0.07861896 0.053555068 -0.09939589
000030 5b 74 ae bd 75 07 b5 3d 13 33 ad 3d e5 a4 3f bd
       -0.08518287 0.08839313 0.08457007 -0.046788115
000040 05 96 e5 bc 69 3c 74 bd 8c 1d 83 3e b1 e3 c3 3d
       -0.028025636 -0.059627924 0.2560848 0.09564913
000050 12 61 c1 bd 8e 9c cc be a7 ce 67 bd 9b d1 19 3b
       -0.09442343 -0.39963192 -0.056593563 0.0023470882
000060 8b 13 b7 3d d8 f9 72 3d ee 42 23 3c ec d0 93 bc
       0.089392744 0.0593203 0.009964688 -0.018043958
000070 fb a7 83 3d 4a 3e 4b 3d ca 15 fd bc 2f a1 ce 3d
       0.06428524 0.04961995 -0.030894179 0.10089337
000080 c8 a9 a9 3d e2 88 8b bd 28 1d b1 be b2 4e 77 bc
       0.08284336 -0.06813218 -0.34592557 -0.015094446
000090 ad 95 90 3d c2 ad 1e bd 94 68 e2 bd eb 86 75 bc
       0.070597984 -0.038739927 -0.11055103 -0.01498578
0000a0 e7 d4 20 bd a5 dd 16 3c ea 62 e0 bd bb ff ad bd
       -0.03926554 0.009208118 -0.10956366 -0.08496042
0000b0 5a d4 a5 bc d6 d0 30 3d 8b 8b 9b 3c a3 85 a8 bd
       -0.020242859 0.04316791 0.018987438 -0.08228614
0000c0 5a 6a 89 bc 31 df 58 3d d6 2b a9 bd 14 53 c9 bd
       -0.016774345 0.052947227 -0.08260314 -0.09830299
0000d0 7b 4d 9c bd c7 1c f7 3b c2 44 c1 3b 5c 3b 32 3d
       -0.07631966 0.0075412723 0.005898089 0.04351364
0000e0 a7 8e c2 bd b2 e4 a4 bb 73 61 4c 3d d3 29 69 bd
       -0.09499865 -0.0050321454 0.049897622 -0.056924652
0000f0 c8 a3 96 3c 28 be 40 3d 30 45 8c 3c b3 b9 d7 bb
       0.018388644 0.047056347 0.017122835 -0.0065834164
000100 fe e5 dd 3d 00 28 69 bd 2b 4b 1e bd 04 61 6c bd
       0.10834883 -0.056922913 -0.038645905 -0.05770971
000110 ec 76 83 3d a6 25 4d 3d 0f a6 f6 bd 1c 37 b6 bd
       0.06419167 0.050084732 -0.12043392 -0.0889723
000120 64 33 5b bf ac 1f 22 bd 59 1e 94 bb 11 09 94 bd
       -0.8562529 -0.039580986 -0.0045202193 -0.07228292
000130 ef a9 52 bc 02 1b e9 3c 74 97 a2 3d 2a 8c 4a bd
       -0.012857898 0.028455261 0.07939044 -0.049450077
000140 f0 53 ba 3c 29 84 9e ba 96 f8 b7 3d ac 00 30 3d
       0.022745103 -0.001209383 0.08982961 0.04296939
000150 6f 6f 12 bf b5 76 e5 3c 8e 8f 01 3c cf 4d 2b be
       -0.57201284 0.028010705 0.007907761 -0.167289
000160 28 87 df bd 55 15 2c bd 5f 49 cb 3d 15 02 d6 bd
       -0.10914451 -0.04201253 0.09926104 -0.10449616
000170 82 2c 05 3e b4 f0 c2 bd 76 40 49 bd 96 9b f7 be
       0.1300526 -0.09518567 -0.04913374 -0.4836089
000180 e1 c7 00 3e 5d 5b 99 bd 66 1b 89 bd 4e 78 d0 bd
       0.12576248 -0.07488129 -0.06694679 -0.10179196
000190 62 67 c2 3c 59 f4 36 3d 47 5b 60 3d 60 46 1e 3d
       0.023730937 0.04466662 0.05477455 0.038641334
0001a0 93 8f 23 bd 23 d9 ca bd b9 2f fb bc 90 bd d3 3d
       -0.039931845 -0.09904697 -0.030662404 0.103388906
0001b0 70 91 2e 3d fc c4 d8 bd 38 e2 2e bd 72 10 ad 3d
       0.04261917 -0.10584447 -0.042696208 0.08450402
0001c0 c4 3f 1f 3d ca e1 39 bd 57 49 35 be 6c 45 be 3d
       0.03887917 -0.045381345 -0.17703758 0.09290585
0001d0 ee 03 89 bd c3 b4 aa bc ed ea e0 3d 3e df d7 bc
       -0.06690203 -0.020838147 0.109823085 -0.026351567
0001e0 8e 94 a0 bd 33 67 d1 bd 2f 67 b0 bd 8e b5 4e bd
       -0.078408346 -0.10224762 -0.08613431 -0.050466113
0001f0 e7 dc d9 bb b3 62 58 bd 18 d7 8f 3d 23 f2 46 bd
       -0.006648648 -0.052828502 0.07023448 -0.048570763
000200 89 05 9a 3c c9 9c 8f 3d 06 40 5f bd 8f 9b 9f 3d
       0.018801467 0.07012326 -0.054504417 0.07793342
000210 1d 31 cb bd 1f 2e 92 bd 92 b7 97 3d 25 8a de bd
       -0.09921477 -0.07137703 0.0740806 -0.10866193
000220 a3 47 e2 bd 77 a7 d5 bd aa ac 81 38 05 94 b7 bd
       -0.1104882 -0.10432332 6.1833605e-05 -0.08963779
000230 76 80 a7 bd 7a 8f ce 3d 70 b5 2d 3d 9a 57 96 bd
       -0.08178799 0.1008596 0.04240936 -0.073409274
000240 aa db d6 3c 8c ff 56 3d f4 bc 62 3b 86 dd 10 3c
       0.02622779 0.052489802 0.0034597488 0.008841878
000250 4b e5 10 3c da 30 2a 3d 54 ca 33 3d 84 45 0a 3d
       0.00884373 0.041550495 0.043894127 0.0337577
000260 27 bf 0f 3d 06 2b 9f 3d a4 09 1b 3d 44 99 fb bd
       0.035094406 0.07771878 0.03785099 -0.122850925
000270 c2 df 89 bd eb 98 aa bc 27 4f 57 bd 5d d8 ba 3d
       -0.067321315 -0.02082487 -0.05256572 0.09123299
000280 55 39 ad 3d a1 25 ab 3c c7 81 57 bc b9 62 8d 3d
       0.08458201 0.020891966 -0.0131535 0.069035955
000290 a1 d9 82 be 10 71 b7 bd 34 37 b7 bb 48 db de 3d
       -0.25556663 -0.08957112 -0.0055912975 0.10881668
0002a0 01 8f ce 3d 9d 12 d4 3d 54 39 ca 3d f6 73 e6 3c
       0.100858696 0.10355113 0.09874216 0.028131466
0002b0 97 9b 7c bc 7f 31 6b 3d 58 c3 1e 3d 16 39 6d bd
       -0.015417955 0.05742025 0.038760513 -0.05791577
0002c0 64 d9 be 3c 4e 52 08 be 15 de 28 3e 38 d5 70 3d
       0.02329702 -0.13312647 0.16490968 0.05879709
0002d0 d7 a1 7f 3d 75 61 a3 3c 6b 4b 4b 3c 9e 4d 23 be
       0.062410202 0.019943932 0.012408118 -0.15947577
0002e0 4e 7c 89 3c 50 c4 af bd a7 9f a6 bd 60 90 cb 3d
       0.016782906 -0.085823655 -0.0813592 0.09939647
0002f0 41 c2 97 3c 62 94 33 bc a5 67 1a 3b c5 b0 53 bd
       0.018525245 -0.01096067 0.0023560312 -0.051682252
000300 40 6d c1 3d 7d d6 02 3e 24 60 71 bc 57 8e 01 3d
       0.09444666 0.12777133 -0.014732394 0.031629886
000310 10 50 c2 bd 82 fe 3f bc 87 a8 0f bd 10 09 ce bd
       -0.09487927 -0.011718394 -0.03507283 -0.10060322
000320 c5 c0 8a 3d d4 64 15 be 34 ac 9b 3d 8c 93 94 bd
       0.06775049 -0.14589244 0.076012045 -0.07254705
000330 d9 b1 2e 3d 4a fc e7 bc 7d 3c b4 3d 15 1c 92 3d
       0.042650077 -0.028318543 0.088006 0.071342625
000340 11 ec 96 bc 1f 0b aa bd 31 a9 1f bd a9 00 c9 3d
       -0.018423112 -0.083029024 -0.038979713 0.09814579
000350 7f 6f 4f bd fe dd 1c 3d 13 40 55 3d f0 dd dd bd
       -0.05064344 0.038297646 0.05206306 -0.10833347
000360 56 cb db 3d 41 f9 c0 bd 6a d8 a3 ba fd 5b 89 be
       0.107321426 -0.094225414 -0.001250041 -0.26827994
000370 70 91 46 3d 79 9c d3 3d 92 bd 82 3d 9e 27 64 3d
       0.048478544 0.10332579 0.06383814 0.055701844
000380 e6 30 fe bd 6c df 03 bd 55 2c 0d be 4a 09 93 bd
       -0.124116704 -0.032195494 -0.13786443 -0.07179506
000390 88 10 9f 3c d4 35 2f bf 27 5a 88 bd d8 5c 00 be
       0.019417062 -0.6844151 -0.0665782 -0.12535417
0003a0 7a f7 75 3d 64 73 a5 bd d8 02 25 bc 6a 48 d4 3b
       0.060050465 -0.0807865 -0.010071479 0.006478359
0003b0 38 05 a3 bd 39 bf c6 bc 41 4c 85 bd bb cd 37 3d
       -0.0795998 -0.024261104 -0.06508685 0.044873934
0003c0 d0 c2 6d bc 1a 19 9a 3c 92 58 2c 3d 18 5a e1 3d
       -0.014511779 0.018810797 0.042076655 0.11003512
0003d0 d6 1e ad 3d 1f 5c fe bc 0c b2 66 bd b0 ca 77 bd
       0.08453147 -0.031049786 -0.056322142 -0.060496032
0003e0 57 2c b1 3d ea cd 45 3d 0b 24 cf bd 5c 10 11 be
       0.08651035 0.048292078 -0.101142965 -0.14166397
0003f0 2c b1 3b bd 2d 47 c5 bd c1 d5 e6 bd 15 b3 6f bd
       -0.04582326 -0.09632716 -0.11271239 -0.058520395

net.2.weight f4 [128, 256]
000000 f6 99 74 bd 94 6f 47 3b e8 03 4f 3c 74 7f 7f bd
       -0.05971714 0.0030431496 0.012635209 -0.06237741
000010 1e d0 8a bd ca f1 40 bd c2 0a 29 bd 4c 73 89 3c
       -0.067779765 -0.047105588 -0.041270025 0.01677861
000020 bf bb c0 3c c0 0e 0a bb cf ae 42 bb 20 67 c1 3b
       0.023527024 -0.002106592 -0.0029706245 0.005902186
000030 e0 72 f2 3c c6 43 98 bc e2 52 12 3d a2 41 36 3d
       0.029595792 -0.018587004 0.035723574 0.044496186
000040 1e 5c 8c 3b 96 27 ac 3c f7 8f b3 be fd 51 80 3c
       0.004283442 0.02101497 -0.35070774 0.015664095
000050 c2 a8 19 3d f2 fc 60 3c 45 c5 2e 3d 90 7b cc 3b
       0.037514456 0.013732182 0.0426686 0.0062403157
000060 e2 28 4c bd d4 3a 89 bc be 3c f0 3e 90 cd b1 3b
       -0.049843676 -0.016751684 0.46921343 0.0054261163
000070 ae d8 2f 3d c3 30 ca bb ea f2 60 3d f4 1c 3d bd
       0.04293125 -0.0061703636 0.05491916 -0.04617019
000080 f6 6f 17 bd 78 35 8d 3b f6 1e 41 bc 8a ae d1 3c
       -0.03697201 0.0043093525 -0.011787167 0.025595922
000090 f8 b5 f4 bc 8e 00 60 bd 14 d9 76 bd e2 ba 55 bc
       -0.029871926 -0.05468803 -0.060265616 -0.013045045
0000a0 58 ae 8e bc 54 98 3b 3d d8 c2 65 3d 02 cf 5f 3c
       -0.017417118 0.04579957 0.05609402 0.013660194
0000b0 ca e8 2e 3d a8 08 77 bc e7 98 59 3c 0d df 35 bd
       0.042702474 -0.015077747 0.013281084 -0.04440217
0000c0 d0 10 38 3d 9c 23 ec 3c c0 4b 3d 3c bf 8a f3 bc
       0.04493791 0.028825574 0.011553705 -0.029729245
0000d0 8c 36 a0 bc b1 3c ac 3c 17 b0 e8 bb e7 cc 68 3a
       -0.01955726 0.021025034 -0.0071010697 0.00088806305
0000e0 50 26 27 3d 18 22 6a be ce 51 df bc ce fc 95 3b
       0.040808022 -0.22864568 -0.027260687 0.004577256
0000f0 b2 98 72 3d f7 4e c9 3c fa 7e 82 bc c5 b3 bb bc
       0.059227653 0.024573786 -0.015929688 -0.02291287
000100 b8 0a 7e bd c2 0f 12 bd 7d 4c 65 3d 40 8e 7d 3b
       -0.06202194 -0.03565956 0.055981148 0.0038689524
000110 08 13 3d bd 47 34 23 3d b3 f8 2f 3d a8 90 37 3d
       -0.046160728 0.039844777 0.042961787 0.04481569
000120 4c 10 2e ba ab 11 ca 3c 80 65 ae 3a 60 d6 cf bb
       -0.00066400017 0.024666628 0.0013305396 -0.006342694
000130 37 47 73 3c 52 0b 6b bd 7c 95 e2 bc d8 d7 ec 3c
       0.014848522 -0.057383843 -0.02765917 0.028911516
000140 36 83 1e bd 9a df e2 3b 38 c3 b4 3c 7a f3 7f 3d
       -0.03869935 0.006923628 0.022065744 0.062488057
000150 77 89 3c 3b 07 99 9c bc b4 5b 8e bc 95 a1 1b 3e
       0.002876846 -0.019115938 -0.017377712 0.15198357
000160 24 4c a7 3c e8 0c 4d bd f0 72 97 3b ae 0c 44 3d
       0.020422049 -0.050061136 0.004621856 0.047863655
000170 a7 17 65 bd b2 40 49 3d 18 30 35 3d db 7b 65 bc
       -0.05593076 0.049133964 0.04423532 -0.01400658
000180 1b 64 e1 3b a4 e2 61 bd ac 23 e5 bc 38 db f4 3c
       0.0068783886 -0.055147782 -0.027971111 0.029889688
000190 bb 6b 31 3d f7 3c b2 3c 80 43 68 bd 44 31 92 bc
       0.04331563 0.021757586 -0.056704998 -0.017845757
0001a0 b2 99 6a bd 10 fe 26 bd 90 67 e0 bc 64 22 99 3c
       -0.05727548 -0.040769637 -0.027393132 0.018693157
0001b0 f4 89 f5 bc 61 1f e0 3c 5b b8 7e bc ed 70 82 bc
       -0.029973008 0.027358713 -0.015546883 -0.015922988
0001c0 f0 99 54 bd c8 e8 08 3d 25 29 b1 bd 62 17 2d bd
       -0.05190462 0.033425122 -0.08650426 -0.042258628
0001d0 c2 82 65 bd 54 a4 44 3d 9e a3 5e bd 17 26 10 3d
       -0.056032903 0.048008278 -0.054355256 0.035192575
0001e0 23 14 20 bd 02 60 27 3d 14 84 04 3d 1c 68 43 3d
       -0.039081704 0.040863045 0.032352522 0.04770671
0001f0 d4 ce 75 bd 30 4d 18 3c ec c0 7c 3d d4 4c bf 3c
       -0.0600117 0.009295747 0.061707422 0.023352064
000200 b4 1a c5 3c d0 70 07 3c 00 05 2d ba 7f d0 97 bb
       0.024060585 0.008266643 -0.00066001713 -0.004633009
000210 e3 6f 13 3d 82 db 6c 3d 8c 63 43 bd 72 ea 8b 3d
       0.035995375 0.057826526 -0.047702357 0.06831826
000220 49 40 5f bc e0 22 9e 3b 8a 72 87 3c 3e 8b 42 bd
       -0.013626167 0.004825935 0.016534109 -0.047496073
000230 e4 74 94 3c e2 d9 e9 bc a0 7a 99 3b 40 6c 21 bb
       0.018122144 -0.028546277 0.0046838075 -0.0024631172
000240 20 ef 74 3d bb f7 5e 3d 1b 18 84 bc 38 b9 e2 bc
       0.05979836 0.054435473 -0.016124776 -0.02767621
000250 18 80 77 bc 51 bf 9e 3c b0 0a 83 3c e0 ba 2a bc
       -0.0151062235 0.019378336 0.015996307 -0.010420531
000260 1e 6a 83 3c d8 ee b0 3c 4d f0 a4 bc 95 69 3d bd
       0.016041812 0.021598265 -0.020134116 -0.04624327
000270 9e a9 1c 3d 82 a3 7c 3c fe 54 d4 bc d7 3d 23 3b
       0.038247697 0.015419843 -0.025919434 0.0024908686
000280 34 4c 6d bc 40 fc 5d 3b ea 0e 49 bd 12 d3 a4 3d
       -0.0144835 0.0033872277 -0.04908649 0.08048071
000290 8a 43 21 3d 54 a7 89 bc 1c 42 2a 3d fc 8e f7 3c
       0.03937105 -0.016803421 0.041566953 0.030219547
0002a0 93 65 f4 3c 5d 1f 77 3d d9 40 ff bc f0 1c da 3c
       0.02983359 0.060332645 -0.031158851 0.026625127
0002b0 7c 52 bc bc 3c 69 aa bc 88 09 51 bc f5 3f 18 bd
       -0.02298855 -0.020802133 -0.01275862 -0.03717037
0002c0 a9 ba ac bc 25 82 b4 bc ce 7d 20 bd 57 53 b3 3b
       -0.0210851 -0.022034714 -0.039182477 0.0054725814
0002d0 68 c3 27 bc c0 f4 4a 3c 7c 7c d9 bc 99 1d c5 3c
       -0.01023946 0.0123874545 -0.026548617 0.024061965
0002e0 b3 4d 15 3c 3c 13 41 3d 78 d4 6a 3c 3a f5 5a bd
       0.009112763 0.047137484 0.014332883 -0.053456523
0002f0 47 22 f5 bb 60 95 84 bc d6 ae 27 bd 28 67 2c 3d
       -0.007480893 -0.016184509 -0.04093822 0.042090565
000300 1e cb 7e 3d d6 48 ec bb 02 c9 c9 bc ac 6d 90 3c
       0.062205426 -0.007210831 -0.02463198 0.01763042
000310 dd 9b 4b bc c0 c7 63 3c 10 18 31 bc d1 96 44 3d
       -0.012427297 0.013902605 -0.01080896 0.047995392
000320 20 a4 34 3b 7f 66 06 3d ec 87 63 3d 64 4c 67 3c
       0.0027563646 0.03281259 0.055549547 0.014117334
000330 d8 bb e2 3c 0e 06 14 3d 1c 57 b0 3c f6 81 13 3c
       0.027677462 0.036138587 0.021525912 0.009003153
000340 e8 9a e1 bc 76 76 97 3c 48 c0 ff bb 06 d5 28 3d
       -0.027539685 0.018489104 -0.007804904 0.04121878
000350 b0 9f d7 3b 32 70 6a bd cc e5 b7 3c dc e5 4a 3d
       0.0065803155 -0.057235904 0.022448443 0.049535617
000360 70 e1 d4 bc 84 2c 58 bd 49 80 28 3d 42 75 86 3c
       -0.025986403 -0.05277683 0.041137967 0.016413335
000370 26 5a 37 bd 0b 07 97 bb f9 7c 2f 3d d0 9b 42 3d
       -0.044763707 -0.004608994 0.042843793 0.047511876
000380 a0 b1 2d bb 7a ae 89 ba 77 69 4f 3d 64 12 45 bd
       -0.0026503578 -0.0010504269 0.05063769 -0.04811324
000390 08 d8 7b bd 65 43 96 3c 11 48 4a 3c 4a 4b e2 3c
       -0.06148532 0.018342683 0.0123462835 0.027623791
0003a0 74 d5 f9 3c de f1 5d 3d 40 a8 51 3b 42 13 5c 3d
       0.03049729 0.05418574 0.0031991154 0.053729303
0003b0 c0 1d c4 3c f8 da 19 bd 44 df 08 3d e4 d8 38 3d
       0.023939967 -0.03756234 0.033416048 0.045128718
0003c0 41 46 88 bc f1 0c 7a bc 88 87 64 bc 23 44 1d bc
       -0.016635062 -0.0152618745 -0.013948329 -0.009598765
0003d0 4a 63 1b bc dc be f8 bb 2a ad 7e 3c 1a 5a bd bc
       -0.009484122 -0.0075911116 0.015544215 -0.023114253
0003e0 3f 8e d2 bc 85 c4 8a bd a0 6f c9 bc b4 38 7a 3d
       -0.025702594 -0.067757644 -0.02458936 0.061089233
0003f0 0a e3 02 3d 68 6a 57 bd 79 36 7a 3d e0 87 df 3b
       0.031954803 -0.05259171 0.061087105 0.0068216175

net.2.bias f4 [128]
000000 92 ee b8 3e 16 86 32 3d ff c4 ca be ae 61 a7 3c
       0.36119515 0.043584906 -0.3960342 0.02043232
000010 87 db 15 3d 77 9e f5 3c a7 8d d8 be 17 2a d9 be
       0.03658631 0.029982788 -0.42295572 -0.42414925
000020 c3 7d 82 3f e7 b7 36 3e e3 ad 63 3e ac f4 15 bd
       1.019463 0.1784359 0.22234301 -0.03661029
000030 b7 8e fd 3c c7 95 f0 bc c2 eb f0 bd 4d 4d c4 3f
       0.03095184 -0.029368294 -0.11763717 1.533609
000040 5a de 91 bd e6 ee ca 3d 71 f0 10 3f 2d 81 7b bd
       -0.07122488 0.099088475 0.56616884 -0.06140249
000050 9b 13 b2 bf d0 c1 1f bd 9e 97 a2 3c f9 76 f4 bc
       -1.3912233 -0.039003193 0.019847687 -0.029841887
000060 58 0f 99 bf 80 44 07 3f f0 e1 b4 3e 2a e1 9c be
       -1.1957808 0.528389 0.35328627 -0.30640537
000070 fd b5 bf be 5d 3f 35 be 9e 2f 13 bf 91 1d 15 3d
       -0.37443534 -0.17699952 -0.57494533 0.03640515
000080 9f c1 7b be 0d 31 ea be 82 cc 07 bf 8e 30 54 3e
       -0.2458558 -0.45740548 -0.5304643 0.20721647
000090 31 92 af bf c2 b0 01 3d 39 85 f9 be 88 9f 86 3f
       -1.3716489 0.03166271 -0.48734453 1.0517435
0000a0 75 38 13 3d 61 87 21 bf 2d 0c 22 bf a5 ff ea 3e
       0.035942513 -0.63097197 -0.6329983 0.45898166
0000b0 81 98 24 3e 0b a6 ed bb 14 73 e3 bd 04 fd e0 3e
       0.160738 -0.00725246 -0.11105934 0.43943036
0000c0 c8 6a 98 3c f8 58 70 3f dc f8 3c 3d f6 e4 c8 3d
       0.018605605 0.93885756 0.04613577 0.09809296
0000d0 98 15 18 bd 13 b1 b4 3c 40 58 31 bb fd 86 99 bd
       -0.03712997 0.022057092 -0.0027060658 -0.0749645
0000e0 e0 d5 04 be d3 2c bf 3c 0a d0 71 bd d7 5a a6 3d
       -0.12972212 0.023336804 -0.059036292 0.08122795
0000f0 98 c3 ab 3f ce 22 83 bd 99 1a 09 3e 56 50 9b 3c
       1.3419065 -0.06403123 0.13389052 0.018959206
000100 16 cf c4 bd 9f c1 e5 3c 20 33 9c 3d 38 ad 43 bf
       -0.09609811 0.028046427 0.07626939 -0.76436186
000110 4b 27 88 bd f4 37 b2 3e a7 74 f9 3c b4 fc 92 3f
       -0.066481195 0.34808314 0.030451132 1.1483369
000120 2e 19 74 bd 0e a2 6d bf 65 6c 9a bd 24 a9 79 bd
       -0.059594326 -0.928254 -0.07540206 -0.06095232
000130 69 1c 00 3d 36 98 8d bf e2 9e 0d 3f 59 3e c8 be
       0.031277094 -1.1062076 0.5532056 -0.39110067
000140 8d 32 01 bf 36 26 89 bf 62 a7 1d bc 2e 40 a1 3e
       -0.5046776 -1.0714786 -0.009622427 0.31494278
000150 95 33 66 3c 3d 47 92 3e 8a 36 72 bd a6 11 59 3d
       0.014050384 0.28569975 -0.059134044 0.052995346
000160 84 ec 73 bd 5f 66 32 3f 82 79 85 bd 44 d4 8b bc
       -0.05955173 0.69687456 -0.065173164 -0.01706899
000170 9a 7e ab bf fd 44 92 bd 7c ff 46 3d 31 1a c3 bc
       -1.3398011 -0.07142065 0.048583493 -0.0238162
000180 8a 83 3a be 85 4c 1a 3e 82 dd 83 3c 47 aa bd 3e
       -0.1821424 0.15068252 0.016096834 0.37043974
000190 58 06 8a bd ec 06 4a bd e2 8b 0b bd de c7 3b bd
       -0.06739491 -0.049323007 -0.03406895 -0.045844905
0001a0 db 8b 63 3f 0d 4c a9 bd 6d 55 6a bf 57 58 07 3c
       0.8888528 -0.08266459 -0.915366 0.008260808
0001b0 33 82 4e bf 3c bd 6b be 18 5b 20 3e 80 f7 96 bc
       -0.8066742 -0.23021406 0.1565975 -0.018428564
0001c0 d5 b5 c8 bd bf 49 a4 3d 4a 41 06 bf 81 b6 5d 3a
       -0.09800307 0.080218785 -0.52443373 0.0008457676
0001d0 bf 3a fb 3c bf 87 4c 3d 90 d7 47 3f 96 b6 20 3d
       0.03066766 0.049934145 0.780633 0.039236628
0001e0 38 61 6f 3e 6f 62 97 3e 0a 98 00 bf 7d 7c 44 bf
       0.2337693 0.29567286 -0.50231993 -0.76752454
0001f0 93 81 59 be 78 8b 77 bd fb 38 b2 bf ca 1d aa bd
       -0.21240835 -0.060435742 -1.3923639 -0.08306463

net.4.weight f4 [64, 128]
000000 84 e7 29 bd cd bb 7e 3d dd 60 91 3e 90 d5 08 3f
       -0.041480556 0.06219082 0.28394213 0.5345087
000010 33 e3 0e bd 0e af 44 be 94 9f 36 bf 53 ec 9f 3e
       -0.034884643 -0.19207403 -0.71337247 0.3123499
000020 eb fc 0a 3e ee 0f 4e bf 77 85 46 3e 2d 2f 83 3c
       0.13573043 -0.80493057 0.1938685 0.016013706
000030 7f 4f 71 bc 49 64 05 3d a4 c9 81 be 6d 9d 82 3c
       -0.014728426 0.032566343 -0.25349152 0.015944207
000040 14 af 3a 3d b5 53 5a bc 63 9e 86 3d 98 9d 94 bc
       0.045577124 -0.013325621 0.065731786 -0.018141553
000050 8f 0b 12 be ed 22 9b bd a5 67 16 bc 3c 4f 86 bd
       -0.14262222 -0.07575021 -0.009179984 -0.065580815
000060 4c 54 b0 3d b7 f9 8b bf 7e bb 08 3d 0a 87 0e be
       0.08609828 -1.0935582 0.03338193 -0.13918701
000070 6c fd ab bd b8 4b 3d be 05 aa c9 3c cc 71 34 3f
       -0.08397946 -0.18485916 0.024617204 0.7048614
000080 82 a5 f6 3d 4b c5 e7 be c2 33 0d bf 26 ca 17 be
       0.12043287 -0.4526771 -0.551571 -0.14823207
000090 94 78 c9 3d 4f ef 9c 3c 0a cc 61 3e 0c c8 4b bf
       0.098374516 0.01915708 0.22050491 -0.7960212
0000a0 47 71 ff bc a6 82 da bd f2 98 01 be 8d 93 02 3e
       -0.031181945 -0.106694505 -0.12656 0.12751599
0000b0 2f bc 91 be b6 3c b1 bc da 23 84 be b5 0c f3 bd
       -0.28463885 -0.021635395 -0.25808603 -0.11867658
0000c0 4d 11 ba bb b4 f1 0a bf cf 5e bf 3c b2 04 cc bb
       -0.005678332 -0.5427506 0.023360638 -0.0062261457
0000d0 52 f9 5a bd ac 40 69 3b d3 40 c7 3c df f2 83 3e
       -0.053460427 0.0035591526 0.024322903 0.25771233
0000e0 89 86 4a 3d 57 69 83 3e 11 39 c7 bc a8 dc 38 be
       0.04944471 0.25666305 -0.024319204 -0.18052924
0000f0 4e c3 84 bf af 3a 0e bd 92 f0 30 bf 7c 2e c7 3c
       -1.0372102 -0.034723934 -0.6911708 0.024314158
000100 d7 44 15 bf 5f 16 2b bd 3c 47 53 be e3 22 7d 3e
       -0.58308166 -0.04176938 -0.20632643 0.2472034
000110 6a a1 b2 bd 79 e2 d2 3e 18 f9 d6 3b 89 6c c2 3e
       -0.087221935 0.4118841 0.006560456 0.3797343
000120 e7 17 a0 bd 03 47 b1 bc 8c a9 4f bd c6 03 00 bd
       -0.07817059 -0.021640306 -0.050698802 -0.0312536
000130 59 5b 4c 3d 76 fb 1d bd 7f 67 13 3f 2e 7f 6f be
       0.049891803 -0.03856989 0.575798 -0.23388359
000140 04 c8 ea bf bb 96 52 bc 1a cb 3c bc 3c 92 84 3d
       -1.834229 -0.01285332 -0.011523033 0.064732045
000150 31 3b 1b bc a3 a1 da 3e 00 54 ad 3d fc 9c 68 bd
       -0.009474562 0.42701444 0.08463287 -0.056790337
000160 c7 d3 a3 bd ce bd c2 be 6c 28 b1 3d 94 01 d1 3b
       -0.07999378 -0.38035434 0.08650288 0.006378362
000170 5a dc 0a 3e be 08 65 3d 21 46 9d 3d de 3d 6e bd
       0.1356062 0.05591654 0.07679392 -0.05816447
000180 68 5f d4 be 1d 2b 8b 3f 28 46 9c bd fc d0 d0 3e
       -0.4147904 1.0872532 -0.07630569 0.40784442
000190 62 ba 04 bb 48 14 84 3d ba cf d4 bc 86 bd 85 bd
       -0.0020252694 0.06449181 -0.025977958 -0.06530289
0001a0 9f 3d b1 bd 92 0b 3f be 1c 09 5f be aa 2d 0f bd
       -0.086543314 -0.18656757 -0.21780819 -0.034955658
0001b0 4e 31 16 be 6f d0 28 bd 02 20 ec 3c 07 66 00 3d
       -0.14667246 -0.041214403 0.028823856 0.0313473
0001c0 4f 66 12 be c9 48 ed bd fc 0d 81 bd c4 6a 67 bd
       -0.1429684 -0.11586148 -0.063014954 -0.056498304
0001d0 22 3f 04 3d 03 cb 00 bd a0 2b af 3e fa 08 0a 3d
       0.03228677 -0.031443607 0.3421297 0.033699967
0001e0 55 91 9a 3e 5b b0 51 bf a9 12 78 be 6b 09 8c 3e
       0.30189005 -0.8190972 -0.24225868 0.27350935
0001f0 44 68 60 3d 5c 7b e8 bc 50 cc 34 3e 3c be d5 bd
       0.054786935 -0.028379135 0.17656064 -0.10436675
000200 da 16 64 3c cd db 10 bd 3a f2 08 be 2b 9c 1d be
       0.013921464 -0.03536587 -0.13373652 -0.15391605
000210 a7 3d ab bc 66 ec 66 3e c4 c9 6f 3e fd 4e 28 be
       -0.020903422 0.22551116 0.23416811 -0.16436382
000220 7c 13 d4 bd 0d e6 b0 bc 71 33 96 3e b9 e3 16 3d
       -0.10355279 -0.021594072 0.29336122 0.036838267
000230 9f 7d a3 bd f2 59 9e bb c1 24 1a 3e c5 cf 0d 3e
       -0.07982945 -0.0048324997 0.15053083 0.13848789
000240 51 75 9f bd b2 17 51 3d 36 99 3e be c3 e4 95 bc
       -0.07786048 0.05104799 -0.18613133 -0.018297559
000250 10 c4 05 3e 94 78 4a 3d 41 57 9a bd 63 57 5d 3d
       0.13063073 0.0494314 -0.075361736 0.054038417
000260 ca 68 40 bc 08 d5 05 bf dc ea fa bc a8 9c ce 3d
       -0.011743734 -0.52278185 -0.030629568 0.100884736
000270 f5 64 62 3e a0 6b 0e 3e 0d f5 f6 bb 18 9c b9 3e
       0.22108825 0.13908243 -0.0075365365 0.36251903
000280 13 a2 88 3d 04 b6 b4 3e 4a db df bd 8d cc d2 3d
       0.06671538 0.35295117 -0.10930498 0.10292921
000290 be e6 c8 bd 44 50 9a bd 92 f0 dd bd 31 0a 1f bd
       -0.098096356 -0.07534841 -0.10836901 -0.03882808
0002a0 c1 79 f0 3c 48 63 a3 3c 2d d3 72 be 5f 31 a5 bd
       0.029354932 0.019944802 -0.2371337 -0.080660574
0002b0 8f fc c7 3d fd 75 27 3d 65 9b 08 bd 0b d4 c7 3d
       0.097649686 0.040884007 -0.03335132 0.09757241
0002c0 88 1b 82 3c 19 f3 29 3e 7d aa 61 bd c1 e3 62 be
       0.015882269 0.1659664 -0.05509423 -0.22157194
0002d0 cc e7 9b 3d 8e 9e c4 3d a3 f0 8a 3d b4 76 b6 bd
       0.07612571 0.096005544 0.06784179 -0.089093596
0002e0 1d 0c 87 bd bd 21 42 bd 86 cd f2 3a 8f e8 27 3e
       -0.06594107 -0.047395457 0.0018524386 0.16397308
0002f0 c4 89 98 3e 72 46 09 bc 65 55 a7 3d 97 f7 45 3d
       0.29792607 -0.008378612 0.081705846 0.048331823
000300 51 76 d6 3c ac 3e b5 bb 26 ba a2 3e df 55 af bd
       0.026179465 -0.0055311527 0.31782645 -0.085613005
000310 7f 19 8b 3d b7 da c2 bd 83 3a 09 bd 9e 25 a1 bd
       0.06791972 -0.09514373 -0.033503067 -0.07868503
000320 0b f8 20 bd a7 ff 96 be a0 ff 27 3d 16 74 42 bd
       -0.039299052 -0.29491922 0.041015267 -0.04747399
000330 4a 7c d0 bb 36 0e c0 3d e0 d1 6e be 3a 83 c3 bc
       -0.0063624727 0.093777105 -0.23322248 -0.023866285
000340 f4 bc fd 3d 3a bc 83 bd 1b c9 7c bd 30 a2 ae 3e
       0.123895556 -0.06432386 -0.061715227 0.34108114
000350 64 1e 24 3d 22 dd fc bc e8 2f a3 bd ce 88 8c bc
       0.040068045 -0.030867163 -0.07968122 -0.017155077
000360 e5 97 cc 3c dd 66 7b bd 2a 3b 21 bc 15 d2 18 bd
       0.024974773 -0.061377395 -0.009840766 -0.037309725
000370 d5 f2 07 bd 97 85 86 bd 07 08 51 bd 24 6f 68 bc
       -0.033190567 -0.06568449 -0.051033046 -0.014186654
000380 24 a4 f2 3b 3d 9e 2f bc 20 55 89 bd 93 55 58 3e
       0.007404821 -0.010718879 -0.067056894 0.21126394
000390 f7 83 50 3d 63 8f 95 3d dc ee 64 3d 90 c5 7f bd
       0.0509071 0.073027395 0.055891857 -0.06244427
0003a0 06 ed c7 bc 28 ae 08 be 1c 06 36 be f8 b7 a1 bc
       -0.024405014 -0.13347685 -0.17775768 -0.019741043
0003b0 72 f3 d2 3d f5 19 13 bd 51 51 82 3c 4a 0f 46 bd
       0.1030034 -0.035913426 0.015907915 -0.048354425
0003c0 17 10 07 3e 96 f2 e9 bd 7e 0c 71 3e 0e 76 2d bd
       0.13189732 -0.11423223 0.23539922 -0.042348914
0003d0 d6 ae 58 3d 96 9a c1 bd 31 53 69 bd b0 4d 32 bd
       0.05290111 -0.09453313 -0.056964103 -0.04353112
0003e0 6a 60 66 3e c5 e2 a5 bd e4 91 33 be 02 74 73 3e
       0.22497717 -0.080998935 -0.17536122 0.23774722
0003f0 89 40 3c be 8d c3 86 3d 68 aa 1d be 69 2a e2 bd
       -0.18383993 0.06580267 -0.15397036 -0.11043245

net.4.bias f4 [64]
000000 0e 3a bc be 39 f5 49 3f 49 a8 da be 6c 7a d4 be
       -0.36763042 0.78889805 -0.42706516 -0.4149965
000010 ab d7 0c 3f 33 1a 82 3f 19 ee 26 3c c0 8e 25 be
       0.55016583 1.0164245 0.010188603 -0.16167736
000020 49 b4 bf 3e 31 55 9f be ba 31 b9 3e c4 87 e0 3e
       0.37442234 -0.31119683 0.3617075 0.4385358
000030 18 85 37 bd 10 fb 07 3c 8e 6e 20 bf 26 1f 9f be
       -0.044804662 0.008299604 -0.62668693 -0.31078452
000040 81 ea 21 be 93 00 cf bd 4d 4b c8 3e 0a 26 cc bb
       -0.15812112 -0.101075314 0.3911995 -0.0062301205
000050 83 fe a5 3e 83 27 0c bf c1 92 c2 be 5b 69 c4 be
       0.3242074 -0.5474779 -0.3800259 -0.3836163
000060 52 59 b8 3e 8b d2 06 3f 7d fb a8 be 0c 6a 31 be
       0.36005646 0.52665013 -0.3300437 -0.1732561
000070 c7 e6 4c be 54 62 64 bd 47 cc 35 bf 4d 0f e7 3e
       -0.2000991 -0.055757836 -0.7101483 0.4512886
000080 17 74 ad bd 8f 17 78 3f 17 53 0e 3f 91 28 64 bf
       -0.08469408 0.9691095 0.55595535 -0.891244
000090 e6 b5 b8 3e 1e 9b c2 bd f9 c0 94 3f f8 3b 9c 3e
       0.36076277 -0.095022425 1.162139 0.30514503
0000a0 fd 0d d8 bd 18 33 90 bd 17 3a 56 3f 4f 4c b5 3c
       -0.10549543 -0.07040995 0.8368239 0.022131113
0000b0 62 fa be 3e f1 b1 83 be 4a aa ae bc 08 2f cb bf
       0.37300402 -0.25721696 -0.021321435 -1.5873728
0000c0 7b 63 e7 be 58 c7 cd 3e 7d 2a 7e 3c 23 04 08 bf
       -0.45193085 0.4019115 0.01551306 -0.5313131
0000d0 ef b4 7a 3f 6c 54 65 3e 92 65 e8 3e 1f 92 1b 3e
       0.9793233 0.22395486 0.45389992 0.1519246
0000e0 1d dc 06 3f 96 04 ae be 58 e6 3c 3f ea 06 af bc
       0.52679616 -0.33987874 0.73788977 -0.021365602
0000f0 9a 37 b2 bf d6 5e 5b 3f e6 1b 3b bd b6 2c eb bc
       -1.3923218 0.85691583 -0.045680903 -0.028707843

net.6.weight f4 [32, 64]
000000 40 e8 d1 3c 94 2d c5 3c 6f ec 00 3e d5 75 15 3d
       0.02562344 0.024069585 0.12590192 0.036489327
000010 37 91 df 3e 48 e7 bb bd bf d1 d6 bd c9 58 a7 be
       0.43665478 -0.09174973 -0.10489225 -0.32684925
000020 65 00 fa 3d 11 f9 1a bf b8 be 88 3d 95 45 15 bc
       0.122071065 -0.60536295 0.06677002 -0.009110828
000030 04 b1 1f bb 24 4d 0f 3d 71 2d 62 bc 5d 24 2d 3e
       -0.0024366984 0.034985676 -0.013804779 0.16908403
000040 4c 27 dd 3c 67 11 a8 3d 78 4b 4d 3d 4b 4a a8 b9
       0.026996277 0.08206444 0.0501208 -0.0003209881
000050 11 48 4d 3e 78 19 de 3c bc 84 3b bf b1 f0 78 3d
       0.20047022 0.027111754 -0.7324941 0.060776416
000060 d6 16 4f be 8a 9c 93 3c e5 62 39 3e 90 83 d4 3e
       -0.20223555 0.01801898 0.18104132 0.41506624
000070 fa f3 2b 3b 93 fd 84 3c b1 0d 13 bd 3e ea 2d be
       0.002623795 0.016234195 -0.03590173 -0.16983888
000080 e6 8a 0e bd 57 32 8a be 4a 86 bb bd c8 6e ca 3d
       -0.034800433 -0.2699153 -0.09156473 0.09884411
000090 49 87 70 bd ad 49 05 be 55 87 a6 bd a1 15 55 3e
       -0.058722768 -0.13016386 -0.08131281 0.20809032
0000a0 da 3c f8 3b bb 55 eb bd 45 96 33 be 1b 72 59 3d
       0.0075756134 -0.11490961 -0.17537792 0.053087335
0000b0 bf ff ce 3e ac 72 27 be 89 6f 61 be 69 96 9a 3e
       0.40429494 -0.16352338 -0.22015204 0.3019288
0000c0 2b fc 22 bd aa 10 3c be e7 74 b8 bc ab 4d 39 be
       -0.039791267 -0.18365732 -0.02251668 -0.18096034
0000d0 ab d1 4a 3b 95 85 64 3d 62 71 0d 3e 6e c0 5d 3c
       0.0030947726 0.055791456 0.13812783 0.013534648
0000e0 2e 2c 16 bc b8 05 d9 bd dc 81 0f be ce 63 d5 bc
       -0.009165807 -0.10596794 -0.14014381 -0.026048567
0000f0 64 d6 06 bd 22 94 fa 3e 39 62 17 3d d6 fc d4 3d
       -0.032919303 0.4894114 0.036958907 0.10399787
000100 71 a1 a5 bc 62 c7 ad 3d c7 fc 94 bf 29 a2 60 3e
       -0.020218583 0.08485295 -1.1639642 0.21936859
000110 2f 08 03 be 4f b1 90 bf 36 11 cc bd 28 df a7 be
       -0.1279609 -1.130411 -0.0996422 -0.32787442
000120 31 ac c9 bf ed dc 1d bf a9 56 1a be 2d 6e 3d bf
       -1.5755674 -0.6166523 -0.1507212 -0.7399624
000130 88 99 cb bc a9 17 57 bc ee c6 35 be 90 ff 82 3e
       -0.024853483 -0.0131282 -0.17751667 0.25585604
000140 df 11 4e bd a0 4c 84 bb 11 0e 89 3c ec e6 f2 be
       -0.050310012 -0.0040374547 0.01673034 -0.47441804
000150 90 01 1f 3d 54 db 62 3e 90 ad d9 bc f2 9c 42 3d
       0.03881985 0.2215398 -0.026572019 0.047512956
000160 3d 03 ba be 87 6a 42 be 2d d8 00 bd ad 07 8a bb
       -0.36330596 -0.1898595 -0.03145616 -0.004212341
000170 e8 13 1e bd fd f7 db 3d f8 20 d2 bc 73 7e 61 3d
       -0.038593203 0.107406594 -0.025650486 0.055052232
000180 00 00 32 39 6a 4f 53 be 40 1b ba bc 49 76 16 bf
       0.00016975403 -0.20635763 -0.022718072 -0.5877424
000190 4f 75 13 bd 58 87 be 3e 95 b3 90 be 79 ff 3c be
       -0.036000546 0.37212634 -0.2826201 -0.1845683
0001a0 ba d2 b0 3d 34 79 04 3e a2 51 3b bf d0 df 21 3d
       0.08633943 0.1293686 -0.73171437 0.039520085
0001b0 30 04 82 be 1a fb 03 bf 01 00 7d bf e1 f4 e9 bd
       -0.2539382 -0.51555026 -0.9882813 -0.1142366
0001c0 f5 51 3d 3d 2b c2 47 3c 08 f0 9c 3d ff cf 15 bf
       0.04622074 0.012192289 0.0766297 -0.585205
0001d0 15 fb 31 bf a4 ec 24 3d 39 a4 3f bd ee 3c ce be
       -0.69523746 0.04026474 -0.046787474 -0.4028086
0001e0 13 bb 16 be 36 fc 87 bd 8a fb 40 3c ac 9c b5 3d
       -0.147198 -0.06639902 0.011778722 0.088677734
0001f0 fe 63 23 3e a7 0e da 3e b0 3f 4c 3d 94 66 42 3d
       0.15956113 0.42589304 0.049865425 0.047461107
000200 3f 0a 40 be 47 9a 23 bc 0c 03 f5 3d 19 61 22 be
       -0.18753909 -0.009985513 0.11963472 -0.15857352
000210 29 7c ff 3b a4 5a 4b be 56 84 53 bc 0c e8 80 be
       0.0077967835 -0.19858795 -0.012909969 -0.25177038
000220 61 66 b7 3e 7e 3f 96 3e 12 10 bb bd 33 a5 00 3e
       0.35820296 0.29345316 -0.091339245 0.12563019
000230 0c a5 e2 bd d8 38 0a bd 82 77 4c be bd 69 a3 3b
       -0.110666364 -0.033745617 -0.19967464 0.00498697
000240 87 a1 b6 3c 17 85 96 bd d6 8e d1 3d b3 cb 90 bc
       0.02229382 -0.073496036 0.10232322 -0.017675256
000250 da a9 13 3e 85 30 e1 3e 29 d6 4c be 97 c1 63 3e
       0.14420262 0.4398233 -0.2000357 0.22241817
000260 91 0c 08 bc 2c 4d 33 3e 18 84 20 bd 24 e2 29 3e
       -0.008303777 0.17509907 -0.039188474 0.16590172
000270 a1 d9 e0 bc e3 7a fb bd ab bf d9 3d 22 6a 52 bd
       -0.027447524 -0.12279298 0.10632261 -0.051370747
000280 3e 76 a0 bd 8f 04 8d 3e 3e 9e 91 3c e1 14 63 3e
       -0.07835053 0.2754254 0.017775651 0.22175933
000290 55 93 fa 3c cb ae d8 3e f4 8e 78 bd 50 81 93 3a
       0.030587832 0.42320856 -0.060683206 0.0011253748
0002a0 dd c1 ac b8 52 bf b4 3d 2d 63 62 3d c7 d7 5a 3d
       -8.237709e-05 0.08825554 0.055270363 0.053428438
0002b0 32 86 0c 3f eb 79 35 bd cd 61 d9 bd dc e7 eb 3c
       0.54892266 -0.044305723 -0.10614357 0.028797083
0002c0 99 f4 b7 3c 4b 51 48 3d 94 f6 40 bd 4f 5b b2 be
       0.0224555 0.048905652 -0.047110155 -0.34835288
0002d0 fb d6 93 be 98 ba 5d 3e 5a 16 8e bd f1 1a e6 bd
       -0.28874955 0.21653211 -0.06937857 -0.112356074
0002e0 6b fc 07 3e 0e 1a 97 bd bc 77 73 be 14 bb b8 3d
       0.13279884 -0.073780164 -0.23776144 0.09020057
0002f0 09 bd c1 bd 33 c4 ab be 7c 79 94 bd 0a 54 63 3d
       -0.09459884 -0.33548126 -0.07249734 0.055500068
000300 ab e0 02 be aa 51 40 3e 7b 48 09 bf bf 61 25 be
       -0.12781017 0.18781152 -0.5362622 -0.16150568
000310 a3 03 28 bd 2e bb 07 3d a7 15 d2 bd 17 b1 78 3e
       -0.041019093 0.033137493 -0.10258036 0.24286304
000320 0c be 0a bd 6f 7b cf be 15 83 1d bf 0d aa 1f be
       -0.03387265 -0.4052386 -0.6152814 -0.15592213
000330 a0 73 f1 3d 41 4a bb be bb bb 47 be 7a 50 22 be
       0.11789632 -0.3658009 -0.19505207 -0.15851012
000340 f8 53 31 3e 3a 5b c7 3d 2c 65 bc 3e 23 08 cc be
       0.17317188 0.09734197 0.36795938 -0.39849958
000350 9c 19 ac bc 8a 2c ce be 19 87 e0 bd d6 d7 8b bd
       -0.021008305 -0.40268356 -0.10963268 -0.06828277
000360 17 66 a9 3d e6 91 b8 be 13 e0 a7 3e c8 ab da bc
       0.08271425 -0.36048812 0.32788143 -0.02669324
000370 00 79 16 be 13 69 00 bd 58 b2 a0 3e 34 83 48 3d
       -0.14694595 -0.031350207 0.31386065 0.04895325
000380 0c 55 ba bd 5d a9 16 c0 68 1a d1 3b 51 72 d4 3e
       -0.09098253 -2.354087 0.0063813217 0.41493466
000390 79 0e 35 3d 6a c2 06 3f c9 4e cb be 5c 6e 90 3e
       0.044203255 0.526404 -0.39708546 0.28209198
0003a0 66 1f 84 3d ce cc 4b be 9b 0c 71 bf a8 ae f5 3d
       0.06451301 -0.19902346 -0.9415986 0.11996204
0003b0 48 93 a6 be e7 97 2e 3e e7 9b f4 be 13 8d 50 3e
       -0.32534242 0.17050134 -0.47775194 0.20366316
0003c0 92 a3 a9 be e2 4c cb 3d 78 c1 b3 bc b9 94 34 bf
       -0.33132607 0.099267736 -0.021942839 -0.7053943
0003d0 29 6c 2b bf 62 22 a6 3e 3b 26 86 bd b6 51 10 be
       -0.66961914 0.32448107 -0.06550261 -0.1409367
0003e0 4e 91 21 3f 7f 29 52 3e 04 4a 87 bd 92 90 2f 3d
       0.6311234 0.20523642 -0.06605914 0.042862482
0003f0 9e 20 9d be 97 55 61 be 54 fd 8a 3c 90 15 41 bd
       -0.30688947 -0.22005306 0.0169665 -0.047139704

net.6.bias f4 [32]
000000 46 d2 05 3e 9e 84 f0 be 91 22 79 3e ef 05 3d 3e
       0.13068494 -0.4697618 0.24329592 0.18459295
000010 4c 97 c1 3d 18 a0 15 be 80 64 90 3e 1a 6b d7 be
       0.09452686 -0.14611852 0.28201675 -0.420739
000020 2e 6f 97 3e 2b 12 e6 3d bf b6 88 be f1 01 b2 be
       0.2957701 0.11233934 -0.26701924 -0.34767106
000030 b9 b7 26 3e 82 32 d9 3e cb ee 15 3f 52 12 88 bf
       0.16281022 0.42421347 0.58567494 -1.0630591
000040 74 cc 03 bd 89 ca dc 3e d9 71 11 3d 03 79 67 bc
       -0.032177404 0.43123272 0.035508964 -0.014127973
000050 63 0c cb 3e 01 c5 f2 bb a4 45 c9 bf 0f 58 1c 3f
       0.39657888 -0.0074087386 -1.5724378 0.61071867
000060 0f 89 09 3f 83 95 de be 32 e9 51 bd 48 6a 0b 3f
       0.5372476 -0.43473443 -0.051247783 0.5445905
000070 8f aa 99 3e bb aa 95 3e 67 04 39 3f e2 61 49 bf
       0.30012938 0.2923182 0.7227234 -0.7866498

net.8.weight f4 [1, 32]
000000 c0 c3 58 bc f4 73 8a bd 1e e4 85 bc 87 81 1d 3d
       -0.013230264 -0.067603976 -0.016344126 0.038453605
000010 3c 37 98 bd 68 64 ac 3c 4d 49 98 3c 29 cc e9 3c
       -0.0743241 0.021043971 0.01858964 0.028539734
000020 97 d5 b9 3c 57 67 90 bd 7a 2a fe 3c 81 7b b0 bc
       0.022684855 -0.070509605 0.031026114 -0.021543266
000030 93 21 0d 3d f1 da 80 bd 0e 1f f0 3c 31 24 9e 3d
       0.034455847 -0.0629176 0.029311683 0.07721747
000040 9e d7 1a be 0d 80 43 bd 91 97 22 3d 18 61 04 3e
       -0.15121314 -0.04772954 0.039695326 0.12927663
000050 41 bf af bd 4c 48 a0 bc eb 61 7d bd 7b b9 d0 3c
       -0.08581401 -0.019565724 -0.06186096 0.025479069
000060 ce 21 d8 3c 8d a1 c8 bc e5 fe de 3c 1a ab f1 bc
       0.026383307 -0.024491096 0.027221153 -0.029500533
000070 0f a3 43 bd 97 e8 24 bd 45 b2 6e bd c2 ad a8 3d
       -0.047762927 -0.040260877 -0.05827548 0.08236267
