prediction_model_test_muscle_blood/prediction_model/prediction_model.pth (torch, 260863 bytes, 9 tensors)

net.0.weight f4 [256, 81]
000000 13 22 a1 bd 48 4f d6 ba d4 e7 94 3d cc 95 8b 3d
       -0.07867827 -0.0016350532 0.0727078 0.06815681
000010 73 ea 9e 3d 9e 3c 44 3c 47 b0 e7 bd 76 ab a8 3d
       0.077595614 0.011977343 -0.11312919 0.082358286
000020 9c 22 b9 bd ce f8 d6 3c 54 1c 29 bd 1e f6 14 bd
       -0.09039804 0.026241686 -0.04128678 -0.03636753
000030 6a 67 bd 3b 95 b0 e6 bc bc 9c a3 3c be f5 a9 3d
       0.00578015 -0.028160373 0.019972198 0.08298825
000040 1a d1 7a 3c c9 e7 bf 3d d8 25 8a bd 65 36 53 bc
       0.015308643 0.093703814 -0.06745499 -0.012891387
000050 25 4f b4 3d 06 70 85 bd ce 22 7a 3d 97 95 53 3c
       0.08804158 -0.065155074 0.06106835 0.012914083
000060 43 a8 2a 3d 0c 0b 2d bd fd df 4f 3d 6f c2 cd bd
       0.041664373 -0.042246863 0.05075072 -0.10046851
000070 e1 9a 8f bd 3c 87 87 bd 24 85 bc bd 5e 32 40 bd
       -0.07011963 -0.06617591 -0.09205082 -0.046923034
000080 d1 c1 fc bb b3 b4 02 bd 43 2b a9 3d ce f6 be bd
       -0.0077135344 -0.03191061 0.08260205 -0.09324418
000090 27 88 af 3d a2 06 86 3c 47 6b 82 bd 5d c1 b9 3c
       0.08570891 0.016360585 -0.06368118 0.02267521
0000a0 5b 85 5a 3c 00 2b 29 3d 80 ab f5 3c bf 0b ea bc
       0.0133374585 0.041300774 0.029989004 -0.028570054
0000b0 cc fd 4d 3d 13 1b 9a 3d db 5c 56 3d 2f 30 ad 3d
       0.050290868 0.07524695 0.052334648 0.08456456
0000c0 bc 5c 6f bc 13 a2 28 bd 8e f0 f9 bc 49 c1 e0 bd
       -0.014609512 -0.04117019 -0.030510213 -0.10974366
0000d0 d5 f3 87 3d cb 0a 67 bc c1 31 dc bd 2a 74 2f 3c
       0.06638304 -0.014101694 -0.10751677 0.010708848
0000e0 e0 83 58 3d 8a d9 8f bd 4c 16 a4 bc a7 8a 88 3d
       0.05286014 -0.07023914 -0.020030163 0.06667071
0000f0 07 a3 b7 3d 4b 69 a6 bd c8 cc c8 bd 31 69 b1 bd
       0.08966642 -0.08125552 -0.09804684 -0.08662642
000100 a9 e4 4d 3c 98 e1 95 3d a0 a1 b6 3d 4a 2e ab 3d
       0.012566724 0.07318419 0.08917546 0.08358438
000110 bc 63 9e 3b 5a 5f e6 bd 07 40 d5 bd 59 c3 08 bb
       0.0048336666 -0.112486556 -0.10412603 -0.002086839
000120 f6 7d 0e 3d 20 53 58 3d b9 52 ce 3b 6c 04 8d 3d
       0.034788094 0.05281365 0.0062964824 0.06885609
000130 c3 67 8b 3c d7 23 eb bd 6b 28 2e bc 68 e4 b0 bd
       0.01701725 -0.11481445 -0.010629754 -0.08637315
000140 fc a4 63 bd 8f d6 bd bd 7f 34 78 3d 40 2a 64 bc
       -0.055577263 -0.092694394 0.06059694 -0.013926089
000150 6b 31 16 3d 1a 05 80 3d d1 08 80 3b 66 ce 28 bd
       0.036668222 0.06250973 0.003907301 -0.041212462
000160 71 12 96 3d a1 42 c8 bd a7 84 57 3a c7 3f 8e 3d
       0.07327736 -0.097783335 0.0008221366 0.06945758
000170 a9 31 3d 3d 1d 44 9e 3d 58 db 4d bc db 01 fc bd
       0.046189938 0.07727835 -0.012564503 -0.123050414
000180 15 64 e3 bb 7c 0e a6 bd 42 98 e6 bd 01 6c 69 3c
       -0.006939421 -0.081082314 -0.112595096 0.014246942
000190 02 03 2d 3d a6 75 92 bc 98 c8 be bd 29 9a 13 3c
       0.042239197 -0.017878365 -0.09315604 0.009008923
0001a0 94 d0 1c 3c 30 7e d1 bd d6 cc b3 bd e8 30 86 3d
       0.009571213 -0.102291465 -0.08779304 0.06552297
0001b0 4d 22 71 bc 87 c4 52 bd e0 9e 58 bd cc a5 6b bd
       -0.014717651 -0.051456954 -0.05288589 -0.057531163
0001c0 b9 4d 90 bd 91 66 50 bd 25 9f 1d bc c9 c0 41 bd
       -0.070460744 -0.050879065 -0.009620463 -0.047302995
0001d0 dc 84 c9 bd f6 ef 04 bd 3e b4 1b bd 1f 59 7a 3d
       -0.09839794 -0.032455407 -0.03801369 0.06112015
0001e0 e9 55 b1 3d c7 86 bc 3d 91 61 97 3d ff 43 af 3d
       0.08658964 0.09205394 0.07391656 0.08557891
0001f0 5e b7 d4 3d 4a 67 ad 3d 87 d6 39 bc 91 0d fc bc
       0.10386537 0.084669665 -0.011342651 -0.030768188
000200 5d dd bc bc 4a df a3 3d 12 0b bd 3a 2d 6c 87 bd
       -0.023054773 0.080015734 0.0014422855 -0.0661243
000210 9a bf 30 3d db 66 a6 bc f1 0d e2 bd 16 dd 64 bb
       0.043151475 -0.020312717 -0.11037815 -0.0034921817
000220 3c 6b b8 bd af 29 8c 3d 27 b7 b1 bd b6 4c 97 bd
       -0.09004828 0.06843888 -0.08677512 -0.07387678
000230 18 51 93 bd 53 5a be 3d 4c fa a3 3d af e1 83 3d
       -0.07193202 0.09294572 0.08006725 0.0643953
000240 c3 15 99 bd 75 fd 01 3d b5 26 b8 3d 47 56 ca bd
       -0.07474854 0.031735856 0.08991758 -0.09879737
000250 d3 c7 50 3d 60 90 44 bd bd e4 90 bd 92 2a df bc
       0.050971817 -0.04798925 -0.07074878 -0.027241979
000260 a9 15 88 bd 0a 8f d1 bd 62 60 61 bc 9c 1a 85 3d
       -0.06644756 -0.10232361 -0.01375589 0.06499216
000270 36 a1 1c 3d 92 89 6d bd 06 04 7e 3d b3 43 8b 3d
       0.03823968 -0.057992525 0.062015556 0.06800022
000280 81 0d 87 3d bd af 94 3b eb d7 cc bd 3d dd 76 3d
       0.065943725 0.004537551 -0.100021206 0.060269583
000290 e7 e3 45 3d 2e b6 da bd 15 e1 aa bc 47 63 4a 3d
       0.048313048 -0.10679279 -0.02085928 0.049411085
0002a0 d0 fb aa bd 44 7e 99 bd 15 5c 1b 3d 79 4b 54 3d
       -0.08348811 -0.074947864 0.037929613 0.05182979
0002b0 12 f8 a5 bd f5 83 29 3d 17 66 9a 3d 75 a9 8e 3d
       -0.08103956 0.04138561 0.07539003 0.06965915
0002c0 7d dd 50 3d a9 90 c3 3d d2 c2 e0 3d f2 c8 e4 bc
       0.050992478 0.09549076 0.10974659 -0.02792785
0002d0 2e 0a bc bd 8e 19 8b 3d 2d ff 97 bd e4 d1 4c 3c
       -0.09181629 0.067919835 -0.07421718 0.012501214
0002e0 9b b0 be bd 67 ed 47 3d c7 fb c9 bd 44 80 05 3d
       -0.093110286 0.04881039 -0.09862476 0.032593027
0002f0 a4 cd c7 bc 67 36 c7 3d d5 8a 2e 3c 5e 81 8b 3d
       -0.02439005 0.09727173 0.010653217 0.06811784
000300 b7 e4 c0 bd 80 88 79 bc 67 c9 29 3d 99 86 84 bd
       -0.09418624 -0.015230298 0.041451838 -0.06470985
000310 1d f3 9d bb 2d 14 c9 3d 22 29 91 bd f9 00 47 3d
       -0.004820241 0.09818301 -0.070879236 0.048584912
000320 e7 0b 77 3d bd a6 91 bd b0 78 82 bd e4 aa 04 3c
       0.060314085 -0.07111881 -0.063706756 0.008097384
000330 4d a8 bc bd 69 38 d7 bd b9 88 a1 bc bb 81 a7 3d
       -0.09211788 -0.10508806 -0.019718515 0.08179041
000340 72 f6 13 bb cb a2 a9 bd a4 69 9d 3c e4 5e 66 bc
       -0.0022577313 -0.082830034 0.019215412 -0.01406071
000350 9d 4e 3e 3c 9b c8 df bd e9 c7 a2 3d 00 08 8c bb
       0.011615423 -0.10926934 0.07948286 -0.0042734146
000360 ab 3e c0 3a c0 1c fd bc 80 d7 41 bd 44 56 62 bd
       0.0014667114 -0.030897498 -0.047324657 -0.05525805
000370 39 13 bc bb 15 ad 82 bc 34 43 b5 3d 4e 64 80 3c
       -0.005739596 -0.015951673 0.088507086 0.015672829
000380 b2 35 d6 3d 35 99 a2 3d 40 0e 63 bd 09 58 c5 bd
       0.1045946 0.07939378 -0.05543351 -0.09635932
000390 35 01 55 3d 20 70 ba 3d 19 93 88 3d 40 a2 16 3d
       0.052003104 0.091034174 0.06668682 0.036775827
0003a0 bd 0e 9c bd c2 c1 96 3d 47 1e 95 3d 24 ca 83 bc
       -0.076199986 0.07361175 0.072811656 -0.0160876
0003b0 ae a6 24 bd 9d 0a 07 bd 79 1c 53 3d 49 96 bb 3d
       -0.04019802 -0.032969106 0.051540826 0.09159524
0003c0 29 70 c0 bd c7 de b9 bd db 89 d9 bd 3d 64 ba bd
       -0.09396393 -0.090756945 -0.10621997 -0.0910115
0003d0 1e f0 a2 bd e7 b9 36 3d f5 5a 6b 3d 37 03 d8 bd
       -0.07955955 0.044610884 0.05745979 -0.10547488
0003e0 e9 a5 91 3d 1d eb 9b bc 0e 3f b6 bc f9 72 54 bd
       0.07111723 -0.01903301 -0.022246864 -0.05186746
0003f0 4e cf d8 3d 6e 47 02 3d 85 91 c0 3d f2 89 28 bc
       0.10586415 0.031806402 0.09402756 -0.010286795

net.0.bias f4 [256]
000000 63 77 a4 bd 6a 24 e6 bd bd a3 59 bd 67 92 9c 3d
       -0.08030584 -0.11237414 -0.05313467 0.076451115
000010 8e 2e 89 3c c0 19 9b bc 0b 2c c3 3d f0 fa ed b8
       0.016745832 -0.018933177 0.09529885 -0.000113477814
000020 75 32 93 3d 9e 80 8e 3d cf c4 c1 3c 12 38 b8 3d
       0.07187358 0.069581255 0.023653416 0.089950696
000030 eb 36 70 bd f2 f4 9e 3c 2d 8b 5a 3a 4e bd 28 bc
       -0.058646124 0.019403908 0.0008336779 -0.01029904
000040 d0 40 e2 3c b1 59 17 3f e4 bb 25 3c d5 8b 08 be
       0.027618796 0.59121233 0.010115597 -0.13334592
000050 00 ce c8 bd e5 88 7e 3c 6b c2 b9 3c 9c 2f 59 bc
       -0.098049164 0.015535568 0.022675714 -0.01325598
000060 6c f1 66 bc 0d 19 91 bd f2 19 3f 3c c5 27 c9 3d
       -0.014095645 -0.07084856 0.011663901 0.098220386
000070 52 61 2c bd 32 4f 30 bd 27 a2 68 3c dd 3f 41 bd
       -0.042085 -0.043044277 0.014198816 -0.047180045
000080 c2 89 87 bd bc 6c ce 3e 0e ba d0 bd 7f 17 7f bd
       -0.06618072 0.40317333 -0.10191737 -0.062278267
000090 1b ca a0 bd 27 b9 80 3d d8 71 d1 3d 02 5b ac 3d
       -0.078510486 0.06285315 0.10226792 0.08415796
0000a0 f1 6b 18 3f bd 11 c4 3d b2 07 34 3d 94 12 3e 3d
       0.59539706 0.09573696 0.04395265 0.046404436
0000b0 27 cf 9f bd 6a 3d 8a 3d eb ee 07 3d 07 54 91 3c
       -0.07803183 0.06749995 0.033186834 0.017740263
0000c0 82 9b 44 bd 7b e0 8b bd 6b 41 82 3d fb 4a a2 bd
       -0.047999866 -0.068299256 0.06360134 -0.07924458
0000d0 b0 46 df bd 69 76 8f 3d 95 48 c5 bd e2 80 fb 3d
       -0.109021544 0.07005007 -0.096329845 0.12280442
0000e0 bd 58 31 3c 55 55 a9 36 db ce db 3d 32 24 b5 3d
       0.0108243795 5.0465264e-06 0.10732814 0.08844794
0000f0 16 97 59 bd 87 f5 9b bc d4 fc 93 be f9 9f 29 bd
       -0.053122602 -0.019037975 -0.2890383 -0.041412327
000100 ab 7a 88 ba c5 59 88 bd a4 26 87 3c aa 9d d7 3c
       -0.0010412534 -0.06657747 0.016497917 0.026320297
000110 f0 d1 a0 3d 5d 14 d9 3d dd 2d ef bd 79 fa 03 bd
       0.078525424 0.10599587 -0.116786696 -0.03222129
000120 95 71 7f 3d 53 39 21 bd 57 92 d4 3d c7 29 79 3d
       0.06236418 -0.03936131 0.103794746 0.060830858
000130 f2 47 dd 3c 35 06 d0 bd 25 b3 3f bd c7 c5 b6 3d
       0.027011845 -0.10157434 -0.046801705 0.08924442
000140 8a 52 b1 3d cc 66 ee bc 59 ea 0a bd 6e 40 b2 bd
       0.08658321 -0.029101752 -0.033914898 -0.08703695
000150 20 91 a2 bd 7d ee b8 3d 00 2f b6 bd 0e 27 2d bd
       -0.07937837 0.09029863 -0.08895683 -0.042273574
000160 39 7b 9a 3d b5 1d 2e 3d 59 a5 5f 3d 7d fd b8 3d
       0.07543034 0.0425088 0.054601047 0.09032724
000170 21 c7 30 3d 59 c8 1a 3c 00 ee 5d 3d df ef 7b bd
       0.043158654 0.009447181 0.054182053 -0.061508056
000180 79 74 19 bd 8f 09 05 3d fb 8c 82 3d fb 9a bc 3d
       -0.037464593 0.03247982 0.06374546 0.09209248
000190 34 6d b1 bd 4b ba 08 be 01 31 ae bd ab 62 49 3b
       -0.08663407 -0.13352315 -0.085054405 0.0030728977
0001a0 75 50 47 bd b0 4a 1e bd 5e cf 23 3d 80 a5 5b 3c
       -0.048660714 -0.038645446 0.039992683 0.0134061575
0001b0 7b 46 3e bd be 97 d2 3d 71 7a 16 3e 35 8a 0c 3d
       -0.046453934 0.10282849 0.14695145 0.034311492
0001c0 37 5c 3a 3c a2 bf 4d 3d eb 75 be 3c 80 f7 2c 3d
       0.011374525 0.050231583 0.023249587 0.042228222
0001d0 1d 84 a8 3d 95 cc 68 3d 1d 18 89 3d a0 ff 87 bc
       0.082283236 0.05683573 0.06694052 -0.016601384
0001e0 e1 a8 a0 3d d2 76 bd 3d 25 62 f1 bd 1e 5a eb be
       0.07844711 0.09251179 -0.11786298 -0.4596719
0001f0 7e d9 81 bd 74 d6 8c 3e 8e c9 4c bc ca a2 9e 3c
       -0.063403115 0.27507365 -0.012499226 0.019364733
000200 8b 98 2b bd 79 c0 6e bd a5 a2 d4 3d 9c 55 d7 3d
       -0.041893523 -0.058289025 0.103825845 0.105143756
000210 20 6e 8e bd ee 31 84 bd 96 53 f8 3a 6b 4b d1 3d
       -0.069545984 -0.06454836 0.0018945809 0.10219463
000220 fd 19 10 3d 10 a5 5c 3c 79 ae a9 bd d4 80 2b 3d
       0.035181034 0.013467088 -0.08285231 0.041870907
000230 dd 49 ad 3d d1 a0 97 be 6a 6e 53 bd cf 13 1c 3c
       0.08461354 -0.2961488 -0.05161897 0.009526207
000240 5d 13 9b 3c 67 31 08 3d 8a 74 52 3d 18 c4 67 3c
       0.018930132 0.03325024 0.05138067 0.0141458735
000250 32 fb 80 3d 15 a2 fb 3d b2 23 8c 3d 72 e6 f2 3c
       0.06297912 0.12286774 0.06842746 0.0296509
000260 5c 54 42 be 24 71 96 3d f2 ae 0b bc 00 f2 24 3b
       -0.18977493 0.073457986 -0.008525597 0.0025168657
000270 4e cb 64 3d 82 64 dc bd a2 79 d5 3d ef 5a 7a bd
       0.05585795 -0.10761358 0.1042359 -0.061121877
000280 de 00 2a 3c 0b 80 7d bc 67 bc 5b bd 76 4d 29 3e
       0.010376183 -0.015472422 -0.05364647 0.16533455
000290 cb 06 7c bd 2e ab e1 bd af c6 09 be e9 b8 1d 3e
       -0.061529916 -0.11018978 -0.13454698 0.15402569
0002a0 ec bf 77 3d 29 0f d4 bd 99 cf 8f 3d 02 73 d2 3d
       0.060485765 -0.10354454 0.07022018 0.10275842
0002b0 f5 16 01 3d 01 9e 86 bd 62 00 84 3d 1d c0 05 be
       0.031516034 -0.065731056 0.064453855 -0.13061567
0002c0 d8 fd a7 3d 16 cf 93 3c fe ed 07 bd fe 77 df 3d
       0.08202714 0.018043082 -0.03318595 0.109115586
0002d0 0b 8d 62 3d 11 be 5f bb a0 f4 81 bd 24 fc 9a bd
       0.05531029 -0.0034140388 -0.06345487 -0.07567623
0002e0 74 88 b2 3c ae 80 ea bd a5 77 86 3d 8b c9 a1 3d
       0.021793582 -0.11450325 0.06565789 0.078997694
0002f0 a6 e5 84 3c f9 37 21 3d c9 d8 76 bc 2b cf dc bc
       0.016222786 0.03936002 -0.015066334 -0.026954254
000300 e9 60 b7 bd 8e 1c 7f ba af 85 ee 3c 02 9e 84 bd
       -0.08954031 -0.0009731733 0.02911648 -0.0647545
000310 40 20 cf bc 47 e3 9f 3d 8e 2f 45 bd 10 72 86 3d
       -0.025283933 0.078070216 -0.048141055 0.065647244
000320 3d bb 6a bd 76 6f dd 3d 43 6c 64 3e fd 9c 97 bd
       -0.05730747 0.10812275 0.22306924 -0.0740299
000330 8e 57 8a 3a db 2a b3 bd 4e f8 38 3d d2 2c 21 3d
       0.0010554658 -0.087484084 0.045158677 0.039349385
000340 ef 5d 63 bd 25 20 af 3d 84 96 2b 3d 2b 8f 63 bd
       -0.055509504 0.08551053 0.04189159 -0.055556457
000350 b6 53 ce 3d 00 e0 33 3b 9d 59 4d bd 92 cd 82 bd
       0.1007456 0.0027446747 -0.05013429 -0.06386866
000360 4f c3 76 3d 55 cf 60 be 39 b2 b0 bb 8d 2b f0 3c
       0.060244855 -0.21954091 -0.0053923395 0.029317642
000370 00 45 31 bf 8b 5b 98 3d d0 67 af bd ad 5a 8b bd
       -0.6924591 0.074393354 -0.085647225 -0.068044044
000380 74 6b ac 3c 07 ce ef bc 2d e7 d1 bd ab 6c 72 bc
       0.021047331 -0.029273046 -0.102491714 -0.014796416
000390 5d a7 49 bd ce e4 06 bd a6 0c 93 3d c0 d0 52 3d
       -0.049231876 -0.03293305 0.07180147 0.05146861
0003a0 f4 09 f5 bc 6e 68 c0 bd b7 12 5e bd 80 e4 db 3c
       -0.029911973 -0.093949184 -0.054217067 0.026842356
0003b0 cb 6b a1 3d 44 10 d5 bd 49 47 17 3c d8 6e 44 bd
       0.07881888 -0.10403493 0.009233304 -0.04795727
0003c0 f1 0f 4e 3e 06 dd 48 be 26 2e 3c be a3 3c 49 3e
       0.20123269 -0.19615564 -0.18376979 0.19652037
0003d0 87 38 4a be 70 c6 a9 3d f7 46 9e bd 29 e8 5d 3d
       -0.19748126 0.08289802 -0.07728379 0.054176483
0003e0 72 c0 ff 3a 1c ad 17 3d f2 5f 8a bd c8 67 a0 bc
       0.0019512309 0.037030324 -0.06756581 -0.019580737
0003f0 bb 3b 87 3d 4a ed 84 3d 9a e4 2e bd eb 17 83 3d
       0.066031896 0.06490572 -0.04269848 0.06401046

net.2.weight f4 [128, 256]
000000 c8 fa 2e bc 3c 4b b0 bc d2 90 7e bd 46 04 66 bd
       -0.010679908 -0.02152025 -0.06214983 -0.05615642
000010 78 6b 46 bc 44 de f7 3c c8 91 e9 bc e0 46 ca bc
       -0.0121105835 0.030257352 -0.028511897 -0.024691999
000020 d0 91 3d bd 10 13 54 3d 64 a8 1a 3d c4 3b 83 bc
       -0.046281636 0.051775992 0.037758246 -0.01601971
000030 6c 08 5e 3d 6a a2 0e bd 94 a1 50 bd 26 47 60 3c
       0.05420725 -0.03482286 -0.050935343 0.013688838
000040 a0 d9 7b 3d d2 32 1f 3d 00 cc 6f 3c a0 cf c9 bb
       0.06148684 0.038866825 0.01463604 -0.006158784
000050 f4 08 cc bc cc 45 50 3d 76 df 5a bd ca f3 12 3d
       -0.024906613 0.050847813 -0.053435765 0.035877027
000060 fd 10 e3 3c f0 4e 24 3c ae f4 3a bd f0 71 11 3d
       0.027718062 0.010028586 -0.0456435 0.03550905
000070 88 55 1f bc 50 ff 51 bd c0 d0 9b 3c 90 23 8c bc
       -0.009724982 -0.051268876 0.019020438 -0.017106801
000080 ba d2 6e bd a4 2f c6 bc 00 be 87 bc fa 62 19 bd
       -0.058306433 -0.024192639 -0.016570091 -0.037447907
000090 cc 9a 6f bd 38 3b 5c 3c 88 11 03 3c b6 f8 0f 3d
       -0.058497235 0.013441853 0.007999785 0.0351493
0000a0 c3 33 1f bb ec b7 e0 bc 80 79 b2 bb 22 63 04 bd
       -0.0024292327 -0.02743145 -0.005446613 -0.032321103
0000b0 9c f8 ff 3c d8 0f 51 3c a6 b1 25 bd 2a 1c 7e bd
       0.031246476 0.012760125 -0.040452622 -0.062038578
0000c0 8c e9 f4 3c c4 02 d5 3c 24 e6 fd bc da 17 31 bd
       0.02989652 0.026002295 -0.030993529 -0.043235637
0000d0 d4 1d 6b 3d 04 10 0d bd a0 00 1e bd 18 b8 1a 3c
       0.057401493 -0.0344391 -0.038574815 0.009443305
0000e0 c4 82 2e 3d 4c f8 0b bd 70 91 87 3c 58 85 73 bc
       0.042605177 -0.03417234 0.016548842 -0.014863335
0000f0 d0 be a9 bc 60 f6 bf bc 38 2b a7 3b 78 4f 24 3d
       -0.02072087 -0.02343291 0.0051015876 0.04011485
000100 0a 26 57 bd 36 43 6f 3d ce 89 04 bd 36 dd 24 3d
       -0.05252651 0.058413707 -0.032357983 0.040250026
000110 c4 12 2d bd b2 fb 52 bd 40 f4 0e 3d be e6 67 bd
       -0.042254224 -0.051509567 0.034900904 -0.056616537
000120 28 3e 5d bd 78 bb fc bc c0 eb 51 3c a0 5c 69 3d
       -0.054014355 -0.03085111 0.012812555 0.0569731
000130 8a 30 17 3d fa 59 38 bd 88 3d 42 3c be e5 4a 3d
       0.036911525 -0.045007683 0.0118554905 0.049535505
000140 10 ab 01 bd c0 5e 37 3d d0 b8 1f 3c 70 05 af bc
       -0.03165728 0.044768095 0.009748653 -0.021364897
000150 90 60 3f bd 2c 61 84 bc 10 e1 57 bc 00 f0 e3 ba
       -0.04672295 -0.016159616 -0.013176218 -0.0017390251
000160 8c 1b 08 bd d0 d4 c7 3b 48 38 56 3d 98 60 ea bc
       -0.033229396 0.0060983673 0.052299768 -0.028610513
000170 4a e1 0c bd 18 ef 77 bd 00 90 8a 3a 84 d1 7b bc
       -0.03439454 -0.060530752 0.001057148 -0.015369777
000180 40 0b de 3b 30 a2 4c bd 90 2c f0 3c 02 44 20 3d
       0.0067762434 -0.04995936 0.029318124 0.039127357
000190 c2 21 02 3d 2a cc 81 bd f8 f1 75 bd 48 c1 45 bc
       0.031770475 -0.06337769 -0.060045213 -0.012070008
0001a0 e0 ee c9 3b 34 d4 cb 3c 80 95 94 bb c2 ff 5d bd
       0.0061625093 0.02488146 -0.0045344234 -0.054198988
0001b0 80 d0 1d bb 2c f1 8a bc 99 ea 73 bd bd 8f 1b bd
       -0.0024080575 -0.016960703 -0.0595499 -0.037978876
0001c0 6a 13 15 3d c0 8b 54 bb 4c a9 a0 bc e8 26 8c bc
       0.036395468 -0.003243193 -0.019611977 -0.017108396
0001d0 c4 cc 3f 3d a8 9d c1 bc 48 a1 de bc 50 0e b4 bb
       0.04682614 -0.023634747 -0.027176514 -0.0054948702
0001e0 40 0a 04 3d bc 7a 44 bd a0 30 41 bc f2 43 56 bd
       0.032236338 -0.04796861 -0.011791378 -0.05231089
0001f0 5c 10 0e 3d f0 0a 7a 3d 28 76 db bc f0 5d 1c 3d
       0.03468357 0.061045587 -0.02678974 0.038175523
000200 8c 76 77 3d 32 37 3a 3d c0 4d 92 3b c0 2f 97 ba
       0.06041579 0.045462795 0.004464835 -0.0011534616
000210 a0 99 84 bc 38 45 4f 3d 68 b2 f9 bc c8 29 bf bc
       -0.016186535 0.05060312 -0.030480579 -0.023335353
000220 00 c5 8f bb bc 7b b6 3c 00 20 11 b8 56 21 46 3d
       -0.004387498 0.022275798 -3.4600496e-05 0.048371635
000230 8e 0a 33 3d ba 09 24 3c 56 38 19 bd e4 b8 c8 bc
       0.043711238 0.010012085 -0.03740724 -0.024502225
000240 8c b1 ed bc 12 da 4d bd 6a 91 1b 3d cc 7f 7a bd
       -0.029015325 -0.050256796 0.037980475 -0.061157033
000250 b0 a8 c1 3b 12 54 c4 bc 38 3a ba 3c 0c 2d 51 bd
       0.0059100017 -0.02396587 0.022732839 -0.05106835
000260 97 28 49 bc b8 0b 0e 3d 5a ae 46 3d 3c c4 d6 3c
       -0.012277744 0.034679145 0.04850612 0.026216619
000270 68 39 11 3c 64 df 62 bd bc 03 23 3d b6 fb 6b 3d
       0.008863784 -0.055388823 0.039798483 0.057613097
000280 04 bd 33 3d b8 ed 7b bc 60 69 f5 bc 24 12 64 bd
       0.04388143 -0.015376501 -0.029957473 -0.055681363
000290 34 36 5a 3d 2c 3f 03 bd 6d 26 e2 bc 00 39 8e bb
       0.05327435 -0.032042667 -0.027606213 -0.004340291
0002a0 de f7 2c 3d 68 14 08 bd b6 6a 1a 3d 28 55 3d bc
       0.042228572 -0.033222586 0.037699424 -0.011555947
0002b0 72 51 76 3d 53 68 82 bd d0 dd dd 3b 58 bb 92 bc
       0.060136266 -0.063675545 0.006770827 -0.017911598
0002c0 40 ba 1a 3c 30 7a 69 bd 40 5f bf bb 8a fd 3c 3d
       0.0094438195 -0.057001293 -0.005840212 0.04614023
0002d0 9a 43 06 bd 9f c5 44 bd e8 07 d5 3c 42 df 70 bd
       -0.032779314 -0.04804003 0.026004747 -0.058806665
0002e0 d2 51 10 bd 30 d8 f5 bb 26 f4 65 bd 4e d0 64 bd
       -0.03523428 -0.007502578 -0.05614104 -0.055862717
0002f0 3a 7d 42 bd ba b0 5d bd aa 8a 78 bd 80 82 74 bc
       -0.047482707 -0.054123618 -0.060679115 -0.014923692
000300 d6 e4 18 3d d4 34 1f ba 62 6d 19 3d ee 7a ab bc
       0.03732761 -0.00060732407 0.03745783 -0.02093264
000310 ea f0 41 3d 0d e1 21 3d d4 c4 06 3d 20 6d eb bc
       0.047348894 0.039521266 0.032902554 -0.028738558
000320 d2 6f 4a 3d 70 bf 28 3c 81 eb 10 bd 00 58 1c 3d
       0.049423046 0.0102995485 -0.035380844 0.03816986
000330 64 1c 9e 3c 48 f4 6c 3d e0 71 1d bc b2 44 27 bd
       0.019300647 0.057850152 -0.009609669 -0.040836997
000340 f6 f4 20 bd 78 37 3e 3c 0c 8b 86 bc 96 a0 38 3d
       -0.039296113 0.0116099045 -0.016423725 0.04507502
000350 04 84 dc bc d8 9f 3b bc e4 df f8 3c f0 7c 02 bc
       -0.026918419 -0.011451684 0.030380197 -0.007964358
000360 c8 44 2f bc 54 b1 b1 3c 10 7a b4 3b 40 b3 6f 3c
       -0.010697551 0.021691002 0.005507715 0.014630139
000370 4a 80 1b 3d f8 e6 08 bc 20 16 59 3d 30 76 67 3d
       0.037964143 -0.0083558485 0.052999616 0.056509197
000380 84 fb ea bc 40 5b 62 bb b4 5c 5d bd 0c e0 64 bd
       -0.028684385 -0.0034539253 -0.054043487 -0.05587773
000390 ea b4 38 3d 41 64 ea 3c 60 88 0c 3b d0 77 8b 3b
       0.045094408 0.028612258 0.002144359 0.004256226
0003a0 48 c4 60 bd 90 65 41 3c 14 9a 3b 3d f4 ab 0a 3d
       -0.05487469 0.011804 0.045801237 0.033855394
0003b0 50 df 18 bc 6e 29 78 3d 40 16 2a 3d 18 82 8f bc
       -0.009330586 0.060586385 0.041525126 -0.017518088
0003c0 52 2f 45 3d 4f ba 3a bd 80 e5 8c bc 68 c6 49 3d
       0.04814083 -0.045587834 -0.017199278 0.04926148
0003d0 ff 56 f1 3c 60 6c de bc 40 c2 d1 3a f4 24 f9 bc
       0.029460428 -0.027151287 0.0016003326 -0.030413128
0003e0 e4 12 51 bd 90 0b 7e 3c 80 cc 73 bc ff a3 91 bc
       -0.051043406 0.015505686 -0.0148803 -0.017778395
0003f0 5c f5 a9 3c 04 43 82 bc e8 99 87 bc b0 09 f0 3b
       0.02074688 -0.015901096 -0.01655288 0.0073253736

net.2.bias f4 [128]
000000 4b 71 a3 bd 0a 6d f0 3e 41 cc 98 3f be 16 1d 3e
       -0.07980593 0.4695819 1.1937333 0.15340707
000010 31 63 97 bf 6e 4c 40 be 35 25 37 3f 72 a8 b8 3d
       -1.1827146 -0.18779156 0.7154115 0.090165034
000020 70 7a 0f 3d c3 91 12 bf 07 07 98 bd 2b f6 da bf
       0.035028875 -0.57253665 -0.07423215 -1.7106375
000030 c4 06 2d 3e 42 42 4b bf 2a 00 86 bd e3 69 80 be
       0.16897112 -0.79397976 -0.06543 -0.25080785
000040 80 01 32 bf 35 44 cf 3f ea c0 29 3d 09 5c ee 3d
       -0.6953354 1.619269 0.041443743 0.11638648
000050 27 3b 86 3c c0 85 37 3f 44 7a 6b 3e 3d 8e 5e be
       0.016385628 0.7168846 0.2299586 -0.21733947
000060 90 89 5d 3a 68 91 1d bd 1e 6a 17 3c 2a e4 57 3d
       0.00084509794 -0.03846875 0.009241609 0.05270783
000070 67 56 22 3c 5a 72 b7 be 1c 6f 5a 3e 0d dd 64 3f
       0.009908295 -0.3582943 0.21331447 0.89399797
000080 5e c8 19 bf b5 1c 86 bd cd 01 d7 3c a3 35 94 3d
       -0.6007136 -0.06548444 0.026245976 0.07236793
000090 e1 45 43 3c 33 76 ea bb 47 25 c5 bd d2 f6 b5 bc
       0.011918516 -0.0071552037 -0.09626251 -0.02221242
0000a0 2b ac f6 be ba 9c ce 3c 10 3d 5d bd 0f db f9 3c
       -0.4817823 0.025221217 -0.054013312 0.030499963
0000b0 ee 69 15 bd a7 83 94 bb 7f 1f b8 bd 2c 2a 22 3f
       -0.036477976 -0.0045322957 -0.089903824 0.633456
0000c0 23 b5 6b bd ae c2 47 3e bd 55 1e bf 41 45 2a bd
       -0.057545792 0.19507858 -0.61849576 -0.041569952
0000d0 32 13 51 bc 0f f9 8d ba 3e 7f e9 3e 14 1a aa bf
       -0.012760924 -0.0010831672 0.4560489 -1.3289208
0000e0 1a d6 b3 3c ef 21 33 3e 2d 13 c4 3e 10 5f 95 bf
       0.021952678 0.17493413 0.3829588 -1.1669636
0000f0 59 8f 31 3d 27 0e 1f bf 66 80 4f be 35 b3 93 39
       0.043349598 -0.6213097 -0.20263824 0.00028171545
000100 50 0d 2d 3f 62 ec 01 bf b5 48 c4 bd a2 8a f1 bd
       0.6759844 -0.50751317 -0.0958418 -0.1179402
000110 22 04 fe 3e 3a 27 19 3f 8a 75 1f be fb c6 ff 3e
       0.49612528 0.5982548 -0.15572181 0.49956498
000120 1f ab fd be 07 ce 4b be fe ff 6f 3e b6 82 97 be
       -0.49544618 -0.19902812 0.23437497 -0.29591912
000130 ac ce 67 bf 1c 5f 39 3d d4 c9 50 3e 43 88 64 bb
       -0.9054973 0.04525672 0.20389491 -0.0034871257
000140 93 28 1a bd 80 b2 37 3d fe 10 1e 3c a5 33 16 3d
       -0.03763635 0.044847965 0.009647606 0.036670346
000150 cd 21 74 3f fe 64 1d 3d f2 54 45 be de 6e 13 bf
       0.95364076 0.03842639 -0.19270685 -0.57591045
000160 7d ae ab bd 12 71 28 3e 25 8f 4a bd 34 f1 e4 3d
       -0.083828904 0.16449383 -0.04945292 0.11178818
000170 84 34 b1 bc 95 39 ae 3c e0 e1 97 3e e6 87 b6 be
       -0.021631487 0.021267692 0.29664516 -0.35650557
000180 b1 e4 8a bd fc 90 08 bd b9 7a 54 3d dd d2 68 bd
       -0.06781901 -0.033341393 0.05187485 -0.05684172
000190 b2 5c 0c 3f bf 95 8a 3e cc 31 9b be 24 81 88 bd
       0.5482894 0.27067372 -0.3031143 -0.066652566
0001a0 cf 3f 17 bf 8e ac 34 3c 8a 10 57 3e 3a 68 96 3c
       -0.5908174 0.011027468 0.21002403 0.018360246
0001b0 26 a9 39 bd d7 f0 dd be 46 3e 08 bd ce cb c2 be
       -0.04532733 -0.4334781 -0.033262514 -0.38046116
0001c0 57 57 47 bd cf 9b 8d be 86 5d 71 be 51 8c 39 bf
       -0.04866728 -0.27657935 -0.23570833 -0.7247973
0001d0 9b f9 c2 bc 9a 68 0b bc f0 8e 87 bf 05 dd 0c bc
       -0.023800662 -0.008508826 -1.0590496 -0.008597617
0001e0 1b 1f 8b bd d6 06 18 bd 45 9a 8c 3e 7d 3d 6b 3e
       -0.06793042 -0.037115894 0.27461448 0.22972675
0001f0 cd 37 83 be 44 36 b3 be 2f c7 ec be 2f 3d 3a 3f
       -0.2562851 -0.3500234 -0.46245715 0.7274961

net.4.weight f4 [64, 128]
000000 ce 43 42 3d 7a 6a 56 3e f4 90 d2 bd 7d 88 40 3e
       0.047427945 0.20939055 -0.10281554 0.18802066
000010 06 76 22 3e 74 0c 1c bf 8c 97 5c 3e 01 6f d7 3d
       0.15865335 -0.609565 0.21542186 0.10519219
000020 d4 af 58 bd 2b ec 00 c0 d0 ee 7b 3d b0 38 be 3e
       -0.052902058 -2.0144145 0.061507046 0.37152624
000030 c7 e5 ee be 51 8f 19 be 93 05 88 3d ff c4 cb 3e
       -0.4665968 -0.14996077 0.06641688 0.39798734
000040 4a 6c 9d 3d cd d0 8f be 00 99 19 3d 45 e0 32 bd
       0.0768667 -0.2808899 0.037499428 -0.04367091
000050 ec 81 22 3d c9 32 da 3e bb 0f b0 bd 42 4a a4 bc
       0.039674684 0.4261687 -0.0859675 -0.02005494
000060 74 e3 aa 3d 49 17 da bb c9 87 a2 bd 72 c0 4e bc
       0.083441645 -0.006655608 -0.07936055 -0.012619125
000070 5c 24 eb 3c 54 cb aa bc c9 3f 63 3e 54 38 8c bf
       0.028703861 -0.020848908 0.22192301 -1.095469
000080 e4 8b 83 3e ff 72 54 3d da a8 37 3b f5 67 1d be
       0.25692666 0.05186748 0.0028024227 -0.15371688
000090 68 b2 9d 3b ab b5 a6 3d 43 fb 81 3c 92 84 21 3d
       0.0048125274 0.08140119 0.015866881 0.03943307
0000a0 ea a7 34 c0 b2 ef d2 bc 4a 6f 2b 3c 01 34 14 3d
       -2.8227487 -0.025749061 0.010463545 0.036182407
0000b0 e6 39 37 3d 4a d7 b2 bd 1b 5a 0d 3e 12 03 60 3f
       0.04473295 -0.087324694 0.13803904 0.87504685
0000c0 1f 25 54 3d 17 a0 4f be 0e 73 c8 3d 45 5f 2f 3d
       0.051793214 -0.20275913 0.0978757 0.042815465
0000d0 ab d7 91 3d b0 dd 96 bc 1f ce da bd ae 51 33 be
       0.071212135 -0.018416256 -0.10683846 -0.17511627
0000e0 3a ce 90 bc a0 14 8b 3e 98 61 08 3f 4e f1 9c bf
       -0.017676461 0.27164173 0.53273916 -1.226114
0000f0 e3 e5 4e bd f3 86 89 3c 85 79 cc 3d 4c fb ae bd
       -0.050512206 0.016787982 0.099841155 -0.08544025
000100 05 cc 2b be 6f bc 06 be 3c b8 a0 3d c8 4a da ba
       -0.16777046 -0.13157819 0.0784764 -0.0016654367
000110 6d 1c 27 bf 71 bf ab 3d 33 7e a6 bd 61 53 53 3d
       -0.6527775 0.08386124 -0.08129539 0.05159319
000120 a7 67 cd 3d be 87 6f be d4 d8 93 3d 51 4f 33 bd
       0.10029536 -0.23391625 0.07219091 -0.043776814
000130 a2 51 3b bf 11 73 79 3c 07 4c 7b bf d1 3a 5f 3d
       -0.73171437 0.015225188 -0.98162884 0.05449945
000140 f7 56 7b bd 45 40 41 ba ee 7e 63 3d 91 c6 b6 3c
       -0.061362233 -0.00073719426 0.05554097 0.02231148
000150 86 37 bc 3d 2c 1b 5b bd 1e 4e f2 be b7 eb 83 bd
       0.09190278 -0.05349271 -0.47325224 -0.064414434
000160 9c f5 b3 b9 80 73 1a bd 05 17 53 3d 89 28 55 bf
       -0.00034324534 -0.037707806 0.051535625 -0.83264977
000170 eb ba 69 3d d9 f3 82 bd ef df 35 3f cc 1a a6 bd
       0.057063024 -0.063941665 0.7104482 -0.0811058
000180 27 2b 48 bf a0 a3 27 3d 62 c7 e7 bc 55 43 41 3d
       -0.78190845 0.04092753 -0.028293315 0.047183353
000190 86 83 4c bf 8b fa 5b 3d 6a 8d 5d 3e 90 95 6b 3d
       -0.7988819 0.053705733 0.21635976 0.05751568
0001a0 6c 0a 71 bf 13 6d 94 bd cf 99 1c bd bd 73 61 bc
       -0.9415653 -0.07247367 -0.03823262 -0.013760504
0001b0 75 a8 b9 3c cf 8a d9 3e 6d 85 2c bd 30 96 26 be
       0.022663334 0.42488715 -0.042119432 -0.1626823
0001c0 b9 7c 34 be 50 7e 10 3e ca 55 4d be 3b fa 96 3e
       -0.17625703 0.14110684 -0.20052257 0.29487786
0001d0 ba 14 63 bd 4f cc 84 3d f2 95 35 be a7 7d 7b 3e
       -0.05543969 0.06484281 -0.17732981 0.24559651
0001e0 8e 34 a6 3c be de 86 3d 82 f4 2d be 9b 07 84 3e
       0.020288732 0.065854535 -0.16987804 0.25787053
0001f0 71 ae 72 bf 34 1e 51 3e 50 5d a4 3d 91 b5 1a 3e
       -0.94797426 0.20421678 0.080256104 0.15108325
000200 cc e1 2b bd bf 36 cf 3d e5 fc b4 3d 3b 87 d7 bd
       -0.041963384 0.10117864 0.08837298 -0.1052384
000210 9f eb 06 bd 91 52 08 be 78 77 c5 bd 9c a3 c4 3d
       -0.03293955 -0.13312747 -0.096419275 0.096015185
000220 43 00 af 3d f7 67 03 3e 74 f3 41 bc f9 bf 86 be
       0.08544972 0.12832628 -0.011837829 -0.2631834
000230 44 17 d2 bc 2c a7 5f 3c ee f3 37 bd e5 12 a8 bc
       -0.02564586 0.013650697 -0.044910364 -0.020516822
000240 c3 a1 70 be 3b d5 90 bc 93 10 bd bc 17 3f ff bc
       -0.23499207 -0.017679801 -0.023079192 -0.031158013
000250 98 23 71 3d 91 52 f2 bd 52 d0 72 3d 20 ad 6b bc
       0.058871835 -0.118321545 0.0592807 -0.014384538
000260 d5 78 c5 3c 96 80 f8 3c 5c 23 2c bc 9b 9e e9 bc
       0.024105469 0.030334752 -0.010506477 -0.028518012
000270 0f be 83 bd 47 44 4f 3e 42 3a 23 3e 72 38 bb bc
       -0.06432735 0.2024089 0.15940192 -0.022854064
000280 70 67 2b bd 69 c2 a1 bd d7 77 31 bd c9 88 69 be
       -0.041846693 -0.07898409 -0.04332718 -0.22806086
000290 67 20 1c bd d3 9c f8 3c 0d 34 19 bd e7 8c 3b bc
       -0.03811684 0.030348217 -0.037403155 -0.011447168
0002a0 68 48 78 3e 5a 85 a5 3c 88 8a b4 3c d0 bc b1 bd
       0.24246371 0.020205189 0.022038713 -0.08678591
0002b0 c0 98 58 bd 9f e2 9d bd f2 01 64 3d 6f 63 c2 3e
       -0.05288005 -0.0770924 0.055665918 0.37966487
0002c0 bb 0e fa bc 72 5b 9f 3c f3 44 c5 3d 30 a6 5c bd
       -0.030524602 0.019452784 0.09632292 -0.053869426
0002d0 5e 10 19 3c d6 34 6b bc a5 24 a5 be e8 59 23 3e
       0.009342281 -0.014355859 -0.3225452 0.15952265
0002e0 1a e4 f5 bc c7 d3 e8 3d cc 8f 23 bd 52 63 8e be
       -0.030015994 0.11368518 -0.039932057 -0.2781015
0002f0 ad b0 61 bc 1f ed 63 bd da fa 05 bd a0 e6 8c bd
       -0.013775033 -0.05564606 -0.032709934 -0.06879926
000300 f7 ed f0 3d 35 ef b1 3d 02 8c ad bd fb 7f df 3c
       0.11764138 0.08688203 -0.0847397 0.027282706
000310 30 0b 99 bd 6f 45 92 be 55 dd 46 3e 6e fe ed 3c
       -0.07472837 -0.285686 0.19420369 0.029051986
000320 c6 0c 54 be 61 94 a7 3d 3b 99 43 3e 69 82 41 3e
       -0.20707998 0.08182598 0.19101422 0.18897404
000330 0f ff 63 3c a2 d0 fe bb b5 98 5c 3e 8e 16 84 bd
       0.013915791 -0.007776336 0.21542628 -0.064496145
000340 04 9e 07 3c 0f 4a a1 3d 55 84 99 bd 11 38 82 bd
       0.00827742 0.07875454 -0.074959435 -0.0635835
000350 7e 48 19 be e1 9e fc 3c 9d ed 1f bd a5 c9 16 bf
       -0.1496906 0.030837478 -0.039044965 -0.58901435
000360 d4 49 69 bd c7 ab b8 be f1 07 a9 bd da 15 0d bf
       -0.056955174 -0.36068556 -0.08253468 -0.5511147
000370 15 48 eb bc 80 3e 16 bc 74 01 1d 3e 63 3b 39 be
       -0.028720895 -0.009170175 0.15332586 -0.1808906
000380 7d 59 70 bd da 69 36 bd f6 d5 53 3d f1 00 f6 3c
       -0.058679093 -0.04453454 0.05171772 0.030029746
000390 1b 39 1a be d2 e1 56 3d 25 44 61 bc fc 5f f9 3b
       -0.15060847 0.052461453 -0.013749157 0.007610319
0003a0 e8 71 a4 3e 3b 06 70 3d 1c f5 0d 3f 93 cc a0 3b
       0.32118154 0.05859969 0.5545213 0.0049071996
0003b0 36 79 01 3d eb fb 2a be 66 45 ae 3b 3f c8 0d 3e
       0.031609736 -0.16697662 0.0053183315 0.13845919
0003c0 1d dc 2e 3c 37 c9 93 3d d8 62 ff 3d 4e 7f 40 3e
       0.010672596 0.07216113 0.12470025 0.18798563
0003d0 50 0e 8f bd d6 ab 7d bd 8e eb 94 bd 60 90 d3 3d
       -0.06985152 -0.061931454 -0.07271491 0.10330272
0003e0 27 f6 83 3d da b9 9a bd 97 91 f6 bc 9c 5d e4 be
       0.06443434 -0.075549796 -0.03009872 -0.44602668
0003f0 ed 64 99 3e ca e9 44 be 48 fd 70 be 81 ad 85 3e
       0.29959813 -0.19229808 -0.23534119 0.26108935

net.4.bias f4 [64]
000000 03 11 5c bf f0 51 93 3e ec 61 10 3f f7 22 f5 3f
       -0.8596346 0.2877345 0.56399417 1.9151295
000010 9c 7a 50 3f e5 1c 9e 3d 21 5d 2a 3f 66 79 de bb
       0.8143709 0.07720355 0.66548353 -0.006789374
000020 ef 10 cc 3c 2b b9 d7 bd 08 94 b9 bf 57 0c 87 3f
       0.024910418 -0.10533365 -1.44983 1.0550641
000030 94 10 08 bc b3 1b 0e bc 9f a3 00 bf 4a 94 53 3e
       -0.008304734 -0.008673596 -0.50249666 0.20662037
000040 ef 9c 90 3e be 28 3f bf 3b 3d 35 bf 96 83 4b bd
       0.2824473 -0.7467154 -0.70796555 -0.049686037
000050 04 26 c1 3e 85 fc cd bd 9d fe a3 be 81 7d 6a be
       0.37724316 -0.1005793 -0.32030192 -0.22899438
000060 99 54 60 bf 04 14 b7 3e 62 7d 8e 3f 97 d7 8f bc
       -0.87629086 0.35757458 1.1132014 -0.017558856
000070 6b a7 45 bf 77 ef f3 bc 82 cc 95 3e 78 9f a0 3e
       -0.77208585 -0.029777272 0.2925759 0.31371665
000080 2f 3a 5f bf 22 f2 c5 bd 97 7b 18 3e 9d c5 d7 bd
       -0.87198156 -0.09665324 0.14890896 -0.105357386
000090 08 a3 fd 3e 56 d4 05 3f a3 91 0a be 1f 81 b1 bd
       0.49538445 0.52277124 -0.13532118 -0.08667206
0000a0 48 1c c8 bd 9c a9 68 bf 57 cb fb be 93 a7 91 bc
       -0.09771019 -0.90883803 -0.49178573 -0.0177801
0000b0 9b a8 d2 3e 2c a2 a0 bd f4 bd 41 3d 96 57 7d 3e
       0.4114426 -0.07843432 0.047300294 0.24740443
0000c0 51 79 5a 3e 48 94 e0 bd bb c2 1a 3f 25 b2 85 be
       0.21335341 -0.109657824 0.60453385 -0.26112476
0000d0 54 83 3c 3e 32 3d dd bc 89 d7 b2 3e ed 9d 18 bd
       0.18409473 -0.02700672 0.34930065 -0.037259985
0000e0 a6 b8 b7 3c 43 2f 3e be 4e 13 a4 bd 6b e3 0c 3f
       0.022426914 -0.18572716 -0.080114946 0.5503451
0000f0 e0 03 91 be f5 06 9a bf e5 d1 fa 3e 5e be 4e 3c
       -0.2832327 -1.2033373 0.48988262 0.012618629

net.6.weight f4 [32, 64]
000000 07 1d ae bd 1a 33 aa bd 85 4e 20 be c0 93 e1 3d
       -0.0850163 -0.08310528 -0.15654953 0.11014509
000010 99 28 a4 be 7d 7f 01 bd 2d ec df be 14 31 fb 3d
       -0.32062224 -0.031615723 -0.43734875 0.1226522
000020 10 a8 5c 3d e0 bb be bb e6 6d a1 3d 94 01 86 bd
       0.053871214 -0.0058207363 0.078822896 -0.0654327
000030 e8 6f 11 bd e6 d8 c2 bc 6d 57 f1 bc 5c 8c a9 3c
       -0.035507113 -0.023785066 -0.029460633 0.020696811
000040 1d 5f 13 3e ef 09 bf b9 8f 0d 30 bb 1c c5 be 3d
       0.14391752 -0.0003643776 -0.002686355 0.093149394
000050 0b cb d2 3d 0e 3b b8 bd 35 f5 f4 bd 9c bd 4b bd
       0.102926336 -0.08995639 -0.11960832 -0.049741372
000060 d7 6a 5a 3d 41 1c 31 be 0f ca ad be 10 64 b8 3d
       0.053324547 -0.17295934 -0.3394322 0.090034604
000070 91 9f 09 be af 9a be 3c e5 3d 60 3d 69 3d e5 bd
       -0.13439776 0.023267118 0.054746527 -0.11193354
000080 84 38 db bd 04 ac 75 bd c6 1b 40 3c 26 68 80 bd
       -0.10704139 -0.0599785 0.011725372 -0.06269865
000090 25 91 4a bd ce 1b 0b bd 8d 0e 6d bd 5e 44 d0 bd
       -0.049454827 -0.033962063 -0.057875205 -0.1016929
0000a0 bc 7f 3a bd 1b 92 ee 3d 82 6e 20 3e 20 90 40 bc
       -0.045531973 0.11648961 0.15667155 -0.011753112
0000b0 67 d0 b1 bd 18 bd 83 3d 50 1f 83 bc 5d 07 bb be
       -0.08682328 0.06432551 -0.016006142 -0.36529055
0000c0 3f a3 d4 be 54 55 ea 3d 78 01 b7 bd 90 e7 b2 3b
       -0.41530797 0.11442056 -0.08935827 0.0054597333
0000d0 72 4d 2b bd 2e 89 94 bd 23 14 55 bc 60 5d 69 3c
       -0.041821904 -0.072527274 -0.013005289 0.014243454
0000e0 b0 99 54 3e 28 3c ae bd fc 9a 25 bd e2 b4 83 3b
       0.20761752 -0.08507568 -0.040431008 0.0040193656
0000f0 1c 7e 8b bd 95 c4 36 bd f6 12 33 bd 08 e5 b3 bc
       -0.06811163 -0.04462107 -0.043719254 -0.021959797
000100 2e e3 b7 bd c6 f5 e5 3d c5 c0 92 3c a1 b2 1e bf
       -0.08978878 0.11228518 0.017914185 -0.61991316
000110 ba 5d 1b 3e 4c 69 3c bd 39 60 0b 3e e1 87 89 3b
       0.15172473 -0.045998856 0.13610925 0.004197106
000120 90 69 e4 3d 22 ba 83 bd 5e 4b 68 3d 94 0a ef 3e
       0.11152947 -0.064319864 0.0567125 0.46687758
000130 39 41 90 bd 29 bb 0d 3d 5b 96 19 bd 05 8d 12 bd
       -0.0704369 0.034602318 -0.037496906 -0.035779018
000140 07 3c 89 3d c3 6e c8 3d 13 94 15 bd 7b 8a b3 bd
       0.067009024 0.09786751 -0.036518168 -0.087666474
000150 83 68 82 bd fa 18 3c bd 4e 7e dc bd e4 53 52 3d
       -0.0636759 -0.045922257 -0.10766278 0.051349536
000160 49 23 9e bd d6 6d 39 bd 9f 1b 01 3e b2 5e ec 3c
       -0.07721574 -0.045270763 0.12608193 0.028853748
000170 15 d1 19 3e 73 a2 ef 3d 90 2e f4 3b 14 45 aa 3d
       0.15021165 0.117009066 0.0074518397 0.08313957
000180 9e ab c4 be 38 3f 94 3d cb 80 e1 bc d8 77 ab 3d
       -0.38412184 0.072386205 -0.027527234 0.08372468
000190 2c 43 68 3e f8 92 c0 3d 8a fd ac be cd 36 24 bd
       0.22681874 0.09403032 -0.33787185 -0.040091325
0001a0 47 cd c6 bd d7 6b e3 3c 19 39 a9 bd 8a 71 5c 3d
       -0.09707122 0.027761383 -0.08262844 0.053819217
0001b0 8a a2 a4 bd 65 31 a1 bd d6 73 72 3d bd 41 c6 bd
       -0.08038814 -0.078707494 0.0591925 -0.09680507
0001c0 bd d0 5e 3e e4 0d de bc 1f b6 d2 bd 5b 18 93 3c
       0.21759315 -0.027106233 -0.10288643 0.01795595
0001d0 eb 80 89 3c 30 79 ec bc 6c fe 78 bd cb 73 c1 3d
       0.016785106 -0.02886638 -0.06078951 0.09445914
0001e0 36 d1 49 be d6 eb 46 be 3c 50 ae 3d ca 03 a4 bb
       -0.19708714 -0.19425902 0.08511397 -0.0050053345
0001f0 55 2c 1b bd 2e 52 e4 bd ee 28 90 bb aa 65 2e 3d
       -0.037884075 -0.11148487 -0.0043994104 0.042577423
000200 c9 3f 29 be cb 01 b4 bd 70 5f 6a bd 57 37 ad 3c
       -0.16528238 -0.087894045 -0.057219923 0.021144552
000210 27 a5 d0 bd 9a cc eb 3c 86 5e 22 be 3e 06 88 bc
       -0.1018775 0.028784085 -0.1585637 -0.016604539
000220 11 e2 97 bd 06 e4 a2 bd 3e 31 f3 bd fc 21 c4 be
       -0.074161656 -0.07953648 -0.118746266 -0.38307178
000230 7c 40 b1 3d ca 36 0d be 35 aa a8 bd e9 6a 8f 3d
       0.086548775 -0.13790432 -0.082355894 0.07002813
000240 d3 37 f8 bd 56 00 61 bf 92 9e e2 3d e4 e0 f0 bd
       -0.121200226 -0.8789114 0.11065401 -0.117616445
000250 b7 75 70 bd 52 98 cb bd cf b9 02 3e 43 46 2b 3c
       -0.05870601 -0.09941162 0.12766193 0.010453763
000260 60 4d b6 3e 69 e2 66 bd 09 f7 ba bd 0b b1 7d 3e
       0.35605907 -0.056368265 -0.091291495 0.24774568
000270 e8 73 a1 3e 28 f0 8c bd 3e 39 0a c0 97 ac 7f bd
       0.31533742 -0.06881744 -2.1597438 -0.062420454
000280 59 61 dc 3e e5 fb 82 bd b9 64 13 bd 94 1e 05 3d
       0.4304302 -0.06395701 -0.03598473 0.032499865
000290 8e 03 ee 3c 9d f8 44 3c 5f 9c a7 3d e0 91 d5 3c
       0.02905443 0.012022165 0.08184122 0.026070535
0002a0 1f a1 93 3d 44 53 6b 3d 52 98 53 be 20 fa a2 bb
       0.07208466 0.057452455 -0.20663574 -0.004973665
0002b0 db 2a de bf 3f 73 14 3d 92 fb 58 bc 8d f9 94 bd
       -1.7356828 0.03624272 -0.013243573 -0.072741605
0002c0 95 ce 3e be 88 89 2f bc cf ef 79 3e bd 6c 30 3c
       -0.18633492 -0.010713942 0.24407886 0.010768113
0002d0 0c b6 1b 3d 40 3c 6e 3c 9c f8 79 bd 0d 9b 02 be
       0.03801541 0.014540732 -0.061028108 -0.1275446
0002e0 07 c4 8b be bb e7 b6 bd 48 f6 a5 3c c5 7d bd bd
       -0.27297994 -0.08930918 0.020259038 -0.09252504
0002f0 81 0a 6d 3d 5f 00 86 3d 0e e6 8a 3d 16 29 c6 bd
       0.057871345 0.065430395 0.06782161 -0.09675805
000300 9b fe 5c 3e 27 92 b1 bd 5a 16 02 3e d5 e0 85 3e
       0.215815 -0.086704545 0.12703839 0.26148096
000310 ea 66 26 3e f1 ce 83 bd 53 2a a5 3d 94 17 71 bd
       0.16250196 -0.06435955 0.08064713 -0.058860376
000320 6d 4c a3 bc e9 37 c4 3d 29 c9 d3 be 1a 93 cb 3d
       -0.019933904 0.095809765 -0.4136441 0.09940167
000330 0d c4 8b 3c 17 f9 87 bd 12 77 3d bd db 47 b6 bd
       0.017061258 -0.06639307 -0.046256132 -0.08900424
000340 99 d5 13 3e 56 5d d4 bd cb 22 09 be a4 83 cf ba
       0.1443695 -0.10369365 -0.13392179 -0.0015832079
000350 fd 6a 45 3d 00 77 1f 3d 61 7b 08 be 7c 8f e8 3c
       0.048197735 0.038931847 -0.13328315 0.028388731
000360 35 e4 c5 3d 41 46 bd bb 9d 1b b8 3d 4a a5 fb bd
       0.09662668 -0.005776197 0.08989642 -0.12287386
000370 45 3e b0 bc 8f 45 4f 3d b4 5b af bd 07 9c 21 3e
       -0.021514067 0.050603446 -0.08562413 0.15782176
000380 00 b7 7e be ee 8f ab 3c 84 96 65 bc f6 b3 c8 3d
       -0.24874496 0.020942654 -0.0140129365 0.0979995
000390 31 ea 1f bd 88 08 55 bd 96 11 30 3e ea dc 7d bd
       -0.0390417 -0.05201009 0.17194209 -0.06197826
0003a0 b0 26 dd 3d bf dc 3b bd 8f 99 65 3c 8f e4 fa bc
       0.10798395 -0.045864817 0.014013662 -0.030626563
0003b0 af 44 c1 bd c5 c7 c7 bd 51 aa 53 3d 69 6c f6 3d
       -0.094369285 -0.097549 0.0516761 0.12032396
0003c0 2c 7b 93 3e cd 11 eb bd 39 83 92 3d cb 66 29 3d
       0.2880491 -0.114780046 0.07153935 0.041357797
0003d0 2b 15 bc bc 13 35 6b 3d fd 84 05 3e 06 54 d4 3c
       -0.022959312 0.057423662 0.13039012 0.025918972
0003e0 4c 3c 8d 3d 58 a3 1a 3e d8 15 14 3c f5 d2 6f 3c
       0.06896266 0.15101373 0.009038411 0.014637698
0003f0 a8 cb fc 3c 6c d7 9d bd df ec 96 bd 4e b4 e8 3c
       0.03085883 -0.07707104 -0.07369398 0.028406288

net.6.bias f4 [32]
000000 1e 9c 61 bd f1 80 4c 3e ee 56 6c 3f 04 b6 38 3f
       -0.055080526 0.19971062 0.92320144 0.72152734
000010 eb fa 39 3e b6 90 4b 3f 59 ec e4 3e 7d c4 a1 be
       0.18162124 0.79517686 0.4471157 -0.3159522
000020 61 a9 bc 3e 34 44 88 3e 06 5e a8 3e a9 82 8f bd
       0.36847976 0.26614535 0.32884234 -0.07007343
000030 dc e4 7a 3e 7b 87 ad be e9 20 16 3f 96 2e d7 3e
       0.24501365 -0.33892426 0.58643967 0.4202773
000040 a7 35 be be 1e fc 28 be 64 60 24 bf fd 3a 82 be
       -0.37150308 -0.16502425 -0.6420958 -0.2543563
000050 38 42 43 bf 85 0d e2 be c9 b8 93 3e ce 53 07 3f
       -0.76272917 -0.4415094 0.28851917 0.5286225
000060 e4 a9 87 3e e6 87 02 3f 95 86 07 3f 64 86 51 3e
       0.26496804 0.50988615 0.5293973 0.20461422
000070 3f d0 79 3e 40 0f 12 3f 75 37 e9 3e 0d fe 73 be
       0.24395846 0.5705452 0.45550123 -0.23827381

net.8.weight f4 [1, 32]
000000 53 45 84 bd e0 21 12 3d 58 4b 9a 3d f4 bd 6d 3d
       -0.06458535 0.035676837 0.07533902 0.05804248
000010 5f d2 ec 3d b8 72 61 bd 26 cc 58 3d 02 c9 7b bc
       0.115635626 -0.055041045 0.052929066 -0.015367748
000020 e2 99 66 bd 8f a7 31 bd ae a2 24 bd d4 c6 98 3c
       -0.056299098 -0.043372687 -0.040194206 0.018649496
000030 77 ee c2 3c bc 14 1d 3d f3 88 45 3d 37 5a 03 3d
       0.02379535 0.038349852 0.048226308 0.032068457
000040 d1 ae d2 bd 14 40 d7 3d 5b c0 83 3d ea c5 63 bc
       -0.1028725 0.10510269 0.06433173 -0.013902167
000050 ae 0a 9d bd 03 f9 93 bd c1 ea 96 3d 87 e0 d0 bc
       -0.076680526 -0.072252296 0.073689945 -0.025497688
000060 60 e6 f2 bc 5f d9 3c bd 62 d7 21 bd 23 c7 92 bd
       -0.029650867 -0.04610574 -0.039512046 -0.071668886
000070 a7 fa d0 bc 24 4c 9f bd 13 89 8e bd d8 de bd 3c
       -0.025510145 -0.077781945 -0.069597386 0.02317755
