prediction_model/ANN.onnx (onnx, 484416 bytes, 9 tensors)

net.0.bias f4 [256]
0.10075859 0.05454816 0.029959379 0.051484797 -0.19577901 0.0035926166 -0.13706015 -0.018257206
-0.21404904 -0.13481782 0.18045062 -0.19608241 0.2212455 -0.182889 0.09213742 0.1567934
0.11942526 -0.18836598 0.19031198 0.008981475 0.086501226 -0.07435858 -0.038551036 -0.0065597766
-0.018399682 0.20625962 0.15712248 0.09013921 0.001671385 0.0099372 -0.18226992 -0.1037053
0.10056061 -0.15714337 0.039082345 -0.10559505 -0.019025031 -0.0073034796 0.14811166 -0.04981312
-0.047080826 -0.17257707 -0.0716844 -0.19206162 0.13213031 0.12333364 -0.012524539 -0.043186598
-0.04519622 -0.076092266 0.21935031 0.09487609 0.15635875 -0.00036867923 0.08565217 0.19543259
0.11493156 0.22278558 0.13148704 0.039730273 0.191371 -0.13408835 0.13318679 -0.20538272
-0.20475103 0.009722299 -0.09468683 0.048277654 0.019420767 0.19905995 0.19525146 -0.049124517
0.023061099 0.1561469 -0.12538858 -0.19377387 0.010649901 -0.059092477 -0.1524282 0.111136116
0.15266511 -0.09463114 -0.20549457 0.21305536 0.09786052 0.035121847 -0.12774464 0.1940553
-0.050989475 0.016802933 -0.10065511 0.08751252 0.16081047 -0.021726964 0.1271798 0.13863936
0.10699079 0.2199405 0.20591731 0.0980831 -0.04319513 -0.10007462 -0.094180495 -0.18094765
-0.032283302 0.14043653 0.13323413 0.10081232 0.11435518 0.21221815 0.031294685 0.006740558
0.1604661 -0.15477358 -0.0095752375 0.08590133 -0.07151436 -0.15106839 0.08946796 0.17494306
0.06425721 -0.14355227 -0.16706224 0.15209897 0.18994367 0.14082384 -0.1273463 -0.10312215
0.051179428 -0.18389736 0.0005189658 -0.029234923 0.04960086 -0.22209135 0.16446112 -0.10995811
-0.20538712 -0.03480819 0.048026606 -0.030626366 -0.10490285 -0.1634244 0.0195557 0.20922132
0.1558713 -0.084280886 -0.06169077 -0.15064313 -0.01713139 -0.08412665 -0.107597455 0.0129047325
-0.13048281 0.2207848 0.20978285 -0.006646249 -0.169669 -0.08776869 0.18164253 -0.21451472
0.10959284 -0.108512685 0.17694364 -0.07217703 -0.07004218 -0.084194735 0.17121506 -0.0071061715
0.069287464 0.09504173 0.17657441 -0.0050745574 -0.17218147 0.02389815 -0.19173144 -0.10783237
-0.010876504 0.10096232 0.07446254 -0.008894524 0.16441856 -0.038411893 -0.19078301 0.17873429
0.12531042 -0.10534046 0.07849472 -0.17228404 -0.18629974 -0.09929168 0.021446465 -0.04031015
0.19862871 -0.020591605 0.18733627 -0.037005283 0.17137797 0.08895099 0.06441848 0.14312111
0.16469222 0.11216744 -0.15814473 -0.13508683 -0.085207604 0.13109179 0.07944693 0.0730969
0.14446695 0.20855865 -0.04057375 -0.03931036 -0.15058447 0.18070108 0.148791 0.13678439
0.17636245 0.11450853 0.15126714 -0.03910783 0.14620458 0.19456267 -0.21643572 -0.21016294
0.14713772 -0.024549836 -0.026305826 0.18920082 -0.034019116 -0.17405987 -0.036627088 -0.0315187
-0.13201982 0.06928344 -0.10029096 -0.11844709 0.115589 -0.059907857 -0.071597874 0.21445158
-0.020952368 0.11613558 -0.0906783 0.058120944 0.163749 0.104581855 0.18931118 0.06903786
0.083527185 -0.1553288 -0.21132901 0.0009571639 0.10956416 0.21578808 0.17805229 -0.12094134
00000000: 855a ce3d e46d 5f3d 5f6d f53c b9e1 523d
00000010: 4b7a 48be 1b72 6b3b 7f59 0cbe 2390 95bc
00000020: ac2f 5bbe af0d 0abe 0cc8 383e d4c9 48be
00000030: 2e8e 623e 4147 3bbe 8bb2 bc3d 738e 203e
00000040: 3b95 f43d 03e3 40be 25e1 423e 0927 133c
00000050: 8e27 b13d 5049 98bd b1e7 1dbd 65f3 d6bb
00000060: eeba 96bc b935 533e b7e4 203e e89a b83d
00000070: 6012 db3a a3cf 223c f7a4 3abe 7263 d4bd
00000080: b9f2 cd3d 31ea 20be cf14 203d 3842 d8bd
00000090: 62da 9bbc 0752 efbb 95aa 173e d808 4cbd
000000a0: d3d7 40bd 0bb8 30be 45cf 92bd cdab 44be
000000b0: 2b4d 073e 5996 fc3d b933 4dbc 6ee4 30bd
000000c0: ac1f 39bd 43d6 9bbd 5e9d 603e 654e c23d
000000d0: 821c 203e 4a4b c1b9 686a af3d 7b1f 483e
000000e0: 3d61 eb3d e721 643e 8aa4 063e 36bc 223d
000000f0: c2f6 433e 754e 09be 1e62 083e d94f 52be
00000100: 41aa 51be 474a 1f3c 2beb c1bd cabe 453d
00000110: 4d18 9f3c 5fd6 4b3e 00f0 473e ca36 49bd
00000120: a1ea bc3c f9e4 1f3e dd65 00be a86c 46be
00000130: ec7c 2e3c f40a 72bd 2316 1cbe 559b e33d
00000140: 3e54 1c3e f9cd c1bd 2b6d 52be 2f2b 5a3e
00000150: 196b c83d eddb 0f3d 7ecf 02be 6fb6 463e
00000160: 57da 50bd 4ea6 893c 4424 cebd c439 b33d
00000170: 80ab 243e bffc b1bc 6c3b 023e 7af7 0d3e
00000180: fd1d db3d 1538 613e fddb 523e cbdf c83d
00000190: 60ed 30bd ecf3 ccbd b4e1 c0bd 574a 39be
000001a0: 7f3b 04bd 98ce 0f3e 876e 083e b176 ce3d
000001b0: 0c33 ea3d b74f 593e db2e 003d e6df dc3b
000001c0: 3a51 243e f77c 1ebe 75e1 1cbc 09ed af3d
000001d0: 1f76 92bd acb1 1abe fa3a b73d 4624 333e
000001e0: 4999 833d 5eff 12be 5d12 2bbe d5bf 1b3e
000001f0: 9880 423e 2034 103e 1267 02be b531 d3bd
00000200: 85a1 513d 974f 3cbe 350b 083a 147e efbc
00000210: 452a 4b3d ea6b 63be 7f68 283e b831 e1bd
00000220: 0051 52be 0893 0ebd 8cb7 443d 25e4 fabc
00000230: 4ed7 d6bd ba58 27be 4633 a03c 1d3e 563e
00000240: ba9c 1f3e 759b acbd 76af 7cbd 3142 1abe
00000250: 2157 8cbc 984a acbd 0e5c dcbd 5f6e 533c
00000260: 499d 05be 6915 623e 51d1 563e c7c8 d9bb
00000270: b6bd 2dbe 12c0 b3bd 8000 3a3e bfa9 5bbe
00000280: 3672 e03d e63b debd b730 353e 8dd1 93bd
00000290: 4672 8fbd 4a6e acbd 0053 2f3e e3da e8bb
000002a0: 96e6 8d3d 3da5 c23d eccf 343e 7948 a6bb
000002b0: 5750 30be 0ec6 c33c 3f55 44be 38d7 dcbd
000002c0: 5d33 32bc 55c5 ce3d d17f 983d 56ba 11bc
000002d0: 575d 283e ca55 1dbd 9f5c 43be 1f06 373e
000002e0: 6051 003e bdbc d7bd d7c1 a03d 3a6b 30be
000002f0: 5cc5 3ebe 7059 cbbd 7fb0 af3c 411c 25bd
00000300: 5365 4b3e baaf a8bc 14d5 3f3e da92 17bd
00000310: b57d 2f3e f02b b63d d6ed 833d 578e 123e
00000320: 14a5 283e 0bb8 e53d b1f0 21be 3454 0abe
00000330: 5381 aebd ed3c 063e 12b5 a23d d4b3 953d
00000340: 25ef 133e 6690 553e a930 26bd e603 21bd
00000350: d132 1abe b409 393e ab5c 183e 3511 0c3e
00000360: 5c98 343e 7383 ea3d c6e5 1a3e 882f 20bd
00000370: a7b6 153e 703b 473e 53a1 5dbe f434 57be
00000380: 45ab 163e bd1c c9bc 517f d7bc dcbd 413e
00000390: a157 0bbd c03c 32be 4906 16bd c119 01bd
000003a0: 3430 07be 7ae4 8d3d 5965 cdbd 6394 f2bd
000003b0: edb9 ec3d f161 75bd e8a1 92bd 3299 5b3e
000003c0: 4da4 abbc 7ed8 ed3d 8bb5 b9bd 3a10 6e3d
000003d0: d1ad 273e 032f d63d cada 413e b963 8d3d
000003e0: 4d10 ab3d 830e 1fbe a266 58be 2fea 7a3a
000003f0: 2d63 e03d 8df7 5c3e 5753 363e 18b0 f7bd

net.2.bias f4 [256]
-0.024071105 0.0011056513 0.053229474 -0.056772277 -0.04134067 -0.016120061 -0.04597924 -0.050986744
0.012162179 0.049211457 0.061518624 0.054331332 -0.02244892 0.039936848 -0.008290827 0.058805585
0.03120397 -0.04035525 -0.025650553 0.020547882 0.015292443 -0.06010092 0.016583107 0.05154459
0.018914983 0.02174209 0.007095933 0.052252732 -0.0013061166 -0.020627327 -0.034340844 -0.034835823
-0.031994626 0.00038838387 -0.03235299 0.022252455 -0.020499118 -0.039063968 0.025664955 0.00034385175
-0.05061174 -0.03523296 -0.0143578425 -0.009852484 0.03282106 0.031703398 0.01992803 0.045560263
-0.0033396184 -0.029701218 -0.032642096 0.02259358 -0.031193644 0.0349724 -0.038855277 -0.00607235
0.03339205 0.002781935 -0.039959647 0.028023183 0.0077279657 0.021758407 -0.054373406 0.041046605
0.019495822 -0.017040998 0.013905384 -0.040843174 -0.028383821 -0.04408565 -0.013494864 0.02661167
0.014536083 0.028911911 0.009768486 0.033802755 0.0031069666 -0.03375765 -0.05087599 -0.049120985
-0.022225082 0.011619702 -0.0051933676 0.031070799 -0.017127492 -0.031590648 -0.022232465 0.050829537
0.025144644 0.017348804 -0.03222447 0.03141284 0.016254276 0.016827568 0.024396569 -0.0191032
0.056007415 -0.044143476 0.03586384 -0.01306475 -0.015130214 -0.027463846 -0.058591746 0.060594343
-0.0025992393 0.012933329 0.024486557 -0.045937285 0.037449703 -0.026708595 -0.049432725 0.0056747943
-0.062438533 -0.045148253 0.05112917 0.018693313 -0.055887602 -0.023413777 -0.025187358 0.056774482
-0.023274817 0.05865161 -0.027923927 -0.049021095 -0.009751812 0.018009052 0.0106726885 0.038745068
-0.038999222 -0.01311361 -0.05292386 -0.054653354 -0.029353797 -0.043112367 0.028134637 -0.012558103
0.005766444 -0.055130392 0.039214976 -0.018540286 0.034448504 0.05052425 0.031770125 0.058360256
0.022828698 -0.01386404 0.04746236 0.02941648 0.06056399 -0.05128271 -0.026670933 0.05994965
-0.055941097 0.0071320385 -0.00017627329 0.029081985 -0.0069765598 -0.018161371 0.00786522 -0.004319392
-0.016512662 0.020903952 -0.019251138 -0.005408384 -0.053258367 0.011545911 0.04525111 0.021308407
-0.0074259415 0.0049504563 0.0059201345 -0.015479222 -0.04771872 -0.056167006 0.03741099 0.059019968
-0.0005449727 -0.009198584 0.055824436 0.034778073 0.0016064942 -0.045478903 0.0488284 0.0017043054
0.062098674 0.012247331 0.03142503 0.01298289 0.017960533 0.017205216 0.014399692 0.043018147
-0.044930562 -0.03638044 0.0073418915 0.049666114 0.0144355595 -0.019562833 0.058485113 -0.032200806
0.02312062 0.057449147 0.016200535 -0.022061057 -0.05550985 -0.051816836 0.01708769 -0.04993672
-0.049010262 -0.042372234 0.041551925 -0.014678314 -0.041564643 -0.0078005344 0.03706018 0.053980805
0.056414083 -0.03783173 0.030828744 -0.03138482 0.05344195 0.024096973 0.009646714 0.0106867105
-0.020161197 0.049537137 0.010638028 -0.002727121 -0.0015820488 -0.038538 -0.010137834 0.02688653
0.035614677 0.02721402 0.04609082 -0.001449652 0.05092214 -0.009068139 -0.046772197 0.016506657
-0.05680591 0.011446111 0.0045995936 0.007320471 -0.032613575 -0.00066173077 0.005231887 -0.06153234
0.031953394 0.05347716 -0.008027323 0.012743533 0.044344455 0.062388152 -0.0030855462 -0.051803358
00000000: c430 c5bc 80eb 903a 2607 5a3d 0c8a 68bd
00000010: d654 29bd 380e 84bc ba54 3cbd 7ad7 50bd
00000020: e043 473c f491 493d f4fa 7b3d 888a 5e3d
00000030: cce6 b7bc d294 233d 40d6 07bc 20de 703d
00000040: 789f ff3c 8c4b 25bd 1c21 d2bc 0854 a83c
00000050: 288d 7a3c 622c 76bd 4cd9 873c 6c20 533d
00000060: 98f3 9a3c 781c b23c 0085 e83b f606 563d
00000070: 0032 abba a4fa a8bc fca8 0cbd 02b0 0ebd
00000080: cc0c 03bd 00a0 cb39 9284 04bd c84a b63c
00000090: c4ed a7bc 8a01 20bd 503f d23c 0047 b439
000000a0: 424e 4fbd 7050 10bd 283d 6bbc 506c 21bc
000000b0: 606f 063d 6cdb 013d 1c40 a33c 669d 3a3d
000000c0: 80dd 5abb f84f f3bc b8b3 05bd 2c16 b93c
000000d0: d089 ffbc 383f 0f3d b626 1fbd 90fa c6bb
000000e0: 1ac6 083d 2051 363b baac 23bd e090 e53c
000000f0: e03a fd3b b03e b23c a6b6 5ebd 7c20 283d
00000100: b4b5 9f3c 9099 8bbc 68d3 633c 2c4b 27bd
00000110: 3085 e8bc 2893 34bd 9019 5dbc b800 da3c
00000120: c028 6e3c acd8 ec3c 000c 203c c274 0a3d
00000130: 409e 4b3b 7645 0abd 5863 50bd 1633 49bd
00000140: 6011 b6bc 9060 3e3c 202d aabb 3088 fe3c
00000150: f44e 8cbc 3265 01bd dc20 b6bc a232 503d
00000160: 24fc cd3c 141f 8e3c cefd 03bd c0aa 003d
00000170: b027 853c f8d9 893c 50db c73c 507e 9cbc
00000180: 0868 653d cacf 34bd f6e5 123d 880d 56bc
00000190: b8e4 77bc dcfb e0bc e6fd 6fbd c631 783d
000001a0: 0058 2abb 50e6 533c 0898 c83c bc28 3cbd
000001b0: dc64 193d fccb dabc f879 4abd a0f3 b93b
000001c0: 8cbf 7fbd 60ed 38bd d26c 513d b822 993c
000001d0: 66ea 64bd 40ce bfbc b855 cebc 5c8c 683d
000001e0: d4aa bebc ac3c 703d b8c0 e4bc 58ca 48bd
000001f0: 10c6 1fbc b887 933c 80dc 2e3c 26b3 1e3d
00000200: a6bd 1fbd 78da 56bc b0c6 58bd 32dc 5fbd
00000210: 6077 f0bc 9896 30bd 9c7a e63c 80c0 4dbc
00000220: 70f4 bc3b 68d0 61bd e29f 203d cce1 97bc
00000230: e019 0d3d 84f2 4e3d 6421 023d 2a0b 6f3d
00000240: 4003 bb3c 0026 63bc e467 423d d4fa f03c
00000250: f211 783d d20d 52bd 007d dabc c48d 753d
00000260: 7e22 65bd e0b3 e93b 00d6 38b9 583d ee3c
00000270: a09b e4bb 28c7 94bc 20dd 003c b089 8dbb
00000280: 9045 87bc c43e ab3c 90b4 9dbc d038 b1bb
00000290: 7225 5abd 102b 3d3c 3a59 393d f88e ae3c
000002a0: 5055 f3bb 7037 a23b b0fd c13b 909c 7dbc
000002b0: b474 43bd 600f 66bd 443c 193d ecbe 713d
000002c0: 80dc 0eba a8b5 16bc 2aa8 643d 7473 0e3d
000002d0: 0091 d23a 1648 3abd 4a00 483d 0063 df3a
000002e0: 2e5b 7e3d 08a9 483c 88b7 003d 30b6 543c
000002f0: f821 933c f4f1 8c3c b0ec 6b3c cc33 303d
00000300: 1c09 38bd a803 15bd 4094 f03b b26e 4b3d
00000310: 2083 6c3c 3c42 a0bc 168e 6f3d fee4 03bd
00000320: 7467 bd3c cc4f 6b3d fcb6 843c 64b9 b4bc
00000330: 4c5e 63bd e43d 54bd 7cfb 8b3c 728a 4cbd
00000340: fcbe 48bd 828e 2dbd 5a32 2a3d 507d 70bc
00000350: b03f 2abd a09b ffbb 6acc 173d fa1a 5d3d
00000360: 7412 673d 72f5 1abd 908c fc3c 5e8d 00bd
00000370: f2e5 5a3d 0467 c53c 400d 1e3c 5017 2f3c
00000380: 1829 a5bc 74e7 4a3d 204b 2e3c 80b9 32bb
00000390: c05c cfba 06da 1dbd 2819 26bc 2441 dc3c
000003a0: b2e0 113d f0ef de3c bac9 3c3d 4002 beba
000003b0: bc93 503d 8892 14bc 3494 3fbd f838 873c
000003c0: 50ad 68bd 7888 3b3c 30b8 963b 90e0 ef3b
000003d0: d095 05bd 0078 2dba 4070 ab3b 5609 7cbd
000003e0: 90e1 023d de0a 5b3d 0885 03bc 40ca 503c
000003f0: 88a2 353d b88a 7f3d e036 4abb c22f 54bd

net.4.bias f4 [128]
-0.057731107 0.0053900033 0.04281272 -0.05623129 0.061347447 -0.027725704 0.026750728 -0.046285473
0.0044725165 0.00032912195 -0.05060987 -0.01725161 -0.018372662 0.010034613 0.039662614 -0.05237186
0.024905957 0.040311456 0.060621932 -0.020241238 -0.040921085 -0.058915854 -0.0056102127 0.05208081
0.050343156 0.043942295 0.011956602 -0.021369293 -0.06120617 0.015921406 -0.024451315 -0.05916614
0.050159387 0.048516795 0.056040257 -0.034551717 -0.04028625 0.037793137 -0.024310976 -0.04591375
0.05683534 -0.017557375 0.014855988 -0.043250494 0.003983915 0.04265465 -0.013788566 0.04240869
-0.015907325 -0.009625159 0.0347903 -0.004889816 0.003689438 0.04438351 0.01790642 0.04946185
-0.020968862 0.01088199 0.061782554 -0.053289145 0.0055631325 0.011903673 0.019284531 0.047071755
0.044281006 -0.014735162 0.05688776 -0.030513719 -0.053342782 0.006660603 -0.031382963 -0.04104691
-0.0301546 0.046893276 -0.02521263 0.01666364 -0.057081103 -0.019456744 0.02168195 -0.030668646
-0.048990376 0.011813134 -0.0009349957 -0.044168532 0.016190007 -0.024781458 -0.01811459 -0.009449296
0.05535169 -0.054640986 0.05368518 -0.0504802 0.02917087 -0.026087753 0.02914472 -0.0084163025
-0.0048907846 0.051689558 0.023138657 0.043476127 -0.024908833 -0.011241719 0.038599446 0.04488831
-0.05266612 0.05482205 -0.03096456 -0.032283396 0.05607289 0.05873481 -0.027835429 0.0043546855
0.059746042 -0.041493304 -0.0023269728 0.014876574 -0.053617954 0.048524708 0.04856047 -0.0110154
0.021753363 0.041149385 0.041823164 0.04875791 -0.026693098 0.024457328 0.015334487 -0.05451595
00000000: 7477 6cbd a09e b03b 645c 2f3d c852 66bd
00000010: 7647 7b3d 0421 e3bc 5824 db3c d695 3dbd
00000020: 308e 923b 008e ac39 4c4c 4fbd 4053 8dbc
00000030: 4482 96bc 3868 243c 4475 223d e083 56bd
00000040: 9407 cc3c a01d 253d b44e 783d f4d0 a5bc
00000050: de9c 27bd c051 71bd e0d5 b7bb b052 553d
00000060: a034 4e3d d6fc 333d a0e5 433c a80e afbc
00000070: 52b3 7abd 9c6d 823c 204e c8bc 3258 72bd
00000080: ee73 4d3d 8cb9 463d 788a 653d 1a86 0dbd
00000090: 3203 25bd facc 1a3d d027 c7bc 0e10 3cbd
000000a0: 2ccc 683d 7cd4 8fbc 8866 733c 6e27 31bd
000000b0: 808b 823b a4b6 2e3d 70e9 61bc bcb4 2d3d
000000c0: 1450 82bc d8b2 1dbc 4680 0e3d c03a a0bb
000000d0: 80ca 713b 7ccb 353d 7cb0 923c 8298 4a3d
000000e0: e4c6 abbc 604a 323c b40f 7d3d b845 5abd
000000f0: f04a b63b a007 433c 98fa 9d3c 50ce 403d
00000100: 0060 353d c06b 71bc 2403 693d e8f7 f9bc
00000110: f67d 5abd 3041 da3b 6c8b 00bd ce20 28bd
00000120: c806 f7bc 2a13 403d b88a cebc 3082 883c
00000130: e0cd 69bd c063 9fbc 589e b13c d03c fbbc
00000140: 22aa 48bd e08b 413c 801a 75ba 10ea 34bd
00000150: e8a0 843c 7c02 cbbc 0c65 94bc 38d1 1abc
00000160: 74b8 623d 3acf 5fbd fee4 5b3d 54c4 4ebd
00000170: c0f7 ee3c fcb5 d5bc e8c0 ee3c 88e4 09bc
00000180: e042 a0bb 6eb8 533d 488d bd3c 0614 323d
00000190: 9c0d ccbc 302f 38bc 741a 1e3d cedc 373d
000001a0: 6eb8 57bd 168d 603d 64a9 fdbc 983b 04bd
000001b0: b0ac 653d ea93 703d 2007 e4bc c0b1 8e3b
000001c0: 44b8 743d e2f4 29bd 2080 18bb e0bc 733c
000001d0: 809e 5bbd d8c1 463d 58e7 463d f079 34bc
000001e0: 1c34 b23c 428c 283d c44e 2b3d 60b6 473d
000001f0: 7cab dabc bc5a c83c 803d 7b3c 1e4c 5fbd

net.6.bias f4 [128]
-0.06614222 -0.004720942 0.06781018 0.03523546 0.03330347 0.0083699 0.037369933 -0.01853337
-0.010044532 -0.03396092 0.052421723 0.05909335 -0.023444869 -0.083911456 0.04472636 0.0052008685
0.08807871 -0.06322004 -0.016566882 0.07485868 0.02021681 -0.081035115 0.061952274 0.03253727
-0.080433406 -0.058358844 0.043156274 -0.05161324 -0.070286445 -0.08144505 0.075745925 -0.015127557
0.03423578 0.017387588 0.022034783 0.02815694 -0.08587722 0.025034131 -0.022073526 0.06801592
0.078474015 0.06538079 -0.050748777 0.009103741 0.0046919663 0.030896768 0.036914326 -0.0049857297
0.03303986 0.011436083 -0.031430855 -0.06538299 0.064354256 -0.06176527 0.0075941454 -0.01947258
0.024868041 -0.069984116 -0.057235 0.015211029 -0.059563063 -0.06833007 -0.0013899925 -0.030010885
0.013629332 -0.057412993 -0.018874928 -0.007423303 -0.054664355 -0.07807245 0.00116084 0.032246206
-0.0350154 -0.034169853 -0.011916526 -0.086958885 0.073550224 -0.007352191 0.012852755 -0.014464398
0.008213051 -0.042468533 -0.06155721 -0.0620327 0.046679195 -0.037930857 -0.07993114 -0.067866415
0.06502148 0.051836956 -0.079935245 0.007306114 0.08107417 -0.073739134 0.01762164 -0.02485288
0.07649793 -0.033965882 -0.0031060646 -0.03706203 0.08127578 -0.019769138 -0.064621136 0.025555605
0.038255494 0.05957045 -0.013063573 -0.04162469 -0.01094718 0.035822365 -0.08541237 -0.07330302
-0.042441126 0.022336882 -0.016311483 0.045610476 -0.07847075 -0.023256093 0.030381681 0.068972565
-0.01561076 -0.02550506 0.07514489 -0.035222754 0.0643221 -0.03308807 0.051649097 0.08368926
00000000: 9275 87bd 22b2 9abb 10e0 8a3d 0f53 103d
00000010: 3869 083d e821 093c 3711 193d 4bd3 97bc
00000020: d291 24bc 9b1a 0bbd 29b8 563d de0b 723d
00000030: 740f c0bc c5d9 abbd fd32 373d 0c6c aa3b
00000040: 9c62 b43d 8279 81bd 45b7 87bc 824f 993d
00000050: b99d a53c bdf5 a5bd abc1 7d3d cd45 053d
00000060: 45ba a4bd af09 6fbd a2c4 303d 6868 53bd
00000070: 57f2 8fbd aacc a6bd ae20 9b3d 93d9 77bc
00000080: d13a 0c3d 6a70 8e3c 4a82 b43c 62a9 e63c
00000090: 65e0 afbd 6114 cd3c 8ad3 b4bc ee4b 8b3d
000000a0: fcb6 a03d 5de6 853d f3dd 4fbd db27 153c
000000b0: 11bf 993b 381b fd3c 7a33 173d 555f a3bb
000000c0: ce54 073d 695e 3b3c a4bd 00bd 84e7 85bd
000000d0: 2acc 833d 94fd 7cbd 4fd8 f83b f684 9fbc
000000e0: 10b8 cb3c d553 8fbd 3f6f 6abd ae37 793c
000000f0: 66f8 73bd a3f0 8bbd 6930 b6ba 63d9 f5bc
00000100: 904d 5f3c e329 6bbd 989f 9abc 2e3f f3bb
00000110: bbe7 5fbd 73e4 9fbd 5427 983a 9914 043d
00000120: 4f6c 0fbd b0f5 0bbd 883d 43bc 8017 b2bd
00000130: 80a1 963d a6ea f0bb 5d94 523c 15fc 6cbc
00000140: 0890 063c 7cf3 2dbd 6a23 7cbd 0016 7ebd
00000150: af32 3f3d 635d 1bbd f0b2 a3bd 8cfd 8abd
00000160: fb29 853d fd52 543d 17b5 a3bd 2068 ef3b
00000170: 370a a63d 8b04 97bd 425b 903c 4498 cbbc
00000180: f2aa 9c3d cf1f 0bbd 1e8f 4bbb 5bce 17bd
00000190: eb73 a63d e3f2 a1bc 1658 84bd fd59 d13c
000001a0: cbb1 1c3d 2500 743d 9908 56bc a77e 2abd
000001b0: cd5b 33bc 79ba 123d aeec aebd e51f 96bd
000001c0: bfd6 2dbd d6fb b63c a99f 85bc 0dd2 3a3d
000001d0: 46b5 a0bd 9083 bebc 01e3 f83c 7d41 8d3d
000001e0: 46c4 7fbc fdef d0bc 90e5 993d bc45 10bd
000001f0: 4ebb 833d 5b87 07bd 018e 533d 4665 ab3d

onnx::MatMul_30 f4 [20, 256]
0.13161936 0.014894444 -0.19661634 -0.14188465 -0.13487028 0.12995307 -0.19982007 -0.08053947
0.021814477 0.09054249 0.109350376 0.13536587 0.19691768 -0.18865013 0.14447622 -0.1363796
0.111901626 0.09005308 -0.13222888 -0.15980919 -0.17444424 -0.001952206 0.1531655 0.00474285
-0.1999102 0.0012160204 -0.1513497 -0.12753418 0.19890925 -0.11485244 -0.08795496 -0.14475204
0.14420302 -0.11564791 0.0408752 -0.049512893 0.022424286 0.17693621 -0.21750495 0.039567217
-0.1785875 -0.048489835 0.16106816 -0.11436579 -0.17119412 -0.004174304 -0.065687016 0.19585618
0.12632866 -0.17129558 0.124746144 0.054009415 -0.18830131 0.18788119 -0.1540308 -0.0451983
0.21830854 -0.1618071 -0.062080987 0.19330966 0.1392508 0.0825226 0.04864996 0.113980636
-0.06342853 -0.17822443 -0.09436765 0.02805422 0.10107254 0.14070459 0.019346716 0.0778233
-0.16697621 -0.008849661 0.098612726 0.16622896 0.057966553 -0.12361145 -0.16653264 0.06650104
-0.18092594 -0.027510012 0.05285177 0.16874148 0.096367516 -0.15239188 0.12762241 0.007426017
0.043380413 -0.0043839803 0.08937367 -0.13849169 0.15198565 -0.11769816 -0.02498145 -0.112418085
0.1749993 -0.16604447 -0.16622627 -0.05079238 0.028212985 -0.024562418 -0.17588945 -0.14057638
0.0078479815 -0.22140464 -0.1291871 -0.017778438 -0.037789956 0.06313774 0.21033381 -0.15262088
0.15217602 0.017367136 -0.17375857 -0.18981172 -0.099959254 -0.11050845 -0.025223833 -0.2045022
-0.13930497 0.20174831 -0.009533174 0.022954501 -0.19108814 0.1853314 -0.18481342 -0.046167806
-0.004087539 0.22331934 -0.16028388 0.10768603 -0.07976083 -0.06373998 -0.15088598 -0.101943396
-0.15171799 -0.18719895 0.11684285 0.13049328 0.19734095 -0.10749597 0.07697047 -0.20266803
-0.009531468 -0.015065283 0.21767437 0.14493513 0.21965246 0.006985367 -0.18217 0.17854236
-0.12119924 0.105014436 0.16702987 0.057972204 0.14611794 -0.10914545 -0.18486847 0.13777429
0.094899274 0.18462655 -0.1030023 0.09472308 -0.04151601 -0.0022820742 -0.13614452 0.06254123
0.025337575 0.027078291 -0.17969283 0.09264282 0.11190949 -0.085243404 0.13251834 -0.051726677
-0.05972761 0.08400681 -0.091561675 -0.02625782 -0.09880427 -0.13537669 0.21245638 -0.11861427
-0.21856889 0.102621205 0.2053566 -0.069285095 -0.06937935 0.2049925 0.064755306 0.22032166
-0.16778821 0.19931494 -0.07931138 -0.19600959 0.107517004 0.14056452 -0.008778436 -0.029121688
-0.05991812 -0.07597192 0.053590704 0.15558648 0.0068595237 0.09977261 -0.12328243 0.08836768
0.069729105 0.0081608165 -0.197279 -0.068250254 -0.013338826 -0.21446586 0.00093666546 -0.1136537
-0.014697855 0.2212828 -0.015969453 0.15323766 -0.10865692 -0.17872685 0.20570916 0.02684649
-0.036043905 0.15957984 -0.08167499 0.16292645 0.115756966 -0.07658996 -0.19990057 -0.16803373
0.1645176 0.17902425 0.1187878 0.20702457 -0.1014976 0.13087593 -0.06510146 -0.11436325
0.05558284 -0.18750185 -0.03612702 0.05024148 0.10226071 -0.14701447 -0.08050725 0.026078425
-0.116571754 0.0023086234 -0.1555539 0.047329046 0.0006433694 0.052558314 -0.027896898 -0.08769053
00000000: 3ac7 063e d307 743c cb55 49be 364a 11be
00000010: 6f1b 0abe 6b12 053e a29d 4cbe e1f1 a4bd
00000020: 46b4 b23c 576e b93d 17f3 df3d 5a9d 0a3e
00000030: caa4 493e 802d 41be 93f1 133e 18a7 0bbe
00000040: ae2c e53d c06d b83d 0267 07be 05a5 23be
00000050: 83a1 32be 2ae1 ffba 6bd7 1c3e e969 9b3b
00000060: 42b5 4cbe e062 9f3a 6afb 1abe 5298 02be
00000070: deae 4b3e c237 ebbd bb21 b4bd e139 14be
00000080: f5a9 133e d0d8 ecbd c16c 273d 08ce 4abd
00000090: 23b3 b73c c42e 353e 9eb9 5ebe 3c11 223d
000000a0: a4df 36be 479d 46bd 0def 243e 9c38 eabd
000000b0: 834d 2fbe 9ac8 88bb ea86 86bd 868e 483e
000000c0: 4d5c 013e 1c68 2fbe e87a ff3d fa38 5d3d
000000d0: 0fd2 40be ed63 403e 40ba 1dbe da21 39bd
000000e0: 468c 5f3e c3b0 25be a248 7ebd f8f2 453e
000000f0: c397 0e3e 9c01 a93d 2e45 473d ae6e e93d
00000100: d1e6 81bd 7780 36be d443 c1bd f7d1 e53c
00000110: 1fff ce3d dd14 103e 017d 9e3c d361 9f3d
00000120: d0fb 2abe 2bfe 10bc 78f5 c93d ed37 2a3e
00000130: 566e 6d3d 0028 fdbd 8887 2abe b231 883d
00000140: a644 39be ad5c e1bc 197b 583d 91ca 2c3e
00000150: 555c c53d 9e0c 1cbe 73af 023e f255 f33b
00000160: a9af 313d 7ea7 8fbb 8b09 b73d c4d0 0dbe
00000170: 20a2 1b3e bc0b f1bd e6a5 ccbc 743b e6bd
00000180: 0433 333e 9007 2abe 3837 2abe ac0b 50bd
00000190: eb1e e73c 2037 c9bc 5d1c 34be 41f3 0fbe
000001a0: d294 003c e6b7 62be a049 04be 16a4 91bc
000001b0: a4c9 1abd 5c4e 813d bf61 573e a648 1cbe
000001c0: 08d4 1b3e 8645 8e3c c4ed 31be 015e 42be
000001d0: 70b7 ccbd 4152 e2bd 36a2 cebc 0669 51be
000001e0: f6a5 0ebe 1c97 4e3e 0831 1cbc 140b bc3c
000001f0: 9cac 43be 84c7 3d3e bb3f 3dbe 741a 3dbd
00000200: c3f0 85bb d3ad 643e 7521 24be 7e8a dc3d
00000210: a559 a3bd 1b8a 82bd db81 1abe b3c7 d0bd
00000220: f65b 1bbe 15b1 3fbe 4e4b ef3d 08a0 053e
00000230: bf13 4a3e d926 dcbd b2a2 9d3d 3588 4fbe
00000240: e029 1cbc 60d4 76bc 08e6 5e3e e069 143e
00000250: 93ec 603e 81e5 e43b c68a 3abe cfd3 363e
00000260: 4f37 f8bd cf11 d73d e109 2b3e 4374 6d3d
00000270: f19f 153e a687 dfbd 294e 3dbe b414 0d3e
00000280: 8d5a c23d be0e 3d3e dff2 d2bd 2dfe c13d
00000290: b10c 2abd da8e 15bb 7869 0bbe 9e15 803d
000002a0: bf90 cf3c 4bd3 dd3c 6601 38be 85bb bd3d
000002b0: cd30 e53d 1894 aebd e3b2 073e 5adf 53bd
000002c0: f0a4 74bd c30b ac3d b084 bbbd a41a d7bc
000002d0: e559 cabd 30a0 0abe 2a8e 593e 0aec f2bd
000002e0: 86d0 5fbe 112b d23d 0049 523e 58e5 8dbd
000002f0: c316 8ebd 8ee9 513e 6e9e 843d 009c 613e
00000300: acd0 2bbe 3719 4c3e 016e a2bd bdb6 48be
00000310: e031 dc3d 25f0 0f3e 6ed3 0fbc 9b90 eebc
00000320: b46c 75bd 2a97 9bbd ed81 5b3d 1052 1f3e
00000330: dbc5 e03b 9555 cc3d 807b fcbd 1dfa b43d
00000340: 22ce 8e3d f2b4 053c 8203 4abe cac6 8bbd
00000350: 178b 5abc f09c 5bbe 8e8a 753a 45c3 e8bd
00000360: 46cf 70bc f597 623e 5fd2 82bc 55ea 1c3e
00000370: 8587 debd 2c04 37be 6ca5 523e 2ced db3c
00000380: c6a2 13bd e668 233e 3845 a7bd 31d6 263e
00000390: fd11 ed3d 32db 9cbd bcb2 4cbe 0911 2cbe
000003a0: 4d77 283e 2252 373e 0547 f33d 40fe 533e
000003b0: f9dd cfbd 5704 063e ea53 85bd 4837 eabd
000003c0: d5aa 633d 7c00 40be edf9 13bd 03ca 4d3d
000003d0: 106e d13d f68a 16be fce0 a4bd 6ca2 d53c
000003e0: 2cbd eebd 464c 173b 8649 1fbe 1adc 413d
000003f0: caa7 283a 6347 573d 0988 e4bc 1897 b3bd

onnx::MatMul_31 f4 [256, 256]
-0.028880753 -0.022347882 -0.026386127 0.0131537765 0.03840349 0.05271233 -0.001306802 0.038681388
-0.014315903 -0.010977194 -0.036146954 0.051578432 -0.05593369 -0.042362206 -0.057498932 0.01292149
0.032417543 0.004918888 -0.051017404 0.019294173 0.013316579 0.026041888 0.0011048466 0.042630494
0.038925618 0.03123989 -0.0050769597 0.056283265 -0.056352787 0.04925759 -0.011741079 0.02349472
0.025032558 -0.0051173493 -0.036415815 0.055271797 0.050959043 0.00073985755 -0.024727061 0.05726078
-0.0370695 -0.04235418 -0.0062190294 -0.043359347 0.01775042 -0.05325827 -0.016747057 -0.04078147
0.04029143 0.02887252 -0.028190553 0.033346638 0.036348917 -0.0037938058 -0.000644356 0.022581868
-0.019180425 0.059855893 -0.017876484 -0.0058535337 -0.05098436 0.040396467 -0.024098769 -0.020895943
0.03280233 0.054095544 -0.04864212 -0.0001886934 -0.054705307 0.033792883 0.03594549 -0.046395026
-0.043781057 0.06224881 0.0192658 0.052082784 -0.040817246 -0.055352673 0.010568455 0.05546101
0.010465063 -0.03850043 -0.042944282 0.021737255 0.051648922 -0.027397417 0.04427223 -0.023642138
-0.05792603 0.022491992 0.019244418 -0.01873409 0.042509593 0.041565597 -0.014435604 -0.052543126
0.027446404 -0.0364161 -0.020262018 0.023832574 -0.05884169 -0.04704137 -0.041353308 0.061948866
0.031556606 0.03873024 0.028426006 0.033379376 -0.027583748 0.0011671484 -0.058926813 0.011066653
-0.010121107 0.0032699853 -0.041004308 -0.034519285 0.012175053 -0.034076884 -0.020724483 -0.05071111
-0.026873551 -0.04239174 -0.018630162 -0.0044932514 -0.018824093 -0.053205512 0.00041779876 -0.0020091906
0.010906346 -0.016988635 0.04890491 -0.037532687 0.059619665 0.026836395 -0.024950922 0.04175835
-0.01890152 0.0146561265 -0.05256582 0.03647452 0.059163503 -0.006158896 0.016248196 -0.009029038
-0.03824491 -0.022160284 0.056027837 -0.009986423 0.048955426 0.037668794 0.020741478 0.0074975863
-0.010283999 -0.031563945 -0.036857672 -0.03631413 -0.011830963 0.041380495 0.03917651 0.061704442
-0.0066581294 -0.010469995 0.029862866 0.041252628 0.051877238 0.011862412 0.018403329 0.057278693
-0.051711462 -0.057486758 -0.020336792 -0.029068686 -0.031186953 0.013355508 -0.025022589 -0.050284006
-0.024580471 0.009595968 -0.0016332492 0.042374343 0.05370231 -0.037565455 -0.0123576075 -0.052999184
0.056707174 0.01132378 -0.05403816 0.008577049 -0.0450261 -0.056030482 -0.033277392 0.057066046
0.004760757 0.025545083 -0.037267253 -0.034836233 -0.052132674 -0.0053512976 0.040585138 0.027398057
-0.017459914 -0.012402199 0.022696704 -0.014085099 0.061539553 0.04659666 -0.02495806 0.057157688
0.05592943 0.004345067 0.018875591 0.023285776 -0.02395828 0.03557676 -0.04131312 -0.038544834
0.035233222 0.029370435 0.0064632744 0.041420326 -0.0028587505 -0.042737253 0.028805971 -0.044067517
0.044309206 -0.04263462 0.0589728 -0.04900097 0.056593813 0.0503996 0.054178193 -0.0465258
0.034837216 -0.00734023 0.059460923 -0.028106138 -0.022171207 -0.04139272 -0.03485708 -0.04693193
0.0018717572 -0.022777826 -0.034905724 0.0013675466 0.0431317 -0.03659167 -0.02427157 -0.0390805
0.029529154 0.030966602 -8.1919134e-05 -0.04553952 -0.037936255 0.035920925 0.045213908 -0.019232899
00000000: 5497 ecbc e812 b7bc b827 d8bc f082 573c
00000010: fa4c 1d3d e2e8 573d 0049 abba 6070 1e3d
00000020: 408d 6abc b0d9 33bc d40e 14bd e843 533d
00000030: ba1a 65bd fe83 2dbd 0084 6bbd a8b4 533c
00000040: 42c8 043d a02e a13b a0f7 50bd d00e 9e3c
00000050: c82d 5a3c cc55 d53c 80d0 903a 509d 2e3d
00000060: 7870 1f3d ccea ff3c a05c a6bb 4889 663d
00000070: 2ed2 66bd 54c2 493d a85d 40bc 0078 c03c
00000080: 1411 cd3c 70af a7bb c028 15bd ae64 623d
00000090: 6eba 503d 00f3 413a 6890 cabc 488a 6a3d
000000a0: 30d6 17bd 947b 2dbd 00c9 cbbb 9299 31bd
000000b0: 5469 913c 5825 5abd 2031 89bc 780a 27bd
000000c0: a008 253d 1086 ec3c e0ef e6bc 7c96 083d
000000d0: 9ae2 143d 80a1 78bb 00ea 28ba 9cfd b83c
000000e0: 4420 9dbc 742b 753d b471 92bc 00cf bfbb
000000f0: fad4 50bd c476 253d c86a c5bc f82d abbc
00000100: bc5b 063d 4a93 5d3d f63c 47bd 00dc 45b9
00000110: ac12 60bd 686a 0a3d 943b 133d b608 3ebd
00000120: c453 33bd 9cf8 7e3d 50d3 9d3c c254 553d
00000130: fc2f 27bd 7cb9 62bd 5027 2d3c 162b 633d
00000140: a875 2b3c a0b2 1dbd 58e6 2fbd 5412 b23c
00000150: d28d 533d 8c70 e0bc cc56 353d 28ad c1bc
00000160: d843 6dbd 2041 b83c 78a6 9d3c 3c78 99bc
00000170: 8a1e 2e3d b040 2a3d 5083 6cbc 7637 57bd
00000180: 48d7 e03c 0c29 15bd 88fc a5bc 883c c33c
00000190: fc03 71bd 74ae 40bd 1662 29bd 18be 7d3d
000001a0: 8041 013d 9aa3 1e3d a8dd e83c d0b8 083d
000001b0: 50f7 e1bc 00fb 983a 3e5d 71bd e850 353c
000001c0: 00d3 25bc 404d 563b 22f4 27bd 1864 0dbd
000001d0: e079 473c 3494 0bbd 64c6 a9bc 74b6 4fbd
000001e0: ec25 dcbc f6a2 2dbd 489e 98bc 203c 93bb
000001f0: fc34 9abc 06ee 59bd 000c db39 a0ac 03bb
00000200: 88b0 323c c02b 8bbc 8450 483d e0bb 19bd
00000210: c033 743d 00d8 db3c e065 ccbc ce0a 2b3d
00000220: 5cd7 9abc 4020 703c 424f 57bd 4e66 153d
00000230: 6e55 723d 90d0 c9bb f01a 853c 88ee 13bc
00000240: b2a6 1cbd 7c89 b5bc 727d 653d 189e 23bc
00000250: 7c85 483d 984a 1a3d 08ea a93c 50ae f53b
00000260: 387e 28bc 3249 01bd 12f8 16bd 20be 14bd
00000270: a8d6 41bc 987e 293d 8c77 203d ccbd 7c3d
00000280: 702c dabb 588a 2bbc f8a2 f43c 84f8 283d
00000290: 3a7d 543d 905a 423c 94c2 963c 109d 6a3d
000002a0: 66cf 53bd 3c77 6bbd 5899 a6bc 7421 eebc
000002b0: c87b ffbc 10d1 5a3c 2cfc ccbc 9af6 4dbd
000002c0: fc5c c9bc 6838 1d3c c012 d6ba b890 2d3d
000002d0: f4f6 5b3d 3cde 19bd 9077 4abc ac15 59bd
000002e0: c845 683d 6087 393c 1e57 5dbd c086 0c3c
000002f0: 4a6d 38bd 3880 65bd e04d 08bd 16be 693d
00000300: 2000 9c3b ec43 d13c 8ca5 18bd 70b0 0ebd
00000310: 1289 55bd f059 afbb 9a3c 263d e471 e03c
00000320: 1808 8fbc 9832 4bbc 70ee b93c 30c5 66bc
00000330: e610 7c3d 24dc 3e3d d874 ccbc 2e1e 6a3d
00000340: 4216 653d 1061 8e3b fca0 9a3c d0c1 be3c
00000350: 2844 c4bc f0b8 113d f237 29bd 30e1 1dbd
00000360: b650 103d 449a f03c e0c9 d33b 5ca8 293d
00000370: e059 3bbb 420d 2fbd 80fa eb3c 2480 34bd
00000380: 927d 353d a4a1 2ebd 768d 713d 3eb5 48bd
00000390: eace 673d d06f 4e3d f4e9 5d3d d691 3ebd
000003a0: 78b1 0e3d 5086 f0bb 4c8d 733d d83e e6bc
000003b0: 64a0 b5bc 6a8b 29bd 4cc6 0ebd b23b 40bd
000003c0: c055 f53a 9098 babc 4ef9 0ebd 403f b33a
000003d0: deaa 303d 26e1 15bd 2cd5 c6bc e012 20bd
000003e0: 20e7 f13c acad fd3c 00cc abb8 a687 3abd
000003f0: 0c63 1bbd d221 133d 3832 393d 508e 9dbc

onnx::MatMul_32 f4 [256, 128]
0.06192392 -0.05692245 -0.014056481 0.005604118 -0.008470245 -0.042871244 0.053971373 -0.03976351
-0.029997729 -0.012882739 -0.0164681 -0.021578386 -0.008130051 0.03221319 0.051609606 0.01588671
0.02779068 0.05195629 0.037422523 -0.027060494 -0.031896412 -0.031904727 0.005550012 -0.018159688
0.024364062 0.02477917 0.0011492074 -0.050429627 0.050174944 0.026377514 0.043793306 -0.05233638
0.008620314 -0.031886883 0.055532448 -0.055354208 0.007961348 0.009816609 0.042990655 -0.0115425885
-0.013611272 -0.026701547 -0.041269355 -0.05425165 -0.024801455 0.051817037 0.057174057 0.06004706
0.027262859 -0.037651375 0.01697494 -0.020028561 0.0034755915 0.004420802 -0.0025907531 0.05256571
0.040694535 -0.0222722 -0.002649352 -0.051801465 0.012247153 0.0009544343 -0.04543206 -0.044289373
0.012002699 -0.05817365 0.037133045 -0.006724544 0.014165908 0.0019614473 -0.017442964 0.009288736
0.060100272 0.047726117 0.018186599 -0.013618872 -0.0025808662 -0.023300067 -0.05184263 -0.031131402
0.030425102 0.025567502 -0.04036507 0.046847954 -0.049572974 -0.045548156 0.0055254847 0.038323678
0.027815849 -0.035809174 -0.04658173 -0.046865284 -0.0018145442 -0.018183924 -0.044596054 -0.053118862
-0.036707364 -0.043933436 0.05583308 0.030075386 -0.011166774 0.022232533 -0.0122657195 -0.052430816
0.052998595 -0.042275794 -0.056231566 -0.049490586 -0.049281277 0.015342407 0.012144633 0.011182196
-0.023016207 -0.014430046 -0.01652135 -0.025600582 -0.06231664 -0.038874425 0.007942349 -0.05677159
0.03247574 0.05154872 0.03842791 -0.016704872 0.0043810904 0.008999094 0.024848953 -0.037912898
0.009453483 0.021357946 -0.009127401 0.05048883 -0.021594338 -0.028425157 0.0049560443 0.05671756
0.047718517 0.00366956 -0.032373622 0.047128983 0.039704032 -0.014614917 -0.0037815198 -0.027902968
0.043158963 0.019898586 -0.030695982 -0.031812385 -0.036309674 0.04939396 -0.01059448 -0.045850024
0.04649069 -0.014806762 0.015142418 -0.017641217 -0.0021819323 0.031694204 -0.01721166 -0.026128158
0.0031318888 0.034196556 -0.0003668666 -0.019335583 -0.032282427 -0.016423374 0.057570815 0.017830081
-0.008348957 0.009717859 0.0135049 -0.034698583 0.014628321 -0.011935957 0.044319443 -0.056291804
0.015270419 0.047169134 0.057344764 0.019720979 -0.0057692975 -0.029725492 -0.05560039 0.04985422
-0.042152576 0.0068108067 -0.038229056 -0.06157565 0.03389284 0.05482609 0.036046833 -0.018888667
-0.042015307 -0.045091666 -0.039886415 -0.013036557 -0.024035096 -0.0056007877 0.0019972846 0.01783447
-0.041525126 -0.012963876 0.018745333 -0.054842174 0.008980818 -0.03709738 0.014576085 -0.051142678
-0.026662149 -0.037044287 0.045085117 -0.032956094 -0.00016444921 0.04991752 -0.026064217 0.013021983
-0.05951231 -0.052489214 0.04684113 0.01621829 0.03178198 -0.051558383 0.053654186 -0.023096249
0.033964135 -0.051731855 -0.017358944 0.012043275 -0.047548972 0.062130705 -0.036751725 -0.019927822
0.053494513 -0.011101395 0.036942422 -0.016996622 0.060341828 0.026921257 -0.00681822 0.06238755
0.013366677 0.037304305 0.039732724 0.008839704 0.022766598 0.034150854 -0.0074223727 -0.04554514
-0.03254038 -0.011995524 -0.026514947 -0.026847057 0.032930844 0.047743194 0.03714683 0.020079046
00000000: f0a3 7d3d 8427 69bd 284d 66bc c0a2 b73b
00000010: c8c6 0abc c299 2fbd 1611 5d3d 10df 22bd
00000020: ccbd f5bc 2012 53bc 1ce8 86bc 28c5 b0bc
00000030: e833 05bc faf1 033d 9864 533d d824 823c
00000040: 48a9 e33c 1ed0 543d 5c48 193d f8ad ddbc
00000050: d0a5 02bd 88ae 02bd e0dc b53b a0c3 94bc
00000060: 2497 c73c b0fd ca3c 00a1 963a 4c8f 4ebd
00000070: 3e84 4d3d a815 d83c 9c60 333d ac5e 56bd
00000080: 383c 0d3c d29b 02bd fe75 633d 18bb 62bd
00000090: 5070 023c d8d5 203c f816 303d 201d 3dbc
000000a0: d001 5fbc 34bd dabc 0e0a 29bd fa36 5ebd
000000b0: 6c2c cbbc 1a3e 543d 582f 6a3d e8f3 753d
000000c0: 5c56 df3c 5438 1abd 080f 8b3c f012 a4bc
000000d0: c0c6 633b 60dc 903b a0c9 29bb 244f 573d
000000e0: 50af 263d 3074 b6bc c0a0 2dbb c62d 54bd
000000f0: 48a8 483c 0033 7a3a f816 3abd c668 35bd
00000100: f8a6 443c 7e47 6ebd d218 183d 9059 dcbb
00000110: 2018 683c a08b 003b 8ce4 8ebc c82f 183c
00000120: b42b 763d 767c 433d 10fc 943c b021 5fbc
00000130: c023 29bb c8df bebc f058 54bd 4807 ffbc
00000140: 103e f93c f072 d13c d855 25bd a4e3 3f3d
00000150: 080d 4bbd b490 3abd 200f b53b 4af9 1c3d
00000160: 10de e33c a4ac 12bd 7ccc 3ebd d0f5 3fbd
00000170: 00d6 edba 74f6 94bc 5aaa 36bd 2a93 59bd
00000180: 765a 16bd 8cf3 33bd 3ab1 643d a860 f63c
00000190: d8f4 36bc 0021 b63c 28f6 48bc b2c1 56bd
000001a0: 0e15 593d 6229 2dbd 1253 66bd a4b6 4abd
000001b0: 2adb 49bd b85e 7b3c 48fa 463c 8835 373c
000001c0: 7c8c bcbc 006c 6cbc c857 87bc 50b8 d1bc
000001d0: bc3f 7fbd ca3a 1fbd a020 023c 5489 68bd
000001e0: 4805 053d c024 533d 9666 1d3d a8d8 88bc
000001f0: 408f 8f3b f070 133c 0890 cb3c 8e4a 1bbd
00000200: c8e2 1a3c dcf6 ae3c 188b 15bc 60cd 4e3d
00000210: 9ce6 b0bc e0db e8bc 5066 a23b ac50 683d
00000220: 7e74 433d 007d 703b 349a 04bd 520a 413d
00000230: b2a0 223d 6873 6fbc 60d3 77bb c494 e4bc
00000240: 74c7 303d 5c02 a33c 2476 fbbc b44d 02bd
00000250: 74b9 14bd 5251 4a3d 7894 2dbc 3ccd 3bbd
00000260: 066d 3e3d 1098 72bc e817 783c 5084 90bc
00000270: c0fe 0ebb c8d1 013d 78ff 8cbc b80a d6bc
00000280: 6040 4d3b b011 0c3d 0058 c0b9 a865 9ebc
00000290: 943a 04bd 508a 86bc 60cf 6b3d 6410 923c
000002a0: 10ca 08bc a837 1f3c a843 5d3c 1a20 0ebd
000002b0: a0ab 6f3c 088f 43bc 4e88 353d 3c92 66bd
000002c0: c830 7a3c 6c34 413d 58e2 6a3d e48d a13c
000002d0: 600c bdbb e082 f3bc 3cbd 63bd f033 4c3d
000002e0: 2ea8 2cbd 302d df3b 1296 1cbd c036 7cbd
000002f0: 38d3 0a3d 5291 603d d8a5 133d 68bc 9abc
00000300: 3e18 2cbd 0ab2 38bd f05f 23bd 4897 55bc
00000310: 40e5 c4bc d086 b7bb e0e4 023b 9819 923c
00000320: 4016 2abd 7066 54bc d08f 993c 30a2 60bd
00000330: 4824 133c 6cf3 17bd 88d0 6e3c fc7a 51bd
00000340: 946a dabc c0bb 17bd 2cab 383d f8fc 06bd
00000350: 0070 2cb9 5076 4c3d a084 d5bc 285a 553c
00000360: 2ec3 73bd eefe 56bd 7cdc 3f3d 38dc 843c
00000370: d22d 023d e22e 53bd 7ec4 5b3d 5834 bdbc
00000380: fa1d 0b3d c8e4 53bd 5834 8ebc 2851 453c
00000390: b6c2 42bd c47c 7e3d fa88 16bd ac3f a3bc
000003a0: 101d 5b3d a0e2 35bc f050 173d 803c 8bbc
000003b0: fe28 773d f889 dc3c 606b dfbb 168a 7f3d
000003c0: e8ff 5a3c 66cc 183d c8be 223d 68d4 103c
000003d0: 0481 ba3c c4e1 0b3d 6037 f3bb 8a8d 3abd
000003e0: 1049 05bd e088 44bc e035 d9bc 5cee dbbc
000003f0: 7ee2 063d 5e8e 433d 4627 183d d07c a43c

onnx::MatMul_33 f4 [128, 128]
-0.05234214 -0.059454713 -0.062143315 0.029301794 0.08485884 -0.081658624 0.062186398 0.060570076
-0.016841395 0.063248396 -0.0006796917 0.08223131 -0.0126797315 0.08247852 -0.05183014 0.0688748
0.06721769 0.00043605128 0.087129585 -0.032315496 -0.01469119 0.066737816 -0.03949105 0.05513107
-0.0647313 0.0827058 0.041184563 -0.076171264 0.071405694 0.048402168 -0.06149064 -0.075287685
0.064686246 -0.057769906 0.06716932 0.027765594 -0.072795995 0.076562986 -0.027232205 -0.0197374
0.027034758 -0.04276703 -0.07988899 -0.019433374 0.020719748 -0.019185562 -0.035696387 -0.06494348
0.007413346 0.023279147 0.014815492 -0.020300819 0.060641717 -0.059270564 -0.08546045 0.07297987
-0.025191497 -0.039392836 -0.06958019 0.021656737 0.006770111 -0.032416403 0.067864515 -0.054636013
-0.05791092 -0.07866444 0.0028130598 -0.07671727 -0.07202053 -0.06518852 0.032435004 0.018350728
-0.08000537 0.018528692 0.07837865 0.07382784 -0.06721182 0.04136726 -0.03213993 -0.059024364
0.041877214 0.035472717 0.0019308735 -0.04284757 0.06625318 0.07757807 -0.024125045 -0.087762274
0.0078076087 -0.06309933 0.08439922 -0.026192801 -0.05781886 -0.06995354 0.028570926 -0.008893354
0.077742316 0.05901236 -0.03414921 -0.005327667 0.0016222111 -0.016429242 -0.035501577 -0.04233653
0.018790055 -0.08784107 -0.027127344 0.035179563 -0.04252582 -0.03313193 0.049161907 -0.051916014
0.05651906 -0.04889148 -0.03493542 -0.019281888 -0.08668571 0.013334336 0.050937932 -0.040172953
-0.07959284 -0.038620114 0.015198754 -0.072205745 0.065681465 -0.00069899496 -0.07094282 0.03697938
-0.030745156 0.06576136 0.012098211 0.07473464 -0.01177173 -0.009226314 -0.046116732 -0.07866707
0.0022928307 0.04260611 0.056637503 0.026688818 0.01752409 0.0082839 0.053218413 0.048825216
0.02056704 -0.08519642 0.08175919 0.06566978 0.036707807 -0.056623828 0.011086465 -0.06664073
0.068534285 0.061643884 0.055115 -0.078336895 0.022148663 -0.030982347 0.07876176 0.023027414
-0.08199357 0.047545217 0.0680292 -0.08773121 0.05273561 -0.03909371 -0.04892229 -0.039032374
-0.00031660713 -0.05605082 -0.040812805 0.085628204 -0.032690477 -0.08833725 -0.029299857 -0.046198845
-0.08432907 0.030431436 -0.06020281 -0.054808676 -0.053990986 0.034315404 -0.060741603 -0.04355292
-0.027001452 -0.014644776 0.08819902 -0.04745789 -0.0534253 -0.029144777 -0.06994456 -0.048688006
0.0019163856 -0.025315568 -0.058329266 0.0062855594 0.08139036 0.07464725 -0.018095275 -0.04592724
0.0051388913 -0.025855321 -0.068735674 -0.043971576 0.07137984 -0.0057862457 0.053508963 -0.05285237
0.025347136 0.037598994 -0.048224855 0.027546473 0.0012947512 0.004761256 -0.028324569 -0.034646902
0.053189702 0.017310068 0.06655845 -0.06235786 -0.035286047 -0.047621302 0.051073097 0.018583283
0.06611688 -0.01740766 0.047465023 -0.0055933082 -0.029596139 0.048441786 -0.083379544 -0.049094092
0.037964974 -0.08071097 -0.03724931 -0.08535687 0.024034968 0.03298716 -0.08691216 0.015986964
-0.04417329 -0.01848349 -0.003521938 0.0729475 -0.012805677 0.069392465 -0.043018434 0.020978635
0.07911894 0.08023941 -0.016202724 -0.08556658 -0.08196838 -0.07502689 0.034560278 -0.003874465
00000000: b664 56bd c986 73bd fd89 7ebd 510a f03c
00000010: 79ca ad3d a33c a7bd 2ab7 7e3d 5418 783d
00000020: f7f6 89bc 6088 813d 562d 32ba e468 a83d
00000030: a6be 4fbc 80ea a83d d74b 54bd 3b0e 8d3d
00000040: 6ea9 893d d09d e439 ff70 b23d 415d 04bd
00000050: 51b3 70bc d6ad 883d 5ec1 21bd 1ed1 613d
00000060: d891 84bd a961 a93d 25b1 283d aeff 9bbd
00000070: 263d 923d 5a41 463d 9cdd 7bbd 6e30 9abd
00000080: 397a 843d 23a0 6cbd 1290 893d ac74 e33c
00000090: 1116 95bd 0ecd 9c3d 1316 dfbc 54b0 a1bc
000000a0: ff77 dd3c 7b2c 2fbd d79c a3bd bd32 9fbc
000000b0: 76bc a93c 0a2b 9dbc 6036 12bd 1601 85bd
000000c0: a7eb f23b e9b3 be3c adbc 723c e74d a6bc
000000d0: 7363 783d b1c5 72bd e305 afbd 7876 953d
000000e0: 665e cebc 625a 21bd 0f80 8ebd 7869 b13c
000000f0: cfd7 dd3b 10c7 04bd 8dfc 8a3d 03ca 5fbd
00000100: 0034 6dbd d21a a1bd 505b 383b f21d 9dbd
00000110: 807f 93bd 8f81 85bd 91da 043d 4454 963c
00000120: dbd9 a3bd 7cc9 973c fc84 a03d 0d33 973d
00000130: 5aa6 89bd b770 293d 29a5 03bd 88c3 71bd
00000140: 7187 2b3d d74b 113d 5d15 fd3a ef80 2fbd
00000150: bfaf 873d 40e1 9e3d e3a1 c5bc b5bc b3bd
00000160: f8d6 ff3b 393a 81bd 80d9 ac3d 4992 d6bc
00000170: 78d3 6cbd cd43 8fbd 930d ea3c 6eb5 11bc
00000180: 5d37 9f3d f2b6 713d 0be0 0bbd b693 aebb
00000190: 5fa0 d43a 9e96 86bc 1a6a 11bd 1269 2dbd
000001a0: 9aed 993c 05e6 b3bd 2a3a debc 7218 103d
000001b0: 8e2f 2ebd 59b5 07bd ff5d 493d e3a5 54bd
000001c0: 8880 673d 6f42 48bd 7118 0fbd 0df5 9dbc
000001d0: 4788 b1bd 4278 5a3c 4ba4 503d 658c 24bd
000001e0: 9201 a3bd 2030 1ebd 3204 793c 9be0 93bd
000001f0: 0184 863d c23c 37ba 784a 91bd b177 173d
00000200: 44dd fbbc e4ad 863d 9337 463c 7a0e 993d
00000210: 37de 40bc f729 17bc e6e4 3cbd 331c a1bd
00000220: 5143 163b bf83 2e3d bafc 673d 82a2 da3c
00000230: ae8e 8f3c 32b9 073c 8dfb 593d f3fc 473d
00000240: 367c a83c 767b aebd 5d71 a73d e17d 863d
00000250: ed5a 163d 63ee 67bd 01a4 353c ef7a 88bd
00000260: b45b 8c3d 4c7e 7c3d 44c0 613d 186f a0bd
00000270: 1d71 b53c b1ce fdbc d84d a13d fda3 bc3c
00000280: 3fec a7bd c6be 423d e552 8b3d 6cac b3bd
00000290: 4c01 583d ba20 20bd bd62 48bd 69e0 1fbd
000002a0: 4afe a5b9 8b95 65bd 542b 27bd d75d af3d
000002b0: 73e6 05bd 29ea b4bd 4106 f0bc 003b 3dbd
000002c0: b8b4 acbd 594b f93c 3997 76bd 107f 60bd
000002d0: a725 5dbd 4f8e 0c3d 30cc 78bd 8c64 32bd
000002e0: 2632 ddbc a4f0 6fbc b0a1 b43d 3463 42bd
000002f0: 7dd4 5abd 07c1 eebc 183f 8fbd 136d 47bd
00000300: 3b2f fb3a 9862 cfbc abea 6ebd 18f7 cd3b
00000310: fdaf a63d a8e0 983d 8b3c 94bc 341e 3cbd
00000320: 2564 a83b 8ace d3bc 4ac5 8cbd 8a1b 34bd
00000330: 982f 923d 8c9a bdbb 372c 5b3d ba7b 58bd
00000340: cca4 cf3c 6701 1a3d 6d87 45bd 24a9 e13c
00000350: a4b4 a93a 4f04 9c3b ed08 e8bc e9e9 0dbd
00000360: 72dd 593d d8cd 8d3c cc4f 883d f56a 7fbd
00000370: 1a88 10bd 8e0e 43bd 0632 513d f83b 983c
00000380: 4968 873d 829a 8ebc af6a 423d 1248 b7bb
00000390: 9a73 f2bc e56a 463d e5c2 aabd e316 49bd
000003a0: 2981 1b3d cb4b a5bd bc92 18bd 95cf aebd
000003b0: fbe4 c43c 8b1d 073d 01ff b1bd 18f7 823c
000003c0: 0def 34bd b06a 97bc 51d0 66bb 8065 953d
000003d0: e7ce 51bc a31d 8e3d 1934 30bd 63db ab3c
000003e0: 1c09 a23d 8f54 a43d 93bb 84bc 883d afbd
000003f0: 0adf a7bd b3a7 99bd 148f 0d3d bcea 7dbb

onnx::MatMul_34 f4 [128, 1]
-0.008613931 0.081371054 -0.00036568713 0.07317008 -0.062464904 0.0030673211 -0.0019485647 0.017975178
-0.07795468 -0.075458966 0.002740051 -0.026118971 0.008679342 0.043676082 -0.082895294 0.08084483
-0.068195656 -0.012238749 -0.082890995 0.040210843 -0.031866524 -0.020404374 0.02717459 0.0040865163
0.025650077 0.04314673 -0.010364658 0.04159211 -0.024668697 -0.0641378 -0.0018061189 -0.07816225
0.013817148 0.026393283 0.070172556 -0.08479225 0.070379026 -0.024392605 -0.060013298 0.062868685
0.039955895 -0.04135434 -0.020720603 -0.071701005 0.024099758 -0.040273305 0.004474225 -0.00785064
-0.010504554 0.053804636 -0.0357392 0.042298704 0.053985476 -0.035188414 -0.024633147 0.004348775
-0.075542375 -0.08059671 0.06814117 -0.0412788 0.03470678 0.06040089 -0.05298017 0.01925113
-0.08176206 -0.0173741 0.08354813 0.070429385 0.06539881 0.041387383 -0.041626588 -0.06766103
-0.03914455 0.083691165 0.013209023 0.07232494 0.03222727 0.005111401 0.0039421 -0.050724976
-0.07812302 0.0072775595 -0.064214304 -0.021586888 -0.016578894 -0.014792859 0.0799283 -0.08631656
-0.08766654 0.08404313 -0.026474943 0.031125184 0.0783278 -0.0443258 -0.029127192 0.06708566
-0.050710317 0.06935426 -0.007171212 -0.01498842 -0.047376323 -0.043750882 0.04150825 0.0064061736
0.060640894 0.0031572625 -0.052057404 -0.00021725646 -0.058762748 0.015481623 0.005919514 0.01882252
-0.039794493 -0.049305763 0.06357401 -0.033517554 0.037026953 -0.046913646 -0.0785025 0.06722396
-0.017696524 -0.066078775 -0.08243141 -0.064435035 0.077642836 -0.054859634 0.038771443 0.037996206
00000000: 7221 0dbc dea5 a63d b2b9 bfb9 32da 953d
00000010: 33db 7fbd 1c05 493b fb66 ffba ae40 933c
00000020: b4a6 9fbd 3b8a 9abd 6d92 333b 74f7 d5bc
00000030: cd33 0e3c b1e5 323d 02c5 a9bd f991 a53d
00000040: 2aaa 8bbd 0985 48bc c1c2 a9bd 20b4 243d
00000050: 7986 02bd 1327 a7bc 3f9d de3c 2fe8 853b
00000060: 1c20 d23c a0ba 303d 87d0 29bc 7d5c 2a3d
00000070: 0216 cabc ae5a 83bd 4bbb ecba 8813 a0bd
00000080: 5261 623c ba36 d83c a1b6 8f3d 8fa7 adbd
00000090: e122 903d 00d3 c7bc 81d0 75bd 4cc1 803d
000000a0: cba8 233d 2b63 29bd 41be a9bc fad7 92bd
000000b0: db6c c53c 9ff5 24bd 859c 923b f99f 00bc
000000c0: 4b1b 2cbc 4062 5c3d 4463 12bd 6841 2d3d
000000d0: e01f 5d3d ba21 10bd 74cb c9bc 2b80 8e3b
000000e0: f6b5 9abd e30f a5bd 998d 8b3d f613 29bd
000000f0: b228 0e3d ec66 773d bc01 59bd 8cb4 9d3c
00000100: de72 a7bd 2154 8ebc 481b ab3d 483d 903d
00000110: d0ef 853d d185 293d a480 2abd de91 8abd
00000120: 0956 20bd 4666 ab3d a86a 583c 191f 943d
00000130: be00 043d 8a7d a73b bb2c 813b fec4 4fbd
00000140: f6fe 9fbd 9878 ee3b ca82 83bd fcd6 b0bc
00000150: 76d0 87bc bf5d 72bc 73b1 a33d bdc6 b0bd
00000160: 848a b3bd ce1e ac3d fbe1 d8bc 3efa fe3c
00000170: 536a a03d f88e 35bd 269c eebc 3564 893d
00000180: 9fb5 4fbd 9b09 8e3d 7dfc eabb fd91 75bc
00000190: ad0d 42bd 2034 33bd 8e04 2a3d e1ea d13b
000001a0: 9662 783d 13ea 4e3b 253a 55bd 56cf 63b9
000001b0: 35b1 70bd a2a6 7d3c 7cf8 c13b af31 9a3c
000001c0: 8dff 22bd d7f4 49bd 1733 823d b449 09bd
000001d0: 93a9 173d 8628 40bd ebc5 a0bd b7ac 893d
000001e0: 4df8 90bc 4f54 87bd cdd1 a8bd 84f6 83bd
000001f0: 3503 9f3d 7fb4 60bd cece 1e3d e9a1 1b3d
