prediction_model_test_muscle_blood/surrogate_model/large_ANN_model.pth (torch, 476939 bytes, 10 tensors)

net.0.weight f4 [256, 10]
0	0xbe5a7af3	-0.21335964
1	0xbe4d127d	-0.20026584
2	0xbdc7c8df	-0.0975511
3	0x3e09ea87	0.13468371
4	0xbe9cb616	-0.3060767
5	0xbe4188ed	-0.1889989
6	0xbeafd061	-0.34338668
7	0xbdc77479	-0.09739012
8	0x3d32d5db	0.04366098
9	0x3b5eb34a	0.0033981376
10	0xbf1a9566	-0.60384214
11	0x3e7ac513	0.2448924
12	0x3e0524c0	0.130023
13	0xbe05c6a8	-0.13064063
14	0x3de7dbb2	0.113212004
15	0xbf8e8006	-1.113282
16	0xbcc8c4ef	-0.024507968
17	0xbe06d16c	-0.13165826
18	0x3addf327	0.0016933427
19	0xbb5ebf6c	-0.0033988608
20	0x3e08b0f0	0.13348746
21	0xbde7659e	-0.11298679
22	0x3dee0f8c	0.11624059
23	0xbe839586	-0.25700015
24	0x3e1b9369	0.15192951
25	0xbdfcfc88	-0.12352854
26	0xbe2ef672	-0.17086199
27	0x3e1932fb	0.14960854
28	0xbd657a16	-0.056024633
29	0xbd5379bc	-0.051629767
30	0x3f89cfb5	1.0766512
31	0xbec32f5b	-0.38122067
32	0xbf397e12	-0.72457993
33	0x3f8422d2	1.0323126
34	0x3faf251d	1.3683201
35	0x3b284326	0.002567479
36	0x3c37e164	0.011223171
37	0x3b6ba7e4	0.0035958225
38	0x3b12cf73	0.0022401481
39	0xbaec59ce	-0.0018032135
40	0x3da65fae	0.08123718
41	0xbc5c6783	-0.0134524135
42	0x3f95414f	1.1660556
43	0x3d4fd088	0.05073598
44	0xbd8a4476	-0.06751339
45	0xbe0da4af	-0.13832353
46	0xbeebc1f0	-0.460464
47	0x3f803ddf	1.0018882
48	0x3c2a82ad	0.010407132
49	0xbc28caaf	-0.01030223
50	0x3f1870ee	0.5954732
51	0x3e2421bf	0.16028498
52	0x3f189552	0.59602845
53	0x3dd0d63a	0.101971105
54	0xbe15ceb9	-0.1462964
55	0x3faba1f0	1.3408794
56	0x3f6f09a4	0.93374085
57	0x3f6796f2	0.904647
58	0x3be64b53	0.0070280223
59	0x3a074e73	0.0005161531
60	0xbfa88be7	-1.3167695
61	0xbf57d675	-0.8431161
62	0xbe4e3907	-0.20138942
63	0xbd97c2c0	-0.074101925
64	0xbdad45cf	-0.084605806
65	0x3ce832aa	0.028344471
66	0x3db8f6e2	0.09031464
67	0x3cba394c	0.0227324
68	0xbb964eb4	-0.004587019
69	0x3abad369	0.0014253679
70	0x3f138c44	0.57635903
71	0x3f8aff7c	1.0859218
72	0x3f2024e0	0.62556267
73	0x3eab2c6f	0.33432338
74	0xbe3ebe35	-0.18627246
75	0xbd1e81dd	-0.038698066
76	0x3c04f70c	0.008115541
77	0x3de4cdcf	0.111720674
78	0xbbd4c52f	-0.0064932327
79	0xbb6871aa	-0.003546814
80	0x3daa1f1d	0.08306716
81	0xbe2f1ba5	-0.1710039
82	0xbe0d181a	-0.13778725
83	0x3dbd57ba	0.09245248
84	0x3debaec1	0.11507941
85	0xbdbf8260	-0.09351039
86	0xbd1a5f62	-0.03768862
87	0x3d43ec48	0.047832757
88	0xbe2ec9f3	-0.17069225
89	0xbcf6281a	-0.030048419
90	0xbf1675c4	-0.58773446
91	0xbdbd58b0	-0.092454314
92	0x3db78203	0.08960345
93	0x3d9f30c4	0.07772973
94	0xbe71ef1d	-0.2362637
95	0xbe779798	-0.24178922
96	0xbe99a2b1	-0.30006936
97	0xbe9fca4c	-0.31209028
98	0xbc8a0945	-0.016850123
99	0xbe0e0890	-0.13870454
100	0x3d4f7d62	0.050656684
101	0x3ee11ce2	0.43967348
102	0x3de6a72d	0.11262355
103	0x3e2c6f45	0.16839321
104	0xbe2771c3	-0.1635199
105	0x3cb50679	0.022097813
106	0xbcfb0c77	-0.030645592
107	0xbfa1cdb0	-1.2640896
108	0xbc3b33cd	-0.0114259245
109	0x3a7e5bd7	0.0009703016
110	0xbec61ec9	-0.38695362
111	0xbc86f145	-0.016472468
112	0x3cdebde1	0.02719015
113	0xbe9ef42d	-0.31045666
114	0xbe6493cf	-0.2232201
115	0x3cd66174	0.026169516
116	0xbd1a1fe4	-0.03762807
117	0xbd7e2951	-0.06205112
118	0x3d0c4cbc	0.034252867
119	0xbdc947de	-0.09828161
120	0xc0276c52	-2.6159863
121	0xbeb7f759	-0.359309
122	0xbe4e62c1	-0.20154859
123	0x3e59c162	0.21265176
124	0xbe31756d	-0.1732995
125	0xbff55f9b	-1.9169801
126	0x3e7bb1f8	0.24579608
127	0xbf319086	-0.6936115
128	0xba4ad068	-0.00077367434
129	0x3b592199	0.0033131598
130	0x3d4cfcbf	0.050045725
131	0x3d30715b	0.043076854
132	0xbeb8d18c	-0.36097372
133	0xbe3220ed	-0.17395373
134	0xbaacf969	-0.0013196889
135	0xbdc875cf	-0.09788095
136	0xbda41f49	-0.0801378
137	0x3ce2dc98	0.027693078
138	0x3db9d4df	0.09073805
139	0xbe8d6cc1	-0.27622035
140	0xbe8e52d3	-0.27797565
141	0x3d34459b	0.044011693
142	0xbe8a1ce7	-0.26975176
143	0xbdd5f276	-0.104466364
144	0xbcbd65c9	-0.023119824
145	0xbeb63ad5	-0.3559176
146	0xbe54205a	-0.20715466
147	0xbdbefec2	-0.09325935
148	0xbe472529	-0.19447769
149	0xbe6d4218	-0.23169744
150	0x3f8c0dc9	1.0941707
151	0xbfca5578	-1.5807333
152	0xbe3b73be	-0.18305871
153	0xbda22490	-0.0791713
154	0x3ee9cb8c	0.45663106
155	0x3db17f1d	0.08666823
156	0x3c58c470	0.013230428
157	0x3ca4b6e4	0.02010674
158	0xbac8171d	-0.0015265677
159	0xbaa34d73	-0.0012458995
160	0x3d9c16fc	0.076215714
161	0x3deb1416	0.114784405
162	0xbd8e4578	-0.06946844
163	0xbd939369	-0.07205851
164	0x3bf58721	0.0074929153
165	0xbecaeead	-0.3963522
166	0xbe1835d6	-0.14864287
167	0xbdf6fd5d	-0.12060044
168	0xbdbfc8df	-0.09364485
169	0xbd4d4e29	-0.050123367
170	0x3e522c71	0.20524766
171	0xbed56d31	-0.4168487
172	0x3e2667b4	0.16250497
173	0xbcda1c09	-0.026624696
174	0x3c749326	0.014927661
175	0xbf3b7b3c	-0.73234916
176	0xbf540221	-0.8281575
177	0x3dc0b822	0.094101205
178	0x3b2f47bf	0.0026745645
179	0x398e8c4d	0.00027188883
180	0xbfb12bc1	-1.3841478
181	0x3f915c97	1.1356381
182	0xbf33bef0	-0.7021322
183	0xbd51a7ac	-0.051185295
184	0xbee3d177	-0.44495746
185	0xbd09e5ab	-0.033666294
186	0x3ab6782a	0.001392131
187	0x3d2eb874	0.042656377
188	0x3ba19423	0.0049309894
189	0xbbb9a5f7	-0.0056655365
190	0xbe4476f8	-0.19186008
191	0x3e055e27	0.13024198
192	0xbe4347a0	-0.19070292
193	0x3df0c4b3	0.117562674
194	0xbe3c224c	-0.18372458
195	0xbdf6d186	-0.12051682
196	0xbe944e6f	-0.2896609
197	0xbe5a569c	-0.21322101
198	0xbe82adee	-0.25523323
199	0xbe51aecb	-0.20476834
200	0x3efcfcbe	0.49411577
201	0x404136f4	3.018979
202	0xbcb55524	-0.022135325
203	0xbe5b2926	-0.21402416
204	0xbed1a9ba	-0.40949804
205	0xbd5df114	-0.05418499
206	0xbd4c61f1	-0.04989809
207	0x3d54822e	0.05188196
208	0x3b721c8a	0.003694328
209	0xb6ba82b9	-5.55845e-06
210	0xbd6c848a	-0.057743587
211	0x3b845bf0	0.00403928
212	0x3d5e05c7	0.05420473
213	0x3e140a81	0.14457132
214	0xbe2b4107	-0.16724025
215	0xbe5e0689	-0.2168218
216	0xbccba39d	-0.02485829
217	0x3daa42e5	0.0831354
218	0xbe0428bc	-0.12906164
219	0xbc9598da	-0.018261362
220	0xbf27576c	-0.6536777
221	0x3ecea8d0	0.4036317
222	0x3de56111	0.112001546
223	0x3e4d897b	0.20071976
224	0xbe520bcb	-0.20512311
225	0xbee59c99	-0.44846037
226	0x3eb87c3c	0.36032283
227	0x3e8f50d8	0.27991366
228	0xbb75e713	-0.0037521764
229	0xb88dbac1	-6.7581896e-05
230	0xbeda8cdf	-0.426856
231	0xbdbe0555	-0.09278361
232	0xbde14dd5	-0.110011734
233	0xbc1f473f	-0.009721576
234	0xbe3f2a2e	-0.18668434
235	0x3da577dd	0.08079503
236	0x3e55033a	0.20802012
237	0xbdbed911	-0.09318746
238	0xbe3ac475	-0.18239005
239	0xbd6ab904	-0.05730535
240	0x3f2282e5	0.6348098
241	0x3e90019d	0.2812623
242	0x3e3ee4db	0.18641989
243	0x3e15c4e0	0.14625883
244	0xbe115fcb	-0.14196698
245	0xbf2b3366	-0.668753
246	0xbf229ae9	-0.63517624
247	0xbd42f3f9	-0.04759595
248	0x3b353564	0.0027650231
249	0xbbac32cc	-0.005255079
250	0xbff2f2ac	-1.8980308
251	0xbf479100	-0.7795563
252	0x3d5b6a0c	0.05356793
253	0x3f89a146	1.0752342
254	0x3fd19836	1.6374576
255	0x3d6f00cd	0.058350373

net.0.bias f4 [256]
0	0xbd91957a	-0.071085885
1	0x3e9becdf	0.30454156
2	0xbee45958	-0.44599414
3	0xbfb92162	-1.4463313
4	0xbfe1a0f8	-1.7627249
5	0x3c83f4de	0.016107973
6	0x3f8ecb55	1.1155802
7	0xbfab67b8	-1.3391027
8	0xbec84ef6	-0.39122742
9	0xbdb87ca2	-0.09008147
10	0x3e831a14	0.25605834
11	0xbdbae44a	-0.09125574
12	0x3f46eeb9	0.7770801
13	0xbeada0da	-0.33911783
14	0xbdc10f9a	-0.09426804
15	0x3dcffa0e	0.10155116
16	0xbe441ad3	-0.19150858
17	0x3ef156f5	0.47136655
18	0x3f7c19ed	0.9847706
19	0xbe1e03fc	-0.15431207
20	0xc024dc02	-2.5759282
21	0xbe1685d4	-0.14699489
22	0xbec81677	-0.3907964
23	0xbe972518	-0.29520488
24	0xbc269f5a	-0.010169828
25	0xbfb080ca	-1.3789303
26	0xbde4c4ae	-0.11170326
27	0xbdfaae15	-0.12240235
28	0xc04926ec	-3.1430006
29	0xbe9c0404	-0.30471814
30	0x3fb484fe	1.4103086
31	0x3e947fe4	0.29003823
32	0xbff7da13	-1.9363426
33	0xbf22faab	-0.6366374
34	0xbeadcc3f	-0.3394489
35	0xbf45780d	-0.7713631
36	0xbecdeace	-0.40218204
37	0xbe48c339	-0.19605722
38	0xbeb958fb	-0.362007
39	0x3cc572ff	0.024102686
40	0xbecf58fd	-0.4049758
41	0x3fc663ca	1.5499203
42	0xbe2350ea	-0.15948835
43	0x3e522b23	0.20524268
44	0xc01b040e	-2.4221225
45	0xbddea471	-0.108712085
46	0xbe4caf8e	-0.19988844
47	0xbe9e7c7a	-0.30954343
48	0xbe92352d	-0.28556195
49	0x3ed301ea	0.41212398
50	0xbe611d73	-0.2198389
51	0xbf241aa3	-0.64103144
52	0xbe9622ba	-0.2932337
53	0xbdec6446	-0.11542563
54	0xbf15d976	-0.58534944
55	0xbf3a4a9f	-0.7277011
56	0xbf0baf22	-0.54564106
57	0xbda9ff25	-0.08300618
58	0xbfd5cc32	-1.670294
59	0xbf8ca2b0	-1.0987148
60	0xbfd2b21b	-1.6460603
61	0xbdbf4108	-0.093385756
62	0xbf2a15e1	-0.66439635
63	0x3ef02509	0.46903256
64	0xbf7adaa0	-0.97989845
65	0xbe8efb7b	-0.2792624
66	0xbf2079e8	-0.62686014
67	0xbcbc2aca	-0.022969622
68	0xbffe0fab	-1.9848531
69	0xbee18cf9	-0.44052866
70	0xbf4f04b6	-0.80866563
71	0x3fa036d8	1.2516737
72	0xbc948a5f	-0.018132387
73	0xbd66ef88	-0.05638078
74	0xbec76103	-0.38941202
75	0xbe019e1a	-0.12657967
76	0xbee56ffd	-0.44812003
77	0x3df08c52	0.11745514
78	0x3faa9e5e	1.332958
79	0xbcf59dbf	-0.029982446
80	0x3f08e1d9	0.53469616
81	0x3e92a5d8	0.28642154
82	0xbf4cc2b0	-0.7998457
83	0xbe4b66f5	-0.19863494
84	0xbf4e6831	-0.80627733
85	0xbec571d1	-0.38563398
86	0xbf15c0f3	-0.5849754
87	0x3e1bc711	0.15212657
88	0x3fe62e5c	1.7982898
89	0xbe99ce7f	-0.30040357
90	0xbb8f1cf5	-0.0043674656
91	0xc03e886b	-2.9770763
92	0xbe02d0b3	-0.12774925
93	0xc02ed0b7	-2.731489
94	0x3de4b9d9	0.1116826
95	0x3f63c207	0.8896794
96	0x3ea845f9	0.32865885
97	0xbd23158c	-0.03981547
98	0xc0182083	-2.3769844
99	0xbf51ffde	-0.8203105
100	0xc039b09b	-2.9014041
101	0xc03364c4	-2.8030252
102	0xbf1298ff	-0.57264704
103	0xbd0a502c	-0.033767864
104	0xbf03cdb1	-0.51485735
105	0x3f6c854c	0.92390895
106	0xbe524660	-0.20534658
107	0xbeb37be7	-0.35055467
108	0xbf4353c9	-0.7629972
109	0x3d07ddca	0.0331705
110	0x3d276cbf	0.040875193
111	0xbde5ac12	-0.112144604
112	0xbdde0426	-0.10840635
113	0xbf181e10	-0.5942087
114	0xc0674e98	-3.614172
115	0xbe4e530c	-0.20148867
116	0xbe0c3efa	-0.13695899
117	0xbe4133e1	-0.18867446
118	0xbf3fddbe	-0.74947727
119	0xbd91a956	-0.071123764
120	0xbfba94d8	-1.4576674
121	0x3f5419a6	0.82851636
122	0x3d10c4b5	0.035343844
123	0xbf9318b7	-1.1491917
124	0xbfdb77de	-1.7145956
125	0xbedf622d	-0.4362959
126	0xbd53ed14	-0.051739767
127	0xbe048989	-0.1294309
128	0xbee848b0	-0.45367956
129	0x4018c502	2.3870244
130	0xbfe8f802	-1.8200686
131	0xbeb4933f	-0.3526859
132	0xbec56361	-0.38552383
133	0xbea5a029	-0.32348755
134	0xbdfea503	-0.12433817
135	0xbf58bbfa	-0.8466183
136	0x3f7118e9	0.94178635
137	0xbd1d1281	-0.038347725
138	0xbf8c825c	-1.0977283
139	0xbefad51a	-0.4899071
140	0xbd00e6ed	-0.031470228
141	0xc06e3104	-3.7217417
142	0xbe7e23ac	-0.24818295
143	0xbea36cee	-0.31919044
144	0xbe913b56	-0.28365582
145	0xbec2567e	-0.37956613
146	0x3fb53f5a	1.4159958
147	0xbd95020b	-0.0727578
148	0xbf4a2b49	-0.789723
149	0xc01acd57	-2.418783
150	0xbe5b08dd	-0.213901
151	0x3eb54815	0.35406557
152	0x3b924a86	0.0044644503
153	0xbe872d43	-0.2640172
154	0xbe375a6c	-0.17905587
155	0xbf5bb820	-0.8582783
156	0xbf8e0c58	-1.1097517
157	0xbdbfbf93	-0.09362712
158	0xbccbea5b	-0.024892023
159	0xbf0ac511	-0.5420695
160	0xbcb24d47	-0.021765364
161	0xbedfc652	-0.43705994
162	0xbf368d4c	-0.7130935
163	0x3db3ea2c	0.08784899
164	0xbe1d5987	-0.15366183
165	0xbc3fa09c	-0.011696007
166	0xbfddfb63	-1.7342342
167	0xbc0ce804	-0.008600239
168	0xbe701c09	-0.23448195
169	0x3e8cc08d	0.27490655
170	0x3f986a67	1.1907471
171	0xbeb755f9	-0.3580778
172	0xc0749715	-3.8217213
173	0xbf2ba9ff	-0.6705627
174	0xbcf10d45	-0.029425273
175	0x3e9ad01c	0.302369
176	0xbf340f5e	-0.7033595
177	0xbc0c78df	-0.00857374
178	0x3f1dc6d2	0.616315
179	0xbe4f7f82	-0.20263484
180	0xbd881370	-0.066443324
181	0xbd456b5d	-0.048198093
182	0xbed6be77	-0.41942188
183	0xbbfc4a84	-0.0076993126
184	0xbebea935	-0.3723847
185	0xbe2b0c71	-0.16703965
186	0xbea579f4	-0.32319605
187	0xbf6209bc	-0.88296103
188	0xbf211685	-0.6292499
189	0x3b3cad7f	0.0028789935
190	0xbd2ed09f	-0.042679425
191	0xbd5c3ea6	-0.053770684
192	0xbbf63544	-0.007513674
193	0xbf4f17ad	-0.808955
194	0x3f59ff63	0.85155314
195	0xbe26fc16	-0.163071
196	0xbeac6972	-0.33674198
197	0xbed7af37	-0.42125866
198	0xbe90f088	-0.2830851
199	0xc0262c69	-2.5964606
200	0xbdbd6fba	-0.09249826
201	0x4014ab39	2.3229506
202	0xbe249427	-0.1607214
203	0xbde7b100	-0.11313057
204	0xbffaee7a	-1.9604027
205	0x3ea0d205	0.31410232
206	0xbe4ee5be	-0.20204827
207	0x3daf7033	0.08566322
208	0x3fc7470c	1.5568557
209	0xbe8e4efa	-0.2779463
210	0xbd3a98cc	-0.045555875
211	0xbfb6dfbe	-1.4287031
212	0x3dbe59ee	0.092944965
213	0xbc86dde5	-0.01646323
214	0xc0732bbe	-3.7995448
215	0xbe97a1da	-0.2961567
216	0xbeafbade	-0.34322256
217	0xbddb1710	-0.10697758
218	0x3e159272	0.14606646
219	0xbfc7e070	-1.5615368
220	0xbf1b5c82	-0.6068803
221	0xbe0b0b85	-0.13578613
222	0xbe7b73e2	-0.24555925
223	0xbe6abd6f	-0.22923826
224	0x3e9b8999	0.30378416
225	0xbcf62034	-0.030044653
226	0xbe7127e7	-0.23550378
227	0xbf576f4a	-0.8415419
228	0xbf4306cc	-0.76182246
229	0xbd03de55	-0.032194454
230	0xbe80c643	-0.25151262
231	0xbe609311	-0.21931101
232	0xbebf0a11	-0.37312368
233	0xbf561e74	-0.8364022
234	0xbf2ec2ed	-0.68266183
235	0xbdbce3c4	-0.0922313
236	0xbe80c56a	-0.25150615
237	0xbfd207c6	-1.6408622
238	0x3df280f1	0.11841
239	0xbe205ca3	-0.15660338
240	0xbf7bc76a	-0.98351157
241	0xbea2c765	-0.3179275
242	0x3f2a0db4	0.6642716
243	0xbe85b96d	-0.2611803
244	0xc082379a	-4.0692873
245	0xbe5123df	-0.2042384
246	0x3e188f47	0.14898406
247	0xbe47aa67	-0.19498597
248	0xbec2f899	-0.3808029
249	0xbf56223e	-0.83646
250	0xbe99121b	-0.29896626
251	0xbcd4a9b4	-0.025959827
252	0xbea08b7f	-0.31356427
253	0xbe63af11	-0.22234751
254	0xbe62ff3a	-0.22167674
255	0xbf167829	-0.587771

net.2.weight f4 [256, 256]
0	0xbc96fd32	-0.01843128
1	0xbde06dfd	-0.109584786
2	0x3d294f54	0.04133542
3	0xbebc71bb	-0.3680552
4	0x3e31656c	0.17323846
5	0xbdf06249	-0.117374964
6	0xbe0c6d8a	-0.13713661
7	0xbded48b0	-0.1158613
8	0x3d4629c0	0.04837966
9	0x3cdb7c87	0.026792778
10	0xbe92c57a	-0.28666288
11	0xb9ad7a15	-0.0003308809
12	0x3d70f757	0.05882963
13	0xbbe3e4aa	-0.006954749
14	0x3d6d34ca	0.05791167
15	0xbe4572c9	-0.19282068
16	0x3d20c7cb	0.039253037
17	0xbc21fc8f	-0.009886875
18	0xbe270ebc	-0.16314214
19	0x3d2fabb5	0.042888362
20	0x3df2efd4	0.1186215
21	0xbd2de16e	-0.042451315
22	0xbc8d3399	-0.017236518
23	0x3d9f4bf7	0.07778161
24	0x3e0965e7	0.13417779
25	0xbe32d267	-0.17463075
26	0x3d2f1322	0.042742856
27	0x3d2ffa27	0.042963173
28	0xbb13b63d	-0.0022539042
29	0x3d02807c	0.031860813
30	0xbe2297ff	-0.15878294
31	0xbd22c69b	-0.039740186
32	0xbe818d0a	-0.25302917
33	0xbc836437	-0.016038997
34	0x3d8aaabc	0.06770846
35	0x3e4a645f	0.19764851
36	0xbcaabaa0	-0.020840943
37	0x3d639e37	0.055570807
38	0x3b98ab9c	0.0046591293
39	0xbe02fa96	-0.12790903
40	0xbd1900ca	-0.037354268
41	0xbdee13f1	-0.11624897
42	0x3d8f8bb9	0.07009072
43	0xbec6882f	-0.38775775
44	0x3deebaa4	0.116566926
45	0x3c62c12a	0.013839999
46	0xbd17dfa7	-0.037078526
47	0xbdd5c742	-0.10438396
48	0x3d5c62a9	0.053805027
49	0xbd9ff5a7	-0.07810526
50	0xbc22ada4	-0.009929094
51	0x3dcc3f32	0.09972991
52	0x38d05000	9.933114e-05
53	0x3e7f07e3	0.24905352
54	0x3cc9d0e3	0.024635738
55	0xbd8f4299	-0.06995124
56	0x3e2270c3	0.15863328
57	0x3bc471d2	0.0059950138
58	0x3d7315d4	0.05934699
59	0x3e57f0ca	0.21087947
60	0x3dc2fa98	0.09520453
61	0x3cb0fed5	0.021605888
62	0xbe7d55db	-0.24739783
63	0xbe1a4a79	-0.15067472
64	0x3e49a3f4	0.1969145
65	0xbb1aee85	-0.0023640704
66	0xbe4931c5	-0.19647892
67	0xbc2417e7	-0.010015464
68	0xbd8aca9e	-0.067769274
69	0xbd2f9e14	-0.042875364
70	0x3e88919b	0.26673588
71	0xbdbb81bc	-0.09155604
72	0xbdced094	-0.10098377
73	0xbde69c82	-0.1126032
74	0xbe6d2c8d	-0.23161526
75	0x3bb8ecdb	0.0056434697
76	0x3d18ea87	0.037333038
77	0xbde7f8df	-0.11326765
78	0xbde60b78	-0.11232656
79	0xbe57a203	-0.21057896
80	0x3e25c4b7	0.16188322
81	0xbe00b6de	-0.12569758
82	0xbca40919	-0.02002387
83	0x3d34246d	0.04398005
84	0x3d5f6cb5	0.05454703
85	0x3d013c50	0.03155166
86	0xbd7ff371	-0.062488023
87	0x3be1f276	0.0068953587
88	0xbe83427f	-0.2563667
89	0x3cff07a8	0.03113158
90	0x3cd174d3	0.025568401
91	0x3e79cb38	0.24393928
92	0xbd21df06	-0.039519332
93	0x3c4608ca	0.012087056
94	0xbdb1e920	-0.08687043
95	0xbc0ddb5b	-0.008658255
96	0xbe1def02	-0.15423205
97	0x3cfed45b	0.031107118
98	0xbcffff63	-0.031249708
99	0xbe07a55f	-0.13246678
100	0x3dfb5f5a	0.12274046
101	0x3e9ad1b6	0.30238122
102	0xbe02f36a	-0.12788168
103	0x3c8e161f	0.017344533
104	0xbc147a88	-0.009062417
105	0xbe8a1b87	-0.26974127
106	0xbc90e71b	-0.017688325
107	0x3dbb7189	0.091525145
108	0xbcec43d8	-0.028840944
109	0x3c1af9d3	0.009458977
110	0xbef48663	-0.4775878
111	0x3da7de73	0.08196726
112	0x3d91b92e	0.07115398
113	0xbdc4a4e7	-0.09601765
114	0x3db5ee97	0.08883398
115	0x3d275815	0.040855486
116	0x3cbf7839	0.023372756
117	0x3d7a6278	0.061129063
118	0xbda68edd	-0.08132718
119	0x3cb1993e	0.021679517
120	0x3caca324	0.021073885
121	0xbe136381	-0.14393426
122	0xbd22f9a0	-0.039788842
123	0xbdfea299	-0.12433357
124	0x3df7db40	0.121023655
125	0x3d32fc98	0.043697923
126	0x3d6600cf	0.056153115
127	0xbd0e3255	-0.03471597
128	0x3dac94ba	0.08426805
129	0xbdb6c001	-0.089233406
130	0xbe99262a	-0.2991193
131	0xbc241d95	-0.0100168185
132	0x3b586e04	0.0033024559
133	0xbd6c11fe	-0.057634346
134	0x3cd1ba69	0.025601583
135	0xbe9395f4	-0.28825343
136	0xbd807314	-0.062719494
137	0xbe1c9eb7	-0.1529492
138	0xbe7b6e06	-0.2455369
139	0xbde7793d	-0.11302421
140	0x3c8494d9	0.016184257
141	0x3dcc5020	0.0997622
142	0x3da52078	0.080628335
143	0x3e1f7603	0.15572362
144	0xbe892e4d	-0.26793137
145	0x3cb33438	0.021875486
146	0x3e52953b	0.2056474
147	0x3bd75920	0.006571904
148	0x3e74dc1d	0.23912092
149	0x3cdbc0c9	0.026825326
150	0x3e607239	0.21918572
151	0xbd7712b5	-0.060320575
152	0xbe1fe327	-0.15613995
153	0x3b8be1da	0.004268867
154	0x3d0e1bc0	0.034694433
155	0xbdf2339f	-0.11826252
156	0x3de12791	0.10993875
157	0x3d7e95ed	0.0621547
158	0xbdcfa12b	-0.10138162
159	0xbe21a5ba	-0.15785876
160	0xbdc1aa0a	-0.094562605
161	0x3d99f5c0	0.07517576
162	0x3c9b491f	0.018955765
163	0xbe2d5c6e	-0.1692979
164	0xbed44118	-0.41455913
165	0x3d83dba7	0.0643838
166	0xbd9eb2b0	-0.07748926
167	0xbdafaec2	-0.08578254
168	0x3d14af86	0.036300205
169	0xbe098f4e	-0.13433573
170	0x3ed6238f	0.41824004
171	0xbcd08932	-0.025456045
172	0x3efc8e1d	0.49327174
173	0xbd40ca71	-0.047068063
174	0x3cccde0b	0.025008222
175	0xbe3f4503	-0.1867867
176	0xbde4e87d	-0.11177156
177	0x3c246caf	0.010035678
178	0xbe4fd783	-0.20297055
179	0x3d83e8d7	0.06440895
180	0xbe282712	-0.16421154
181	0xbc3e2bd6	-0.011607131
182	0x3d584f10	0.052809775
183	0xbc9214f7	-0.017832262
184	0xbc121c8b	-0.008917938
185	0xbd07d12b	-0.033158462
186	0x3dd355ff	0.10319137
187	0x3d816ace	0.063191995
188	0x3d021652	0.031759568
189	0xbcda5d4d	-0.026655817
190	0x3c79d907	0.015249497
191	0x3bc9a1e7	0.0061533335
192	0xbe3e0062	-0.18554834
193	0x3d885b3a	0.06658025
194	0xbe4d455e	-0.20045993
195	0x3daa51f3	0.08316412
196	0x3db9492f	0.09047162
197	0xbe708218	-0.23487127
198	0x3d520191	0.051271025
199	0x3e885917	0.2663047
200	0xbbaba2b9	-0.005237904
201	0xbe687356	-0.22700247
202	0x3e54fe82	0.20800212
203	0x3c7b6300	0.015343428
204	0xbe92b198	-0.28651118
205	0xbded1b04	-0.115774184
206	0xbe0f5c7d	-0.14000125
207	0x3c9189b0	0.01776585
208	0xbdddf4c7	-0.10837703
209	0xbcaa396c	-0.020779334
210	0x3d4975bb	0.049184542
211	0xbdaf1685	-0.08549217
212	0xbc8f3189	-0.017479675
213	0xbd81aa00	-0.06331253
214	0x3ea824b0	0.3284049
215	0x3cde416c	0.027130805
216	0xbd1989d4	-0.03748496
217	0xbcb6e000	-0.022323608
218	0xbe0c4695	-0.136988
219	0x3d0da273	0.03457875
220	0xbe58039c	-0.21095127
221	0x3c25a5b3	0.010110307
222	0x3e932f15	0.28746858
223	0xbd6d6e0a	-0.05796627
224	0xbdee817c	-0.11645791
225	0xbd4e5f54	-0.05038388
226	0xbe4e9095	-0.20172341
227	0xbdd3c360	-0.10339999
228	0x3e32a6ef	0.17446493
229	0xbd6dec87	-0.0580869
230	0x3d443c5a	0.04790912
231	0xbc7722c4	-0.015083972
232	0xbd64e1eb	-0.055879515
233	0xbebca74e	-0.36846393
234	0xbe88070d	-0.2656788
235	0x3d65a65a	0.05606685
236	0x3bc6c77a	0.00606626
237	0x3ec7a649	0.38994053
238	0xbccf5ed8	-0.02531378
239	0x3c8efcab	0.017454466
240	0xbe37396a	-0.17892995
241	0x3dbf94ef	0.09354579
242	0x3d1f4c2a	0.038890995
243	0x3d2a5026	0.04158034
244	0x3f0ec68f	0.55771726
245	0xbd125fe8	-0.035735995
246	0x3db86c0e	0.09004985
247	0xbe326c33	-0.17424087
248	0xbcf9151a	-0.03040557
249	0xbdf877ec	-0.12132248
250	0x3d39c657	0.045355167
251	0x3d8c5f68	0.06854135
252	0x3cd21691	0.025645526
253	0xbbf1b8bf	-0.00737676
254	0x3d1e6030	0.03866595
255	0xbc534d15	-0.012896796

net.2.bias f4 [256]
0	0xbd3a434f	-0.045474347
1	0x3bcc0857	0.00622658
2	0x3d0e1eaf	0.03469723
3	0xbd921b3b	-0.071341
4	0xbcbbc257	-0.022919817
5	0xbc9bb95e	-0.019009288
6	0xbd370ad6	-0.04468807
7	0xbdd37829	-0.10325653
8	0xbd756263	-0.059908282
9	0x3ca29107	0.019844545
10	0xbd4d1a32	-0.05007381
11	0xbd780c90	-0.060558856
12	0xbbecab10	-0.0072225407
13	0xbd9a6bc1	-0.07540084
14	0xbdbbd2e9	-0.09171087
15	0x3d2ffa4f	0.042963322
16	0xbc0d95a4	-0.008641634
17	0xbd9245d7	-0.07142227
18	0xbd671ed7	-0.056425896
19	0xbc9bb648	-0.019007817
20	0xbd91367b	-0.070904694
21	0x3d268a09	0.040658984
22	0xbdb6ce5a	-0.08926077
23	0xbd5e46d6	-0.054266773
24	0xbcfb3395	-0.030664245
25	0xbd9c4f21	-0.0763228
26	0x3fabcdb4	1.3422151
27	0xbd4806b0	-0.048834503
28	0xbdaf4aca	-0.08559187
29	0xbcb576f7	-0.022151453
30	0xbc9bbc3d	-0.019010657
31	0x3ca15e89	0.019698398
32	0xbd5d3ddf	-0.054014083
33	0xbcab884a	-0.020939011
34	0x3c33d5c4	0.010976259
35	0xbd3dc37e	-0.046329014
36	0xbc36ef35	-0.01116543
37	0xbd8b0b3b	-0.067892514
38	0x3b760aea	0.0037543126
39	0xbd9eca76	-0.0775346
40	0x3d4bf8a9	0.049797688
41	0x3bc6a634	0.0060622934
42	0xbd02a6b8	-0.031897277
43	0x3d04f107	0.032456424
44	0xbfa3fc66	-1.2811401
45	0xbd8e53fd	-0.06949613
46	0xbda1e6ea	-0.079053715
47	0xbc9c3cda	-0.019071985
48	0xbc9ad53f	-0.018900512
49	0xbd25edc5	-0.040509958
50	0xbc63ada0	-0.013896376
51	0xbd9752f0	-0.07388866
52	0xbd83ba35	-0.064320005
53	0x3b9e673b	0.0048340834
54	0xbf40635e	-0.7515162
55	0xbd6c267c	-0.05765389
56	0x3b35be22	0.0027731736
57	0xbda77e32	-0.08178367
58	0xbd6e4519	-0.058171365
59	0xbd9605e3	-0.073253416
60	0xbd3b1722	-0.045676358
61	0xbd2d5322	-0.04231561
62	0xbd36671b	-0.044531923
63	0xbd3f6dfa	-0.04673574
64	0xbcfcc4ba	-0.030855525
65	0x3d20f045	0.03929164
66	0xbd1fbcf9	-0.038998578
67	0xbdbea01f	-0.093078844
68	0xbdaa052c	-0.08301768
69	0xbb8dbf02	-0.0043257484
70	0xbda511ef	-0.08060061
71	0x3c824343	0.015901214
72	0x3c5d0c4b	0.0134917
73	0xbd8928ef	-0.066972606
74	0x3c69d17d	0.014271137
75	0xbb4bf068	-0.0031118635
76	0xbdb5fc09	-0.088859625
77	0xbaabbe88	-0.0013103047
78	0xbcc3ed5f	-0.023916898
79	0xbba511d9	-0.005037528
80	0xbd8ad794	-0.067793995
81	0xbd8ce2c1	-0.068791874
82	0xbda319e9	-0.07963926
83	0x3d348740	0.044074297
84	0xbd6d9a49	-0.058008466
85	0xbd9560cf	-0.072938554
86	0xbc9ebd85	-0.01937748
87	0xbf4a60d9	-0.7905403
88	0xbd1a45ae	-0.037664108
89	0xbd2b8d10	-0.041882575
90	0xbe8419f4	-0.2580105
91	0x3d73093a	0.05933497
92	0xbdc0974a	-0.09403856
93	0xbc8a1a81	-0.016858341
94	0x3cda44dc	0.026644163
95	0xbea8cd47	-0.32969114
96	0xbdaf9535	-0.08573381
97	0x3c9d386f	0.019191949
98	0xbc9da492	-0.019243512
99	0xbb7c27b0	-0.0038475804
100	0x3d087e49	0.03332356
101	0xbd3983e5	-0.0452918
102	0xbd650d31	-0.055920783
103	0xbd4a87a1	-0.049445752
104	0xbd5b6be5	-0.053569693
105	0xbd681507	-0.05666068
106	0xbd0f5cb5	-0.03500052
107	0xbcd6b65f	-0.026210008
108	0xbbe866e5	-0.007092344
109	0xbbfe3e38	-0.007758882
110	0x3d61fcc1	0.055172686
111	0xbd516910	-0.051125586
112	0xbcdbcb64	-0.026830383
113	0xbc56a7d3	-0.013101536
114	0x3c5effe2	0.013610812
115	0xbd6d6c68	-0.057964712
116	0xba9d9204	-0.0012021665
117	0xbdb509af	-0.088397376
118	0xb8e295b0	-0.00010804401
119	0x3d0ad0f2	0.033890672
120	0xbf1a0e03	-0.6017763
121	0xbd89dcf8	-0.067315996
122	0x3c8401c1	0.016114118
123	0xbdc4717c	-0.09591958
124	0xbc1e9b6e	-0.009680612
125	0xbd644d15	-0.055737574
126	0xbd81b9b4	-0.06334248
127	0xba0c8436	-0.0005360277
128	0x3cc18018	0.02362065
129	0xbc736a71	-0.014856921
130	0xbc9abec9	-0.018889802
131	0x3c077a70	0.0082689375
132	0xbd84eedf	-0.064908735
133	0xbd2d73fc	-0.04234694
134	0xbd55abda	-0.052165844
135	0x3faee5d6	1.366389
136	0xbccc4b48	-0.02493824
137	0xbd394c6e	-0.045238905
138	0xbd97f055	-0.074188866
139	0xbc800b3f	-0.015630363
140	0xbcf0ce52	-0.029395256
141	0x3efa4f04	0.4888841
142	0xbd99eefd	-0.075162865
143	0xbf2b0fec	-0.6682117
144	0xbc5aa1e4	-0.013344262
145	0xbf1f6f63	-0.6227934
146	0xbd592e77	-0.053022828
147	0xbdf2fc36	-0.11864512
148	0x3ed4c11c	0.4155358
149	0xbd0f28cd	-0.03495102
150	0xbd8fd08d	-0.070222
151	0xbda50330	-0.080572486
152	0xbd1d7b51	-0.03844768
153	0xbdceb692	-0.10093416
154	0xbc9a0e40	-0.018805623
155	0xbdd0109c	-0.10159418
156	0xbb5b21ce	-0.0033436897
157	0x3e91f52d	0.28507367
158	0xbd3e8d27	-0.046521332
159	0xbcd53df2	-0.026030514
160	0xbd3a0aec	-0.045420572
161	0xbdb02bd4	-0.086021096
162	0xbd559aa3	-0.052149426
163	0x3f71d8a4	0.9447119
164	0x3c115446	0.00887019
165	0xbddbb646	-0.10728125
166	0xbdfd8dc6	-0.12380557
167	0xbd671763	-0.056418788
168	0xbd889653	-0.06669297
169	0xbc31a3e7	-0.0108423
170	0xbd93b11e	-0.07211517
171	0xbc331be6	-0.0109319445
172	0xbd84fd55	-0.06493632
173	0x3b911c9a	0.0044284584
174	0xbd602d06	-0.054730438
175	0x3efb4c69	0.49081734
176	0xbd90722d	-0.07053027
177	0x3bbf5f3e	0.005840211
178	0xbc4ebc50	-0.012618139
179	0xbcaa0b3e	-0.020757314
180	0xbda9e491	-0.08295549
181	0x3c1311a8	0.008976378
182	0x3ce24c46	0.02762426
183	0x3c6ea3e0	0.014565438
184	0xbd9db2c6	-0.07700114
185	0xbd5873c0	-0.052844763
186	0x3c346cd3	0.011012274
187	0x3d1110f5	0.035416562
188	0xbcbb6db5	-0.02287946
189	0x3c9e79ab	0.019345125
190	0xbd6b626d	-0.057466913
191	0xbd919f31	-0.071104415
192	0xbd08f7be	-0.03343939
193	0x3c7b5877	0.015340916
194	0xbd7b6ce4	-0.061383143
195	0xbd84f0c5	-0.06491236
196	0xbd8e2ab7	-0.06941741
197	0xbcc80d75	-0.02442048
198	0xbc95ba70	-0.018277377
199	0xbd7432a8	-0.059618622
200	0xbd5d55ff	-0.05403709
201	0x3cf70e59	0.030158209
202	0x3c7a12d0	0.015263274
203	0x3d282e78	0.04105994
204	0xbdbbdeae	-0.09173332
205	0x3d209e53	0.03921349
206	0xbcb79694	-0.022410668
207	0xbc1a378c	-0.0094126575
208	0xbc62de31	-0.01384692
209	0x3c94cf07	0.018165125
210	0xbbded8b3	-0.006800735
211	0xbc4e56d9	-0.012593948
212	0xbdb15929	-0.08659584
213	0xbd8a1bf2	-0.067436114
214	0x3988e41c	0.00026109896
215	0x3c46c51b	0.012131955
216	0xbd9d590a	-0.076829985
217	0xbda2f6ae	-0.07957207
218	0xbd75d83a	-0.060020663
219	0xbdebb1d8	-0.115085304
220	0x3cae6fa1	0.021293463
221	0xbd430ada	-0.04761777
222	0xbd85f570	-0.06540954
223	0xbc4c5ec3	-0.012473765
224	0xbd6cfb98	-0.057857126
225	0xbcdb4ac8	-0.026769057
226	0x3c8424c6	0.016130816
227	0xbd9d488f	-0.07679855
228	0x3c2079b5	0.009794642
229	0x3d0aef51	0.033919636
230	0x3b141faf	0.0022601893
231	0xbccab0df	-0.024742542
232	0xbca2ee83	-0.019889122
233	0x3c7e3bf9	0.015517228
234	0xbd1b726d	-0.03795092
235	0xbd6e3ee0	-0.05816543
236	0xbdbae08d	-0.09124861
237	0x3cc3c2e4	0.023896642
238	0xbd5b52fb	-0.053545933
239	0x3cb77827	0.02239616
240	0xbf8fc2b5	-1.1231295
241	0xbdd314e9	-0.10306723
242	0xbd14b1c3	-0.03630234
243	0x3c01176b	0.007879118
244	0xbe35eff4	-0.17767316
245	0xbc91079f	-0.01770383
246	0xbd973f90	-0.073851705
247	0xbc83a76d	-0.016071046
248	0x3f876df9	1.0580436
249	0xbd01ef1b	-0.03172217
250	0xbd53465d	-0.051580776
251	0x3aa74a30	0.0012763198
252	0xbee9cb04	-0.456627
253	0xbd0afdbd	-0.03393339
254	0x3b7b7869	0.003837133
255	0xbe10b127	-0.14130078

net.4.weight f4 [128, 256]
0	0xbd4bd69f	-0.049765225
1	0xbcb33821	-0.02187735
2	0x3d08d9ca	0.033410825
3	0xbc22ec72	-0.009944068
4	0xbd7f9725	-0.062400002
5	0x3c9035c1	0.017603757
6	0xbc8c5323	-0.017129486
7	0x3cd7e4b3	0.02635417
8	0x3d3ad5a9	0.04561392
9	0xbd3e6a0e	-0.04648786
10	0x3da8c278	0.08240217
11	0x3d41c4c9	0.04730681
12	0x3c664403	0.014054301
13	0x3d86f99d	0.06590579
14	0x3d1c0374	0.03808923
15	0x3c927ee5	0.017882774
16	0xbd59513e	-0.053055994
17	0xbd3b3ae2	-0.045710452
18	0x3c671410	0.014103904
19	0xbd8ff40d	-0.07028971
20	0xbc6a1d24	-0.014289174
21	0x3caed398	0.02134113
22	0x3d369299	0.0445734
23	0xbd0a1ab1	-0.03371686
24	0x3d065cc3	0.03280331
25	0xbcafb7d9	-0.02144997
26	0x3d10a0b4	0.03530951
27	0x3c8bacde	0.017050203
28	0x3cc3b955	0.023892084
29	0xbd0930fe	-0.03349399
30	0x3d2b27bb	0.041785937
31	0xbb86d4aa	-0.004114707
32	0xbb8a2508	-0.0042158403
33	0xbb5462ae	-0.003240745
34	0xbcd9f529	-0.02660616
35	0xbce9b31f	-0.028527794
36	0xbcea155a	-0.028574634
37	0x3d58e147	0.052949216
38	0xbd284dd0	-0.041089833
39	0x3d2d50d8	0.042313427
40	0xbdaf5f96	-0.085631534
41	0x3c3e66db	0.011621202
42	0x3cdd99be	0.027050849
43	0x3c3b151b	0.011418606
44	0xbe7df440	-0.24800205
45	0xbc705283	-0.01466811
46	0x3d04cf5c	0.032424316
47	0xbc0a0dcb	-0.00842614
48	0xbc532e24	-0.012889419
49	0xbce64cfc	-0.02811288
50	0xbd791758	-0.060813278
51	0x3d262b93	0.0405689
52	0xbd91e9a9	-0.07124645
53	0x3d010790	0.031501353
54	0xbda986a1	-0.082776316
55	0x3d257b42	0.04040075
56	0x3d5be9ee	0.05368989
57	0xbd9a3d44	-0.07531217
58	0x3c6ec3eb	0.014573078
59	0xbbe6c1bb	-0.0070421374
60	0x3d5bd770	0.053672254
61	0xbd4cfe11	-0.050046984
62	0x3c26347d	0.01014435
63	0xbbc42815	-0.0059862235
64	0xbca2f1f3	-0.019890761
65	0xbd85890c	-0.0652028
66	0xbcab4b3b	-0.020909896
67	0xbd32a2db	-0.043612342
68	0xbda5e08c	-0.080994695
69	0xbd32fde2	-0.043699153
70	0xbbdb2b60	-0.0066885203
71	0xbd4e4bb7	-0.050365176
72	0xb9a40a58	-0.00031288224
73	0x3ca708a9	0.020389872
74	0xbc0d9b51	-0.008642987
75	0xbcbdcbb2	-0.023168419
76	0xbd6f6ffe	-0.058456413
77	0xbc882b75	-0.016622284
78	0x3c81df55	0.015853563
79	0x3d1a330d	0.037646342
80	0x3d23f248	0.04002598
81	0xbca467a1	-0.020068945
82	0xbd6f8939	-0.058480475
83	0x3cd003fe	0.025392529
84	0xbd102b13	-0.03519733
85	0x3d1099e3	0.035303008
86	0x3d829d6c	0.06377682
87	0x3eb03c12	0.3442083
88	0x3ca2daac	0.019879662
89	0x3cbde17d	0.02317881
90	0xbd81217a	-0.06305213
91	0xbd5013dc	-0.05080019
92	0xba5ac839	-0.00083458755
93	0xbd3e47b0	-0.046455085
94	0x3d35b2fc	0.044360146
95	0x3ec8e9cc	0.39240873
96	0xbd4c3d94	-0.049863413
97	0xbc3ad47a	-0.011403197
98	0xbd7ddf24	-0.06198038
99	0xbbf5198a	-0.007479851
100	0xbcad7fdd	-0.021179134
101	0x3d14a7b4	0.036292747
102	0xbda0ee2c	-0.07857928
103	0xbd0aeb71	-0.03391594
104	0x3d5fb036	0.054611407
105	0xbd2454d4	-0.04011996
106	0x3c172506	0.009225136
107	0xbcf1a749	-0.029498713
108	0xbbef8179	-0.0073091355
109	0x3d98b2a3	0.07455947
110	0x3c9d6418	0.019212767
111	0xbd0eb6b4	-0.034842208
112	0xbd26f2c8	-0.040758878
113	0x3d8e7559	0.06955976
114	0xbb41420b	-0.0029488828
115	0x3d545c7c	0.051846012
116	0x3c531ff2	0.012886034
117	0x3d541e8a	0.051786937
118	0xbccff949	-0.025387423
119	0x3d35d240	0.044389963
120	0xbde6ea11	-0.112751134
121	0xbccf0844	-0.025272496
122	0xbca3bdf0	-0.01998803
123	0xbd6812c0	-0.056658506
124	0x3d24b56d	0.040212084
125	0x3ce62fc7	0.028098954
126	0xbd2609cf	-0.040536698
127	0x3cd1aa53	0.025593912
128	0xbd11462e	-0.03546732
129	0x3b031e6b	0.0020007144
130	0xbc93acbc	-0.018026702
131	0xbd78ba68	-0.060724646
132	0x3d8b55e0	0.06803489
133	0x3c85545e	0.016275581
134	0xbd1fea19	-0.039041612
135	0xbcc714c4	-0.024301894
136	0xbd2b1fda	-0.041778423
137	0xbc99328e	-0.018700864
138	0x39598fca	0.00020748298
139	0x3be101d5	0.0068666735
140	0x3d6e8eb7	0.058241572
141	0xbe40dc94	-0.18834144
142	0xbd167b99	-0.036738966
143	0xbd0bc691	-0.034124915
144	0x3d0fa1f1	0.03506655
145	0xbf28d01b	-0.65942544
146	0xbd0e6ffb	-0.03477476
147	0xbd812405	-0.06305698
148	0x3eb5657b	0.35428986
149	0xbd2f34a9	-0.04277483
150	0xbbff3ff0	-0.0077896044
151	0xbcaba099	-0.020950602
152	0xbd693938	-0.056939334
153	0x3d2300d2	0.039795704
154	0x3ca3b09d	0.019981677
155	0x3ce4d661	0.027934255
156	0x3cee5814	0.029094733
157	0x3c962478	0.018327937
158	0x3cb41634	0.021983244
159	0x3d87033e	0.06592415
160	0x3be4a929	0.0069781733
161	0xbd135710	-0.0359717
162	0x3a8b846f	0.0010644327
163	0x3d883831	0.06651343
164	0xbc8539c8	-0.016262904
165	0x3d6f2ce1	0.05839241
166	0x3d5ae9da	0.053445674
167	0xbce307b3	-0.027713632
168	0x3d6713b5	0.05641528
169	0xbc08aefa	-0.008342499
170	0xbd440261	-0.04785383
171	0xbcfb98ef	-0.030712573
172	0x3c891d00	0.016737461
173	0x3c64a3ef	0.0139551
174	0xbd3211f6	-0.04347416
175	0xbd853baa	-0.06505521
176	0xbd642799	-0.055701826
177	0x3c1aa030	0.009437606
178	0x3ce9da6f	0.02854654
179	0x3da5f8a1	0.08104063
180	0x3be8d812	0.0071058357
181	0xbd898c6f	-0.06716239
182	0x3c912ee4	0.017722555
183	0xbcb67d3d	-0.022276515
184	0xbdbc5ed4	-0.091977745
185	0xbd0c8889	-0.034309898
186	0xbca3570c	-0.019938968
187	0x3bd7f332	0.0065902704
188	0x3d54b802	0.051933296
189	0x3bcc8da4	0.006242471
190	0x3d7b8f26	0.061415814
191	0x3cde189b	0.027111342
192	0xbcbb60fe	-0.022873398
193	0xbc018b9a	-0.007906819
194	0x3d6c98f9	0.057763074
195	0xbcdb8889	-0.026798503
196	0x3c46abbd	0.012125907
197	0xbcfdf536	-0.031000715
198	0x3d30878b	0.043098014
199	0xbc983454	-0.01857964
200	0xbd70467c	-0.05866097
201	0xbd05d585	-0.03267433
202	0xbc487716	-0.012235424
203	0xbd43d68a	-0.047812022
204	0xbd2931cc	-0.041307256
205	0x3c6f806c	0.0146180205
206	0x3d44e16a	0.048066534
207	0x3d14ce5c	0.036329612
208	0xbd3a7f9d	-0.045531858
209	0xbac9b3a0	-0.0015388615
210	0xbc946442	-0.018114213
211	0x3d210593	0.039311957
212	0x3d603217	0.05473527
213	0xbd1f376e	-0.03887122
214	0xbcd56b85	-0.026052246
215	0x3cd8469a	0.026400853
216	0xbc809698	-0.015696809
217	0xbd13b0e8	-0.036057383
218	0xbca12bda	-0.01967423
219	0x3b86c4c7	0.004112813
220	0xbd4cdc9d	-0.05001508
221	0x3c9a27b5	0.018817762
222	0x3cca5277	0.024697525
223	0xbb8bd18e	-0.004266924
224	0x3d652688	0.05594495
225	0x3bdb046f	0.006683878
226	0xbc4647e8	-0.012102105
227	0xbefbd86f	-0.49188563
228	0xbdb2d835	-0.087326445
229	0x3d1c25a7	0.038121846
230	0x3d341777	0.04396769
231	0x3d2a824a	0.04162816
232	0x3ab28e28	0.0013622688
233	0x3b985742	0.004649074
234	0x3d1fe536	0.039036952
235	0x3be32178	0.00693148
236	0xbd0c69a3	-0.03428043
237	0xbcbb7304	-0.022881992
238	0xbd37578a	-0.044761218
239	0xbb3cd9d8	-0.0028816368
240	0x3f18115b	0.5940148
241	0x3d6b7799	0.057487104
242	0xbbc3dadd	-0.0059770183
243	0x3cc3d242	0.02390397
244	0x3ecccbf4	0.39999354
245	0x3d911078	0.07083219
246	0x3d854aad	0.06508384
247	0xbd170598	-0.03687057
248	0x3d98972a	0.07450707
249	0xbb8f856c	-0.004379919
250	0x3cddd765	0.027080247
251	0xbd1a2b15	-0.037638742
252	0xbf151abd	-0.58243924
253	0xbd5c1dbb	-0.05373929
254	0xbd2a3b32	-0.04156036
255	0xbd43cb6c	-0.04780142

net.4.bias f4 [128]
0	0xbe7d2f23	-0.24725012
1	0x3e82b792	0.25530678
2	0xbe0ca208	-0.13733685
3	0xbcbcce4c	-0.023047589
4	0xbc69cffc	-0.014270779
5	0xbde220e4	-0.1104143
6	0x3e19c2b6	0.15015683
7	0xbea2eccb	-0.31821284
8	0x3ebdbd18	0.3705833
9	0xbdd03bf7	-0.101676874
10	0xbe7f8d8d	-0.24956341
11	0xbb0daa88	-0.0021616537
12	0xbdf622b3	-0.12018337
13	0x3ea1585a	0.3151272
14	0xbe3f1d1a	-0.18663445
15	0xbd294c41	-0.041332487
16	0xbd36b03d	-0.044601668
17	0xbd6fb029	-0.05851761
18	0x3fa9a855	1.3254496
19	0xbdc6eef4	-0.097135454
20	0x3ed9704e	0.42468494
21	0xbd2b2beb	-0.04178993
22	0xbf3bc5f7	-0.73348945
23	0x3ef37b32	0.47554928
24	0xbd50df50	-0.050994217
25	0xbd72e8c8	-0.05930403
26	0xbe006230	-0.12537456
27	0xbdbcc2a3	-0.092168115
28	0xbd75ad38	-0.059979647
29	0xbd1b69c1	-0.03794265
30	0xbdc7ed60	-0.097620726
31	0xbdb3a053	-0.08770814
32	0xbd9859c0	-0.074389935
33	0xbd04c82c	-0.03241746
34	0xbf90923b	-1.1294626
35	0xbf2428fc	-0.6412504
36	0xbc9df105	-0.019279966
37	0x3ecf7354	0.40517676
38	0x3c4edfd1	0.012626604
39	0x3da7401d	0.081665255
40	0xbe85fb54	-0.2616831
41	0xbcdda151	-0.02705446
42	0xbdf6ab0d	-0.12044344
43	0xbea006b4	-0.31255114
44	0xbd69ce6b	-0.05708162
45	0xbed4840b	-0.4150699
46	0x3f97249d	1.1808048
47	0xbd07c204	-0.033144012
48	0xbe41c7d8	-0.1892389
49	0x3d9f50c3	0.07779076
50	0xbd7043b5	-0.05865832
51	0x3fb3653a	1.4015267
52	0xbd3d8953	-0.04627354
53	0x3ea21502	0.31656653
54	0x3ebea661	0.37236312
55	0x3e70d47a	0.23518553
56	0xbd2d2f3f	-0.042281386
57	0xbd180752	-0.037116356
58	0xbe52ce01	-0.20586397
59	0x3f172fe8	0.59057474
60	0x3db2ecf0	0.087365985
61	0xbe8225de	-0.25419515
62	0xbd0b647c	-0.034031376
63	0xbd640f63	-0.055678736
64	0x3e0017ef	0.1250913
65	0xbcaba5e1	-0.02095312
66	0xbcfe856b	-0.031069478
67	0xbe93c686	-0.288624
68	0xbdad4506	-0.08460431
69	0xbda7c688	-0.08192164
70	0xbff5d9a9	-1.920705
71	0xbe2c8749	-0.16848482
72	0xbe8b34aa	-0.27188617
73	0x3f031af3	0.51212996
74	0x3e1b1c98	0.15147626
75	0xbd01e5d1	-0.03171331
76	0xbc908f9c	-0.017646603
77	0xbd837b8a	-0.064200476
78	0xbf2cad14	-0.67451596
79	0xbda345ab	-0.079722725
80	0x3e770659	0.24123515
81	0xbf02fdb2	-0.5116836
82	0xbd4343e9	-0.047672186
83	0xbf803613	-1.0016502
84	0xbdb4a152	-0.08819832
85	0x3fbb840b	1.4649671
86	0xbe640151	-0.22266127
87	0xbd608880	-0.054817677
88	0xbdca6741	-0.09882975
89	0x3c1362bf	0.008995711
90	0x3f9e868c	1.238481
91	0xbebe44a0	-0.37161732
92	0xbe6767de	-0.22598216
93	0xbd276137	-0.040864196
94	0xbdbe92df	-0.09305357
95	0xbd417fcd	-0.04724102
96	0xbd88b9b1	-0.06676043
97	0xbfa32fbd	-1.2748944
98	0xbfa6cc71	-1.303114
99	0xbe83ac5c	-0.25717437
100	0xbe492ae3	-0.19645266
101	0x3e414b5f	0.18876408
102	0xbd26dd03	-0.040738117
103	0xbdc2704c	-0.09494075
104	0xbe43b597	-0.1911224
105	0xbcd89c9b	-0.026441863
106	0xbd0b271e	-0.033972852
107	0xbe806217	-0.25074837
108	0xbdce3889	-0.10069377
109	0xbeddecb8	-0.43344665
110	0xbe0d215b	-0.13782255
111	0x3ce673c9	0.028131383
112	0xbddd84c5	-0.108163394
113	0xbd8fd99b	-0.07023927
114	0xbdfabc7e	-0.12242983
115	0xbc981c73	-0.018568253
116	0x3fcf9e15	1.6220118
117	0xbe64b8b6	-0.22336087
118	0xbd5d316b	-0.054002207
119	0xbcf6f63c	-0.03014671
120	0xbca2154b	-0.019785544
121	0xbdeade20	-0.11468148
122	0xbe9c8e33	-0.3057724
123	0xbde1ca19	-0.11024875
124	0x3dca33e6	0.0987318
125	0xbd86d0b8	-0.06582779
126	0x3ca27e5d	0.019835645
127	0x3e052c14	0.13005096

net.6.weight f4 [128, 128]
0	0xbde808f6	-0.11329834
1	0xbcd2e69c	-0.025744729
2	0xbd69e89d	-0.057106603
3	0x3caa5a3f	0.020794986
4	0x3d97f40c	0.07419595
5	0x3b10e97f	0.002211183
6	0x3d1c93ef	0.038227018
7	0x3d950d24	0.07277897
8	0xbd916627	-0.07099562
9	0xbc0e809c	-0.008697655
10	0xbd413e7e	-0.047178738
11	0x3d1753b0	0.036945045
12	0xbda7db94	-0.08196178
13	0xbdca2ee3	-0.09872224
14	0xbd7ffda1	-0.06249774
15	0xbd851ee5	-0.06500033
16	0xbc9538d8	-0.018215582
17	0x3d8949e0	0.06703544
18	0x3b9f5378	0.004862245
19	0x3d948f28	0.072538674
20	0xbd12b075	-0.035812814
21	0xbced207a	-0.02894615
22	0xbce280a9	-0.02764924
23	0x3d90f227	0.07077437
24	0x3d7689d4	0.060190037
25	0x3cb5d50a	0.022196312
26	0xbce2057b	-0.027590504
27	0xbd0e11d3	-0.034684967
28	0x3cdd9f46	0.027053487
29	0xbd826239	-0.06366391
30	0xbd538119	-0.05163679
31	0x3d5b0323	0.05346979
32	0x3d5dbc5b	0.054134708
33	0x39713b79	0.00023005706
34	0xbcc623f6	-0.02418707
35	0xbcd32c57	-0.025777979
36	0x3da2b25f	0.07944178
37	0xbaba12d1	-0.0014196282
38	0x3d2a60dd	0.041596282
39	0xba5ee91a	-0.0008503363
40	0xbdb2cdbc	-0.08730647
41	0xbd106b02	-0.0352583
42	0x3cdd739f	0.027032671
43	0xbc43acf8	-0.011943094
44	0xbaad20b8	-0.0013208603
45	0xbdcb4f01	-0.09927178
46	0xbded073c	-0.115736455
47	0xbd534c92	-0.051586695
48	0xbc90bdcc	-0.017668627
49	0xbd594d55	-0.053052265
50	0x3c365f41	0.011131109
51	0x3d06c0ae	0.032898597
52	0x3d74c94d	0.059762288
53	0xbd4efb6e	-0.05053275
54	0xbd53e324	-0.05173029
55	0xbd832a0e	-0.06404506
56	0x3c4756ae	0.012166662
57	0x3d56dce7	0.052456763
58	0xbd42a857	-0.047523823
59	0xbd72d09a	-0.05928097
60	0xbd1af748	-0.037833482
61	0x3b48503c	0.0030565402
62	0xbd57c34a	-0.052676477
63	0x3c2987dd	0.010347334
64	0x3bb87ec3	0.0056303455
65	0xbda55fbd	-0.08074901
66	0xbd40bd0f	-0.0470553
67	0xbd4d9e4c	-0.05019979
68	0xbb04cffe	-0.0020265575
69	0x3d45346e	0.048145704
70	0x3d1ee9af	0.038797077
71	0x3d813379	0.06308646
72	0x3cc4ca3b	0.024022212
73	0x3d2a310a	0.041550674
74	0xbdfc4cdf	-0.123193495
75	0x3cfc2fa6	0.03078444
76	0xbd74e738	-0.05979082
77	0xbd236639	-0.03989241
78	0xba9d5306	-0.0012002892
79	0x3d9f8180	0.07788372
80	0x3d7103a4	0.058841363
81	0xbc794136	-0.015213301
82	0xbd25bc87	-0.040462997
83	0x3d8cd394	0.06876293
84	0x3d8771e7	0.06613522
85	0xbc788e24	-0.015170608
86	0xbca37fe6	-0.019958448
87	0xbcb0e116	-0.021591704
88	0xbb917aa9	-0.004439671
89	0x3c20f97f	0.0098251095
90	0xbdfd17d9	-0.12358064
91	0x3d7e05cf	0.06201726
92	0xbdd172ec	-0.10226998
93	0xbd7ff23b	-0.06248687
94	0x3da29ae1	0.07939697
95	0x3cc8d3a6	0.024514984
96	0x3c70d1bd	0.014698443
97	0x3c994a53	0.018712198
98	0x3d1e6dae	0.038678817
99	0x3ca9d16b	0.020729741
100	0x3ce92065	0.02845783
101	0x3c21634b	0.009850333
102	0xbd8c95ea	-0.06864531
103	0x3d5d7bf8	0.054073304
104	0xbdb0fba1	-0.086417444
105	0xbc24aa86	-0.010050422
106	0x3b50b091	0.0031843523
107	0x3d3f19a5	0.046655316
108	0xbcf04b50	-0.029332787
109	0xbd604e7d	-0.054762352
110	0xbc6f72d7	-0.014614782
111	0xbd6a4dbb	-0.057203036
112	0x3d80157e	0.06254099
113	0x3be3b910	0.0069495514
114	0x3d61316e	0.05497878
115	0x3b1e9b77	0.002420155
116	0xbdb73c9e	-0.08947109
117	0xbd0b4dd1	-0.03400976
118	0x3d95eb12	0.07320227
119	0xbd27d6f8	-0.040976495
120	0xbdbb0a19	-0.09132785
121	0x3d6d5439	0.05794165
122	0xbdd34cbc	-0.1031737
123	0x3b07773b	0.0020670432
124	0x3d17f874	0.037102178
125	0xbd6ee1a8	-0.05832067
126	0xbdabd2c6	-0.08389811
127	0x3d0387cb	0.032111924
128	0xbd5804ae	-0.052738838
129	0xbcbf0a2b	-0.023320278
130	0xbd0e728a	-0.0347772
131	0xbd1ccfb5	-0.038284022
132	0x3d229470	0.039692342
133	0x3d9971be	0.07492398
134	0xbe09f4b9	-0.1347226
135	0xbd256187	-0.040376212
136	0xbdda8b85	-0.106711425
137	0xbcf814a4	-0.03028328
138	0x3c91ee46	0.017813813
139	0x3c95491f	0.018223343
140	0x3dada81a	0.084793285
141	0xbe1bc6f7	-0.15212618
142	0xbd94ddd8	-0.07268876
143	0xbd47703a	-0.048691012
144	0xbd39ff8c	-0.045409724
145	0x3cf505e0	0.029910028
146	0xbd23ff57	-0.040038433
147	0xbc78d2ce	-0.0151869785
148	0x3ceacaa0	0.028661072
149	0x3cdc0606	0.026858341
150	0x3d1f9ca7	0.038967755
151	0xbd84d4fa	-0.064859346
152	0x3cf516fc	0.029918186
153	0xbd8136d3	-0.06309285
154	0xbca9f3af	-0.02074608
155	0x3d8bce2e	0.06826435
156	0xbd62aac8	-0.05533865
157	0xbb5b4fb3	-0.0033464252
158	0x3d55f1d5	0.052232582
159	0x3cabddaa	0.020979721
160	0xbc59cb3a	-0.013293082
161	0xbd74018b	-0.059571784
162	0x3d170f34	0.036879733
163	0x3cf826d7	0.030291958
164	0x3c941f20	0.018081248
165	0xbdaf5ba6	-0.085624024
166	0x3d1f2ae0	0.03885925
167	0xbd9f03f6	-0.07764427
168	0x3d4be2cf	0.04977685
169	0xbd117f37	-0.035521712
170	0xbd171e1b	-0.036893945
171	0xbccaafa1	-0.02474195
172	0xbc46091e	-0.012087135
173	0xbc46e517	-0.01213958
174	0xbd7ce5c2	-0.06174255
175	0xbd25ece6	-0.040509127
176	0xbcdfc7ea	-0.027317006
177	0xbe07c2b6	-0.1325787
178	0xbd2c6135	-0.04208489
179	0xbc9cacf2	-0.019125436
180	0xbcc6df2f	-0.024276344
181	0xbdfa037c	-0.12207696
182	0xbd2ba0e3	-0.04190148
183	0xbdcda928	-0.100420296
184	0xbd1bf48a	-0.038075007
185	0xbd9c5f08	-0.07635313
186	0xbd76efdd	-0.060287345
187	0xbe1fbb22	-0.15598729
188	0xbe21966d	-0.15780039
189	0x3b6da544	0.0036261836
190	0xba876a88	-0.0010331431
191	0xbd948e22	-0.07253672
192	0xbe0f8510	-0.14015603
193	0xbc81bc18	-0.01583676
194	0x3d34dab1	0.044153873
195	0xbdafe6a0	-0.0858891
196	0xbca2fcb3	-0.019895887
197	0x3dc1109b	0.09426995
198	0xbd2bf884	-0.04198505
199	0x3d932b62	0.07186009
200	0x3d811583	0.06302931
201	0xbe1e1ff0	-0.1544187
202	0xbe5634de	-0.20918605
203	0x3d2fb9aa	0.042901672
204	0xbd968426	-0.07349424
205	0x3d2b77b5	0.04186221
206	0xbe462488	-0.19349873
207	0x3d67935c	0.056537017
208	0x3c0cde5f	0.008597939
209	0xbddda3a2	-0.10822226
210	0xbd951639	-0.07279629
211	0x3d5f9585	0.054585952
212	0xbdb2cfff	-0.08731078
213	0xbcb7ec72	-0.022451613
214	0x3da7f6bc	0.08201358
215	0x3c4f6984	0.012659434
216	0x3cc38283	0.023865944
217	0xbd681d3c	-0.056668505
218	0xbe27c6f5	-0.1638449
219	0xbd8fffcb	-0.070312105
220	0xbcf3ec72	-0.029775832
221	0xbb92a441	-0.004475147
222	0xbd89490f	-0.06703388
223	0x3dbb4c32	0.091453925
224	0xbd8f328b	-0.06992062
225	0x3de0d85f	0.109787695
226	0x3c9cd6c6	0.01914538
227	0xbd2f38ee	-0.0427789
228	0x3ba4f5ff	0.005034208
229	0xbd8d5bf1	-0.06902302
230	0x3ac34373	0.0014897421
231	0x3d20497f	0.03913259
232	0x3d52c6e2	0.0514592
233	0xbd6004c9	-0.054692063
234	0x3da249e7	0.07924252
235	0x3dc5bad0	0.09654772
236	0x3c8da282	0.017289404
237	0xbe3af635	-0.18257983
238	0x3d5413e1	0.05177677
239	0xbcf9f383	-0.030511623
240	0x3cc2d8fa	0.023785103
241	0x3d230390	0.03979832
242	0x3d55f514	0.052235678
243	0x3d347114	0.044053152
244	0xbda1ef13	-0.07906928
245	0xbc4a1fd2	-0.012336688
246	0x3c35be8e	0.011092795
247	0x3dc775b7	0.09739249
248	0x3e0ffbc5	0.14060886
249	0xbd0065f4	-0.03134723
250	0xbc9ca185	-0.019119987
251	0x3c92d50e	0.017923858
252	0xbdc7751d	-0.097391345
253	0x3d363186	0.044480823
254	0xbe3469e4	-0.17618519
255	0x3dadb9b8	0.08482689

net.6.bias f4 [128]
0	0x3c2c0962	0.010500284
1	0x3ebc9a71	0.3683658
2	0x3cef0e98	0.029181764
3	0xbdda8a2a	-0.10670884
4	0x3f4d8ac0	0.8028984
5	0x3dfab650	0.122418046
6	0xbbfe9881	-0.0077696447
7	0x3e712936	0.23550877
8	0xbd4b5b30	-0.04964751
9	0xbddfbaab	-0.10924276
10	0x3e3c6a33	0.18399887
11	0xbdac0b63	-0.08400609
12	0x3ea01d95	0.3127257
13	0xbdf99ee5	-0.1218851
14	0xbd69fe71	-0.05712742
15	0x3cf7d18f	0.030251293
16	0x3bf40c5f	0.007447764
17	0x40056b6e	2.084682
18	0x3ff06e61	1.8783685
19	0xbde2cc6f	-0.11074149
20	0xbdadd362	-0.08487584
21	0x3d1060f1	0.0352487
22	0x3e001b81	0.12510492
23	0x3cb000e8	0.021484807
24	0xbd416b8e	-0.047221713
25	0x3c113d49	0.008864709
26	0x3daa2bfa	0.08309169
27	0x3f697833	0.91199034
28	0xbd47ed4d	-0.048810292
29	0xbd9c3a8d	-0.07628355
30	0x3e18ab8a	0.14909187
31	0x3ca640f2	0.02029464
32	0x3f127a42	0.572178
33	0xbd4fc82d	-0.050728012
34	0x3deb3f00	0.11486626
35	0xbd84f015	-0.064911045
36	0xbd0608a9	-0.032723103
37	0x3f01058d	0.50399095
38	0xbd5edede	-0.05441176
39	0x3dbb08c5	0.09132532
40	0xbded7441	-0.11594439
41	0x400c0675	2.187894
42	0x3b6fbd5c	0.0036581373
43	0x3debe274	0.11517802
44	0x3dacfd49	0.08446748
45	0x3ea0ea08	0.31428552
46	0x3d0417ce	0.032249264
47	0xbc13ccf3	-0.009021032
48	0xbd83b09f	-0.06430172
49	0x3ded3ee1	0.11584259
50	0xbebb5e5f	-0.36595437
51	0xbd645a66	-0.055750273
52	0xbd31125d	-0.043230403
53	0xbda38441	-0.0798421
54	0x3e61426d	0.21997996
55	0x3d7554ba	0.059895255
56	0xbcd08a9f	-0.025456725
57	0xbde72891	-0.11287034
58	0x3db7db67	0.089773946
59	0x401250e9	2.2861884
60	0xbda66545	-0.081247844
61	0x3dc4520e	0.09585963
62	0xbda007a9	-0.07813961
63	0xbd652cd6	-0.055950962
64	0x3d5d5001	0.054031376
65	0xbd7c176e	-0.06154578
66	0xbded8b02	-0.11598779
67	0x3e95c167	0.29249117
68	0x3e732d3d	0.23747726
69	0x3d977256	0.07394855
70	0x3cd18b58	0.02557914
71	0xbdc19086	-0.09451394
72	0xbd4be27a	-0.04977653
73	0xbdf70857	-0.120621376
74	0xbd2fce67	-0.04292145
75	0x3da50328	0.08057243
76	0xbce10bb7	-0.027471406
77	0x3c51db75	0.01280867
78	0xbd3082be	-0.043093435
79	0x3f058fbc	0.52172446
80	0xbdd36f9a	-0.10324021
81	0x3d16a897	0.036781874
82	0xbd0d7ef3	-0.034544896
83	0xbca53189	-0.020165222
84	0x400dc000	2.2148438
85	0x3ea10467	0.3144867
86	0x3df1aace	0.118001565
87	0x3d601e2d	0.054716278
88	0x40037da2	2.054543
89	0xbcec8faa	-0.028877098
90	0x3c48500c	0.012226116
91	0xbaf61f91	-0.0018777718
92	0xbd3287cd	-0.04358654
93	0x3dee0fd7	0.11624115
94	0xbc906ee4	-0.017631002
95	0xbcd82867	-0.026386453
96	0x3ef7db44	0.48409474
97	0x3d2e9969	0.042626772
98	0x3e35c6a3	0.17751555
99	0xbd57d50b	-0.052693408
100	0xbdcf9951	-0.10136665
101	0x3f275b6d	0.6537388
102	0xbca1a68a	-0.019732732
103	0x3e24667a	0.16054717
104	0xbd29d8dd	-0.041466583
105	0x4019a363	2.4005973
106	0x3d9f7e17	0.077877216
107	0xbd061c19	-0.03274164
108	0x401f5b60	2.489952
109	0xbdc31700	-0.09525871
110	0x3eae5d7c	0.34055698
111	0x3c09752c	0.008389752
112	0xbcd6e4f0	-0.026232213
113	0x3d34c8c2	0.04413677
114	0x3d0441d3	0.032289337
115	0xbd817554	-0.06321207
116	0xbde59e87	-0.11211877
117	0xbd06ca42	-0.03290773
118	0xbd0bb12b	-0.034104507
119	0xbdaa2d16	-0.08309381
120	0x3e541040	0.20709324
121	0xbcc450da	-0.023964334
122	0xbd91a797	-0.07112043
123	0xbcdef405	-0.027215967
124	0xbcc3f8fe	-0.02392244
125	0x3e8d106d	0.27551594
126	0xbc8949ae	-0.016758766
127	0xbd82f20b	-0.06393822
