prediction_model_test_muscle_blood/surrogate_model/small_ANN_model.pth (torch, 476939 bytes, 10 tensors)

net.0.weight f4 [256, 10]
000000 d6 8e 83 be 12 aa cc be ad ba 97 3f 25 d0 0f bd
       -0.25694913 -0.39973503 1.1853844 -0.03511061
000010 eb a8 cf 3d e0 58 11 bf 98 4f ae bd 6b c0 ab 3f
       0.101396404 -0.5677624 -0.08511275 1.3418096
000020 f9 17 b0 3b 57 30 3a ba d4 94 c0 be 9c ac 8d bd
       0.0053739515 -0.000710254 -0.37613547 -0.06917688
000030 b6 e9 85 bd 58 cd 87 3d 74 df 29 3d 80 65 16 3e
       -0.065387174 0.06630963 0.041472867 0.14687157
000040 40 a3 1e 3e f9 13 44 be 94 87 6a be 64 bb 1f be
       0.15491962 -0.19148244 -0.22903281 -0.15598828
000050 65 b5 46 bf b4 89 dd be 64 c3 f6 bd c3 8c a1 bd
       -0.77620536 -0.43269122 -0.120489866 -0.07888176
000060 de 84 9a 3d 63 c9 a2 bd 52 fb 95 3f 69 50 84 3d
       0.07544874 -0.07948568 1.1717322 0.064606495
000070 25 eb 3b 3c cf 40 a7 3a e7 5f e7 3f 78 74 e5 bf
       0.011469637 0.0012760403 1.8076142 -1.7926168
000080 35 bb 00 3f 51 59 90 3d 02 f5 87 be 69 d0 4a 3d
       0.50285655 0.07048286 -0.26554114 0.04951516
000090 be b5 d3 3d a0 7d 96 3d 3a a4 80 3b 00 2b b6 bb
       0.10337399 0.0734818 0.0039258273 -0.005559325
0000a0 ff 39 f8 bd 42 32 01 3e 48 3b 67 be c0 d1 5b 3e
       -0.12120437 0.12616828 -0.22581208 0.21466732
0000b0 9e e7 64 be 5d df da 3e 6c 5a dc 3e 76 13 03 bd
       -0.2235398 0.42748538 0.43037736 -0.03200098
0000c0 a0 78 94 bb b9 e8 3c ba dc 96 3b 3e 01 db 41 be
       -0.004530981 -0.0007206309 0.18319267 -0.189312
0000d0 fa 1b 6e bc 80 0e 80 3d f4 35 dd bd 51 7c 80 3d
       -0.014533037 0.06252766 -0.10801306 0.062737115
0000e0 35 a8 d8 bd 8b c9 ca be 51 98 c9 3b 97 ed 8e 3d
       -0.10578958 -0.3960689 0.0061521907 0.069789104
0000f0 25 2f a5 bc a5 29 8d 3e 61 55 77 3e e1 4f 26 3d
       -0.020164082 0.27570835 0.24153663 0.040603522
000100 8e 0c 10 3e b4 30 1a bf 1d a2 e2 be b0 e3 58 bf
       0.14067289 -0.60230565 -0.44264308 -0.84722424
000110 bb ae a5 be cf f4 5c bf 88 74 2f 3d b6 09 87 be
       -0.3235987 -0.8631105 0.042835742 -0.26374596
000120 6b 34 70 be 1c 75 ad be 5b a0 1b 3d 8f 30 ac 3d
       -0.23457496 -0.3387841 0.037994724 0.08407699
000130 a5 e2 0d be 87 95 15 be 84 40 a9 3c 18 3f b6 be
       -0.1385599 -0.14607821 0.020660646 -0.35595012
000140 05 41 bc 3e 76 a7 8d 3e 3d d3 4c 3e 5e 8e 36 3c
       0.36768356 0.27666825 0.20002456 0.011142341
000150 e0 22 a4 3c fa 8b 79 bd 84 4f 61 bb bf 25 8c 3c
       0.020036161 -0.060924508 -0.003437967 0.017107842
000160 c6 bb b9 bb 5c d0 7f ba 7b 50 e7 c0 b8 7c 0e 40
       -0.0056681363 -0.0009758526 -7.2285743 2.2263622
000170 a6 42 3d c0 72 d9 86 3f 7e 81 88 3f c7 ee 00 3e
       -2.957193 1.0535109 1.0664518 0.12591086
000180 87 29 a2 3d 87 8f 35 3e dd 90 a1 39 f5 5e a3 3a
       0.07918077 0.17730533 0.00030816245 0.0012464212
000190 60 af 4d be a8 14 31 be 23 a7 26 3e a4 20 0f 3e
       -0.20086432 -0.17293036 0.16274695 0.13977295
0001a0 ff f9 e1 be 66 ff 74 3d 92 c4 18 be fb 8d 14 be
       -0.44136044 0.05981388 -0.14918736 -0.14507286
0001b0 cc b2 9d 3c fc db 8b be 6f a3 b7 bf 8a a5 d2 bd
       0.019250296 -0.27316272 -1.4346751 -0.1028548
0001c0 7e c6 0d be 05 41 c0 3d c2 0a c3 bd 13 18 db 3f
       -0.1384525 0.093874015 -0.09523536 1.7116722
0001d0 8d e3 49 bd 61 2f 24 be 2c 18 ba 3a be a9 12 3a
       -0.049289275 -0.16033699 0.0014197878 0.00055947516
0001e0 36 82 ae bd 40 fe 83 be c4 bd 80 bd d7 82 67 3d
       -0.085209295 -0.25779915 -0.06286195 0.056521263
0001f0 f0 00 fa bd 40 56 0f 3d f1 f6 ab 3d 69 5b 2c 3e
       -0.1220721 0.034994364 0.0839671 0.16831745
000200 00 cc 08 be 23 a9 18 be 9c e2 d9 3d 84 97 c2 bc
       -0.1335907 -0.1490827 0.106389254 -0.023753889
000210 89 e4 cb 3b 10 54 51 be 0e 80 2d 3e 6f f4 a7 bb
       0.006222312 -0.20442224 0.1694338 -0.0051255743
000220 de 48 ba be aa 37 d5 3c de 60 a1 3b 11 7c 20 be
       -0.36383718 0.02602752 0.0049248775 -0.15672328
000230 25 b3 5b c0 bc 6c 0c c0 cf a7 b2 3e 7f d1 11 3d
       -3.432809 -2.1941366 0.34893653 0.03560018
000240 90 04 ca be 73 02 54 bb ce 9c 1d 3c 7f 72 dd 3b
       -0.39456606 -0.0032350093 0.009619905 0.0067580338
000250 67 6d 6b ba df 53 90 bb 8d f3 2f 3e ed b9 b7 bd
       -0.0008980841 -0.0044045295 0.17182751 -0.089710094
000260 f8 05 2f be d4 fb 09 bc d1 a6 97 be f6 49 64 be
       -0.1709212 -0.008421857 -0.29619458 -0.22293839
000270 da 24 e3 3d 90 3d 8d bd 06 f0 06 be c2 af d1 bb
       0.11091013 -0.06896508 -0.13177499 -0.006399126
000280 e9 f2 ba 3d 03 96 4b be 92 1e f0 bd 57 2f 2d bd
       0.09128363 -0.19881444 -0.11724581 -0.042281475
000290 bd 62 25 be db 0d dd 3d 2e 45 38 be 8f 45 a6 bd
       -0.16150947 0.10793658 -0.1799514 -0.08118736
0002a0 17 f1 7b bc 3b cd c3 be 09 e9 07 be cf 21 35 3d
       -0.0153773045 -0.38242516 -0.1327249 0.044221696
0002b0 12 bd 91 3d 33 02 18 3d 22 a9 3d be 86 46 ac 3d
       0.071161404 0.037111472 -0.1852155 0.08411889
0002c0 0d 07 9b bd ac 68 08 be 9e 3a e4 be 6e 74 bb 3d
       -0.07569704 -0.13321179 -0.4457597 0.091530666
0002d0 3d 53 45 c0 fa 6e 07 40 76 34 d0 bf e4 64 4c 3f
       -3.0832055 2.1161485 -1.626601 0.79841447
0002e0 02 24 ae 3f b2 9b d6 ba 7c 82 bd 3b 87 0b 17 bd
       1.3604739 -0.0016373305 0.005783377 -0.036876228
0002f0 a2 05 fd 39 e2 d3 c5 bb 0d 4c 8f 3e 41 86 01 3c
       0.00048260117 -0.0060372213 0.2798771 0.007905544
000300 ef 42 85 bf c2 fd 10 bd 2f 23 c5 3d 12 e4 5b 3c
       -1.0411052 -0.035398252 0.09625851 0.013421075
000310 ff e4 27 bf 13 75 5e 3d 37 af f5 3c 20 71 6b b8
       -0.65583795 0.05431087 0.029990776 -5.6133722e-05
000320 59 8e 42 bd e2 53 e8 3d 23 e6 13 c0 0a f2 b1 bd
       -0.047499035 0.113441244 -2.3109214 -0.086887434
000330 3a 57 dc 3d fb 87 2c 3e 15 77 43 3e e7 f3 15 3f
       0.10758825 0.16848747 0.19088395 0.5857529
000340 a2 95 e7 bc 31 00 62 3b 28 15 56 bd 1b fc dd bc
       -0.028269593 0.0034484977 -0.05226627 -0.027097752
000350 ef c5 99 be 80 ab 32 be 21 3e 94 3d e8 21 20 be
       -0.30033824 -0.17448235 0.07238413 -0.15637934
000360 d3 c6 54 be bb 05 6a 3b df ad a2 3c b3 6a a8 be
       -0.2077897 0.0035708982 0.019858299 -0.32893905
000370 0d 73 af 3e 60 1e a7 3e de 19 a0 3d 46 3c 5b 3d
       0.34267464 0.32640362 0.07817434 0.053524278
000380 0f e6 53 bd 12 2f 8d bd 6d 32 b7 be f4 52 ac bd
       -0.051733073 -0.068937436 -0.3578066 -0.084142596
000390 97 e9 01 3b 23 21 a9 ba cc 82 33 3e 13 23 e4 3e
       0.0019823068 -0.0012903552 0.17530364 0.4455801
0003a0 4e 86 34 3e 07 6a 34 bd a3 75 13 3d 27 25 3e be
       0.17629358 -0.044046428 0.03600086 -0.1856886
0003b0 4f f0 bd bf c9 68 27 c0 32 be e4 bc 94 ec dc bb
       -1.4838961 -2.6157706 -0.027922723 -0.0067420695
0003c0 d6 70 9a bf b9 c7 3d 3f 9a f9 44 40 3b fd 84 3f
       -1.2065685 0.7413288 3.0777345 1.038978
0003d0 11 ec 9a 3f 25 59 e5 3b fe 10 08 bd 1b 6f e2 3c
       1.2103292 0.0069991522 -0.03321933 0.02764087
0003e0 d6 c3 1d bc bc 42 cf bb c2 87 14 bf 6e 40 30 40
       -0.00962921 -0.006325094 -0.5801965 2.7539325
0003f0 d3 4c 29 c0 08 7f e4 bf 60 c2 ff bf 4b 3b 88 3d
       -2.645314 -1.7851267 -1.9981194 0.06651934

net.0.bias f4 [256]
000000 cf 5f 8b bf ec 4e d6 be bb 6c 21 bf d4 cc a3 bf
       -1.0888613 -0.41857088 -0.63056535 -1.2796884
000010 15 3c 80 be 39 51 a6 be a2 ca 33 bf 3f 99 17 be
       -0.2504584 -0.32483843 -0.7023107 -0.14804552
000020 db 5a 7c be 9a 6a 4b c0 4c 32 8a be 91 13 57 bf
       -0.24644034 -3.1783814 -0.26991498 -0.8401423
000030 37 7b cc be c6 07 17 be c4 5f 95 3f 7b 1c 91 be
       -0.39937755 -0.14749059 1.166985 -0.2834204
000040 57 c7 5a be 16 21 9e be b3 5d 09 c0 35 86 a9 bc
       -0.21365105 -0.30884618 -2.146344 -0.020693878
000050 19 39 cf be 04 71 f0 bc 7d 0f 56 be 40 7b ae bd
       -0.4047325 -0.029350765 -0.20904346 -0.08519602
000060 40 15 9a c0 3d d4 cb bf 92 33 b8 3e ca 9c be bd
       -4.815094 -1.5924145 0.35976845 -0.09307249
000070 b3 df 9c bf 56 ea 0e be 5a 4f d3 3e 9a 9f 81 3f
       -1.2255768 -0.1395658 0.41271478 1.0126832
000080 e4 65 9b be 03 0f ce be e0 ad a1 3e 04 fe b0 bf
       -0.30351174 -0.40245828 0.3157797 -1.382752
000090 11 10 2c 3e ab 32 cb be e5 cd 26 3e 17 2c 8e 3e
       0.16803004 -0.39687094 0.1628948 0.27768013
0000a0 47 1e 3a 3e ca 5e 31 3e 39 67 b0 be 9a f7 7f c0
       0.18175612 0.17321315 -0.34453753 -3.9994874
0000b0 af 01 a4 bd aa 23 43 be e1 94 bb 3d ad c8 d4 be
       -0.080081336 -0.19056574 0.09159256 -0.41559353
0000c0 21 ab e3 bd e8 b0 1c bb 86 b4 39 be 39 94 68 be
       -0.111166246 -0.0023909155 -0.1813527 -0.22712792
0000d0 9a 1e 04 3e 36 4d 78 be 40 d0 ec bd 4f 4a 4d bf
       0.12902299 -0.24248204 -0.11563158 -0.8019151
0000e0 51 c8 aa 3f 75 99 91 be 05 b4 df bf cc 13 33 bd
       1.3342382 -0.2843739 -1.7476813 -0.04372005
0000f0 87 b1 36 be bf f2 a2 bc dd d4 9a bf 19 1c 38 bf
       -0.17841159 -0.019891141 -1.2096211 -0.71917874
000100 1f 1d a3 3e b6 0d 8b be bc c7 ae bb 02 b7 19 bf
       0.31858155 -0.27158898 -0.005333869 -0.6004487
000110 d3 2c 12 be e5 36 67 bd 01 a8 08 bc 65 d2 87 bf
       -0.14274912 -0.056448836 -0.0083408365 -1.0611082
000120 28 f8 3e bf f1 56 7e bf 44 6d aa bf 48 0f 91 be
       -0.74597406 -0.9935141 -1.3314595 -0.2833197
000130 b3 ad 2f be 42 37 aa bf 74 d1 5c 3e ea 7e 58 be
       -0.17156105 -1.3298113 0.21564275 -0.21142164
000140 a8 ad e7 be 49 7c b8 be 18 5f 3e bf 15 67 8b 3f
       -0.45249677 -0.36032322 -0.7436385 1.0890833
000150 d0 15 24 c0 48 0a d3 be 7b 62 c2 be 58 4a 26 be
       -2.5638313 -0.4121878 -0.3796576 -0.16239297
000160 b0 2e 61 c0 5b ce 01 bf 84 26 11 c0 34 d9 5f 3f
       -3.5184746 -0.507055 -2.2679758 0.874408
000170 fa 14 6e 3c cf 84 50 3d 6e f3 09 be ea 83 41 bf
       0.014531368 0.050907906 -0.13471767 -0.7559191
000180 72 e4 64 be 19 ad 4d c0 0c 95 d6 bd 11 d3 03 bf
       -0.2235277 -3.21369 -0.10477647 -0.51493937
000190 9f de 3e ba b9 04 74 be 94 1d f8 bf 2c 8b 8e 3f
       -0.0007281098 -0.23829927 -1.9384027 1.1136222
0001a0 0a f4 cd be e6 3e 75 be 5f 38 b2 be 33 f2 0a c0
       -0.4022525 -0.23949775 -0.34808633 -2.1710327
0001b0 bf 7a 80 3f 28 9b 0a c0 36 fa dd 3e ab c7 36 be
       1.0037459 -2.16572 0.43354958 -0.17849605
0001c0 a5 23 0c be f5 2a 8f be 7b 46 e5 be 63 c5 a1 bf
       -0.13685472 -0.2796246 -0.44780335 -1.2638363
0001d0 05 5f aa bd 0f 37 41 3f ab 2d ba bf cf 61 d2 be
       -0.08318905 0.7547464 -1.4545187 -0.41090247
0001e0 8f ad da bc b4 2c 0b bf 09 ce 92 3e 04 f3 ce 3f
       -0.026694087 -0.54365087 0.28672817 1.6167912
0001f0 e8 e2 41 be 48 fb 9d be 31 0b 17 c0 2e 55 bc bd
       -0.18934214 -0.30855775 -2.360058 -0.09195934
000200 8f a2 46 3f cb c6 94 3e c1 59 dc bf 06 00 c0 bf
       0.77591795 0.29057917 -1.7214891 -1.5000007
000210 41 11 84 be 1b 7c 9e 3f 34 08 fa bd 9b 41 e5 bf
       -0.25794414 1.2381624 -0.12208596 -1.7910646
000220 aa a6 48 bf de 94 3d 3f d4 b7 e0 be b2 cb 1c bd
       -0.7837931 0.7405528 -0.4389025 -0.038280196
000230 a1 83 c8 bf 6d f9 af be ee 0f 3d bd 2c 33 61 3f
       -1.566517 -0.34369984 -0.04615777 0.8796871
000240 45 8b da be ff 10 8c be 39 72 24 be f8 5c 15 3f
       -0.4268438 -0.27356717 -0.16059197 0.58344984
000250 f3 22 26 bf 84 6f 4d bd f8 00 b6 bf 36 6f b9 3d
       -0.6489708 -0.050155178 -1.4219046 0.09054415
000260 4d 52 64 bd 86 db f2 bc 0f 78 73 3d c4 98 47 3f
       -0.05574255 -0.029645693 0.05944067 0.77967477
000270 41 78 cf bd b0 cb 93 3d 38 fe f2 bd 23 ce ee be
       -0.101303585 0.07216585 -0.11864895 -0.46641645
000280 85 a4 1c c0 83 82 af bf 46 a9 46 bd 26 26 c8 bb
       -2.4475415 -1.3711704 -0.048501275 -0.0061080633
000290 d8 be 98 3e 35 ef 78 bf 87 e5 47 3f b9 5a 24 c0
       0.29833102 -0.9724 0.78084606 -2.5680373
0002a0 1b b8 19 3d 54 d0 c7 3e bb c8 8e be 62 b4 be be
       0.037529092 0.3902613 -0.2788752 -0.37246996
0002b0 b1 44 c8 be 4d fd 8a bb ef b0 7f 3f cf 30 4e 3f
       -0.39114907 -0.0042416216 0.99879354 0.80543226
0002c0 ab 63 9a bf 18 83 7f bf 94 23 69 3d 00 76 88 be
       -1.2061666 -0.9980941 0.056918696 -0.26652527
0002d0 52 0a 76 3f 66 fe 1d be 6c 8f e1 3f 38 70 13 bf
       0.961095 -0.15429077 1.7621894 -0.5759311
0002e0 58 49 e8 be e2 c7 16 c0 6a 47 99 be c8 ea cf be
       -0.45368457 -2.3559499 -0.29937297 -0.4060881
0002f0 90 90 ea bd cf 66 a0 3d a4 1d 8d 3d 51 c1 90 bf
       -0.11453354 0.07832109 0.06890419 -1.1308995
000300 25 ef 8a 3f ee 1c 87 3f 92 e2 33 bf 69 d6 82 be
       1.0854231 1.0555704 -0.70267594 -0.25554207
000310 69 4a ec bf 1a 54 86 bd 7c 74 de be 29 b9 f6 bb
       -1.8460208 -0.0655901 -0.43448246 -0.007529397
000320 db 7d 9a 3e 9e 42 0e bd ad fc 59 bc 36 7a c0 be
       0.30174145 -0.0347315 -0.0133048715 -0.3759324
000330 6a 8b be bf 0c 5e 07 3f f3 8a 99 3d 17 91 80 3f
       -1.4886296 0.5287788 0.074972056 1.0044278
000340 8a 05 9c bd 5a 08 d8 bf df 8c 1b 3e 7a f4 e2 3e
       -0.07618244 -1.6877549 0.15190457 0.44327146
000350 d6 1e 99 bd a4 b7 b6 bf 0a c5 b2 bb 8b 25 9f 3f
       -0.074765846 -1.4274793 -0.005455618 1.2433332
000360 dd 37 c4 be 5a 89 89 be 1b 22 cb bf 9d 3e b7 bf
       -0.3832387 -0.26862603 -1.5869783 -1.4315983
000370 9e 7d 04 c0 af 45 a8 3d 10 9e a4 bd 8b 06 76 be
       -2.070167 0.08216416 -0.080379605 -0.24025933
000380 68 9f 9c bf 91 cd ba 3f 58 a1 93 bd 72 8b 93 be
       -1.2236147 1.4593984 -0.07208508 -0.28817326
000390 9c 8e e9 bc 9f 2e 81 c0 6c 09 c0 bf cd e7 96 be
       -0.028510384 -4.036941 -1.5002875 -0.29473725
0003a0 e9 7c 3d be 4c 46 cb bd 57 9e 37 bb e3 82 83 bf
       -0.1850468 -0.099255174 -0.0028017962 -1.0274318
0003b0 99 4f d2 be f4 48 6c 3e d5 5e 40 3f 8a fe 56 3c
       -0.41076353 0.23074704 0.751447 0.01312221
0003c0 09 1c 83 be 93 07 19 be 60 72 4d 3f d6 b2 a7 be
       -0.25607327 -0.14944296 0.8025265 -0.32753628
0003d0 b5 cf 10 bf 01 32 2d 3f 3e 10 88 bd 70 07 bb be
       -0.56566936 0.67654425 -0.06643723 -0.36529112
0003e0 11 a9 43 be 6e 2a 8b be 3c 34 11 3d a4 c3 a4 3e
       -0.19107462 -0.2718081 0.035450205 0.32180512
0003f0 e7 11 a1 3e 40 71 27 bd be dd 8c c0 60 0d 00 bf
       0.3145897 -0.040879488 -4.402068 -0.5002041

net.2.weight f4 [256, 256]
000000 0f 2a 6b bd 6c 2b 41 bd aa c9 6b 3d 8d 8b ba bc
       -0.057413157 -0.04716055 0.05756537 -0.022771621
000010 1c 33 7a bd 5d 60 a6 bc 30 03 46 bc 06 e3 a9 3c
       -0.061083898 -0.020309621 -0.012085721 0.020738136
000020 5e 84 cd bc 0c dd fb 3c 80 e0 dc 3c ef ba 54 bd
       -0.025087532 0.030745052 0.026962519 -0.051936086
000030 00 ef 98 bc 0b 21 1f bd 71 68 d2 bc 2e c9 2f bd
       -0.018668652 -0.03884987 -0.025684567 -0.04291647
000040 ff 39 9c 3c f7 be f9 3c 41 d5 be b9 a0 19 c4 3c
       0.019070623 0.030486567 -0.0003639851 0.023938
000050 0a f9 5c 3d e5 f2 11 bc 86 df 26 3b b6 d9 73 3d
       0.05394844 -0.008908008 0.002546282 0.059533797
000060 d3 90 ca 3c 5c c7 74 bd c8 1d 08 3d 6e b7 6a bd
       0.02472726 -0.059760436 0.033231527 -0.05730384
000070 0c 13 a9 bc fe 91 d0 bc c6 47 0f bd 8e 48 d6 3a
       -0.020638965 -0.02546024 -0.034980558 0.0016348527
000080 35 b8 1e 3d 11 01 bb 3c 96 74 c3 3c d0 68 6a 3c
       0.038749892 0.022827657 0.023859303 0.014307216
000090 ec 3b a8 3c d6 1f 94 bc 68 b1 9a 3c 8a ba 68 bd
       0.020536385 -0.018081587 0.018883422 -0.056818523
0000a0 c0 32 cd 3a 70 6e bc 3b f5 1f 0b bd 53 1b 6d bd
       0.0015655383 0.00575047 -0.033966023 -0.057887387
0000b0 ba a3 95 bd a4 50 0e 3d 68 d9 91 bc 14 10 e7 bc
       -0.07306619 0.034744874 -0.017803863 -0.028205909
0000c0 88 15 7e bd 5d 5b 02 bd 4d 18 0d bb 70 74 0c 3d
       -0.062032253 -0.031825412 -0.0021529377 0.03429073
0000d0 5e 48 86 bc b6 7f 84 3a 31 cc 6f bd 92 50 0f bd
       -0.01639193 0.0010108862 -0.05854434 -0.034988947
0000e0 fc 10 6c bd 15 52 1d 3d d4 0f c8 3c 66 6c 8a bd
       -0.057633385 0.038408358 0.02442161 -0.067589566
0000f0 ec 11 1a bd 1e c7 e9 3c 65 bf 3e ba e6 5b 3b 3d
       -0.037614748 0.02853733 -0.0007276445 0.045741938
000100 c8 9d c8 bc c0 60 98 ba 27 85 53 bd 42 57 4c bd
       -0.024489298 -0.0011625513 -0.051640656 -0.049887903
000110 03 b9 ea 3c 00 64 c7 bc 47 d9 71 bc f5 7b 95 3c
       0.028652674 -0.024339676 -0.014761276 0.018247584
000120 6e 3c 67 3d 30 ce ae 3c c4 68 18 bd 8e 8d 00 bd
       0.056454115 0.021338552 -0.037209287 -0.031384997
000130 8d e8 90 3c 13 6a 59 bc 58 a2 d6 3c bc 97 44 bd
       0.017689014 -0.013269919 0.026200458 -0.047996268
000140 b0 d1 76 bc 7c 81 d2 3c ab 9e 1b 3d e7 b8 10 bd
       -0.015064642 0.025696509 0.037993114 -0.035332587
000150 7c d4 35 3d 1d e5 7e bc e0 0b 4c bd 90 31 2c 3c
       0.044392094 -0.015557555 -0.049816012 0.0105098635
000160 f6 39 00 3d 5a 13 08 3b ed 4b 03 bd 2a 11 0d bd
       0.031305276 0.0020763488 -0.03205483 -0.034440197
000170 1e 77 75 bd 93 6d 66 3c 52 8d 0b bd 06 ef 50 bd
       -0.059928052 0.0140642105 -0.03407032 -0.0510092
000180 5b 23 ff 3c 2a 6d 7b bd bc 7d 60 bd f8 94 96 bc
       0.031144788 -0.061383404 -0.05480741 -0.01838158
000190 d9 bf fb 3c 32 d5 16 3d 4a 1d 77 3c dc 93 67 bd
       0.030731129 0.036824413 0.015082667 -0.056537494
0001a0 49 dc 90 3c 53 d0 26 bd 63 18 63 bd fc 8d 34 3d
       0.017683165 -0.040726017 -0.05544318 0.04408072
0001b0 81 5b b4 bc d6 ec 94 3c 15 9b a1 3c 39 71 70 bd
       -0.022016289 0.018179338 0.01972727 -0.058701728
0001c0 81 39 69 3c 9c f8 3c 3d 76 2c 16 3d 20 10 72 bc
       0.014234901 0.04613553 0.036663495 -0.014774352
0001d0 a8 4c ca bc e3 00 95 bd a0 d1 02 bd f8 d9 6c bd
       -0.024694756 -0.0727556 -0.031938195 -0.05782506
0001e0 6a 9f 31 3d 5e 22 72 3d c2 3e 01 bc 50 bf 2d bd
       0.04336492 0.059114806 -0.007888498 -0.042418778
0001f0 70 56 3b 3d 08 b8 0d 3d 44 d8 66 bd a0 25 2e bb
       0.04573673 0.034599334 -0.05635859 -0.002657272
000200 75 a5 6e bb 45 29 96 bd a0 ce 5d 3b e2 7e 68 bd
       -0.0036414538 -0.0733209 0.0033845082 -0.05676163
000210 f5 56 4c bd 13 f9 a9 bc 26 75 e7 bc 42 85 f6 bc
       -0.049887616 -0.02074865 -0.028254103 -0.03009284
000220 04 ac 30 bd e7 f0 af 3c 80 2e 42 3c 72 c9 0f 3d
       -0.043132797 0.021477176 0.011851907 0.035104223
000230 a7 6d 87 bd 78 b8 7b 3d dc 3f 45 3d 89 f2 98 bd
       -0.066127114 0.06145522 0.048156604 -0.07468135
000240 e3 fc c1 3c 74 96 d9 3b 48 e0 ff 3c e4 25 fc bc
       0.023680156 0.00664025 0.031234875 -0.030779786
000250 ca 29 91 bd 4f 53 2f bd 54 ea 9b 3c 75 b2 f5 3c
       -0.07088049 -0.04280406 0.019032635 0.029992322
000260 21 32 85 bb 45 56 f0 3c a7 41 d6 bc d9 cf e8 39
       -0.0040648137 0.029338012 -0.026154352 0.00044405347
000270 c8 2b 8e 3c 80 41 34 3b 35 0c 55 bd f0 6c 6c 3c
       0.01735486 0.0027504861 -0.052013595 0.01443027
000280 99 cd 96 bd 8a f5 41 bd 7b ca fd bc 5f 3f 88 bd
       -0.073634334 -0.047353305 -0.03098034 -0.06652712
000290 e2 62 88 bd 1a 1b 22 bd 55 32 b1 bd 6f 04 b2 bc
       -0.066594854 -0.039576627 -0.08652178 -0.02173063
0002a0 6a 6f c7 bc 48 81 2b bc 80 f1 0a bd 30 fe 19 3d
       -0.024345119 -0.010467835 -0.03392172 0.037595928
0002b0 b2 2c e2 3a f8 4b 53 3d b6 42 fa bb a0 5e 7c bb
       0.0017255752 0.05158612 -0.007637347 -0.003850855
0002c0 51 47 86 bd ec 18 02 bd 90 37 ae 3b fd 9c f9 bc
       -0.06556571 -0.03176205 0.005316682 -0.030470366
0002d0 74 aa e8 3c f8 e2 27 3a 54 71 2d 3c b0 c3 47 3d
       0.02840159 0.00064043654 0.010586102 0.048770607
0002e0 c0 02 b7 bd 88 bf 76 3d 18 44 4c bd ab 2c 44 3d
       -0.089360714 0.060241252 -0.049869627 0.04789416
0002f0 5c 53 87 bc ce 0d cc 3c d0 e3 e1 3c 40 bd b8 3c
       -0.016519241 0.024908926 0.02757445 0.022551179
000300 bc de 3d bd bc 4f 39 bd 47 10 1e bd 1e be 83 bd
       -0.046354994 -0.045242056 -0.038589742 -0.06432746
000310 0a 76 64 bd 00 45 6a 3c ff 8a 38 bd ce 75 6d bd
       -0.055776633 0.014298677 -0.045054432 -0.057973675
000320 ef ef 42 bd 54 23 ad bd b6 5f 6f bd 56 2b 6a bd
       -0.0475921 -0.08454004 -0.058440886 -0.057170235
000330 e4 9f a6 bc 47 ae 79 bd 64 38 1d 3d 79 93 c2 3c
       -0.020339914 -0.06095722 0.038383856 0.023751961
000340 1b eb 7d bd 40 1b f0 3c 88 73 51 3d a0 2e 92 3b
       -0.061991792 0.029309869 0.05113557 0.0044611245
000350 d0 2c b4 3b d6 6c 2e 3d 54 b7 37 3d 8b 3d fe bc
       0.005498506 0.042584263 0.04485257 -0.031035205
000360 52 26 1d bd 0a f6 dd bc b8 90 55 bd 63 ff 8a bd
       -0.038366623 -0.02709486 -0.052139968 -0.067869924
000370 96 13 63 3d 87 51 53 bd b7 ac 93 bc 88 fd f0 3c
       0.0554386 -0.051591422 -0.018026693 0.029417768
000380 42 9e 9d 3c 65 5d 78 bc 78 4e 92 bc 2c 24 a5 bc
       0.019240502 -0.015158986 -0.017859682 -0.02015885
000390 a5 05 2c bd be 2c 8b bc 44 1c 5d 3d a2 b0 b1 bc
       -0.04199757 -0.016989108 0.053982034 -0.02169067
0003a0 70 09 4a bc d0 33 80 3c fc ce 04 bd 9c 2c 45 3c
       -0.012331352 0.015649706 -0.03242396 0.0120345615
0003b0 f7 09 58 3c c6 cd 33 bd 5b 14 85 bd 7b 1e 0b bd
       0.01318597 -0.043897413 -0.06498023 -0.033964615
0003c0 02 94 4e bd b6 dc 35 bd 68 bc 2b bc 63 84 a6 bc
       -0.05043412 -0.04439994 -0.010481931 -0.020326799
0003d0 12 10 11 bd b1 c2 26 bc 2a 42 b1 3b 4e e2 0e bd
       -0.035415716 -0.010178254 0.0054094987 -0.03488379
0003e0 fd c1 13 bc 0c dd 8f 3c 94 73 0b bd 01 40 1c 3d
       -0.009018418 0.017561458 -0.03404577 0.038146976
0003f0 ba d9 55 bd 30 34 4d bd a8 f9 34 bd fc 29 1d bd
       -0.052209593 -0.050098598 -0.044183403 -0.038370118

net.2.bias f4 [256]
000000 a8 17 b6 bd 87 58 17 be 87 6f 5d bc 71 54 3b bd
       -0.08891231 -0.14779864 -0.01351536 -0.045734826
000010 e7 d4 90 bd cb 5b c3 3c 31 1c 5f bd c7 1b af bd
       -0.07071858 0.023847481 -0.054470245 -0.0855022
000020 c2 9a d6 bc f9 3c 48 bd d6 b0 71 bd 4e af 0b bd
       -0.026196841 -0.048886273 -0.059006535 -0.03410273
000030 65 36 ca 39 d5 11 e8 bb f2 37 0a bc 6d 7f d3 bd
       0.0003856897 -0.007082204 -0.00843619 -0.10327039
000040 4c fd 78 bf a3 fa df bc f0 2a e8 3e 5d fb 3c bc
       -0.972615 -0.027341193 0.4534526 -0.011534539
000050 00 a7 81 be 77 a4 0a 3c b2 bf 04 be f4 3b ca bc
       -0.25322723 0.008462063 -0.12963751 -0.024686791
000060 6c ff ca bc 7b 37 d9 be 52 61 38 bd 89 ab 1c bd
       -0.024779998 -0.4242514 -0.045014687 -0.038249526
000070 4e 42 0e be 44 6e 74 bd d2 26 01 be 3e 76 d7 bc
       -0.1389248 -0.05967547 -0.12612465 -0.0263015
000080 20 94 a1 bc 6d cd 33 bd d0 3a 94 bd a0 a1 64 bd
       -0.019723952 -0.04389708 -0.0723778 -0.0558182
000090 89 30 c4 bc fd 75 5b bc 77 28 21 bd 43 08 19 3e
       -0.023948925 -0.01339483 -0.03934523 0.14944558
0000a0 21 c9 22 bd 89 e9 01 bd 81 cb 75 bd f6 63 9c bd
       -0.039742593 -0.031716857 -0.06000853 -0.076362535
0000b0 8b 99 8f bd 4c 1c 84 3e ef 4e 11 3d 5b 10 f0 bd
       -0.07011708 0.2580284 0.035475668 -0.117218696
0000c0 c4 ad ed bb 9b 62 df bd 57 70 06 be ca 4b fa bd
       -0.0072533805 -0.109074794 -0.13128792 -0.12221487
0000d0 87 2b 0a be 87 87 25 bd 92 3f f6 bd c7 38 a8 bd
       -0.13493167 -0.040412452 -0.12023844 -0.082139544
0000e0 b5 56 95 bd c0 0c 1e be 88 6c 7b bd 57 f3 b6 bc
       -0.07291929 -0.15434551 -0.0613828 -0.02233283
0000f0 89 7a 57 bd 0d df 88 bd 98 d0 4f ba f0 2f 92 bd
       -0.052607093 -0.066831686 -0.0007927506 -0.071380496
000100 0a 21 ce bc d4 1d 89 bd 8d 32 a6 bd ef cf 10 bf
       -0.025162239 -0.066951424 -0.081151105 -0.5656728
000110 8b 9e f2 bc 50 c7 77 bd 60 b2 e6 bb d1 fe 93 bd
       -0.029616615 -0.060492814 -0.007040307 -0.07226337
000120 5e 5d cb bd 91 95 b6 bd 00 c2 60 3c 78 bc 79 bd
       -0.09929918 -0.08915246 0.013718128 -0.060970753
000130 2a 93 35 bd bb 49 8a bd a9 d5 3e bd 20 24 a8 bd
       -0.0443298 -0.06752344 -0.04659048 -0.08210015
000140 88 be 84 bc a3 e6 c7 bd 33 d0 8c 3d ed 52 b2 bd
       -0.016204134 -0.09760787 0.06875648 -0.08707223
000150 65 bc f3 bb 55 32 79 bd 5b 70 3c bd 30 01 bc bf
       -0.00743823 -0.060839016 -0.046005588 -1.4687862
000160 f7 af 34 bd ed 4a 90 bd 55 7d 1f bd 4f 7c a6 bd
       -0.044113126 -0.07045541 -0.038937885 -0.08129179
000170 db 11 32 bd c7 2b 1d bc 0a ae b2 bd c6 e4 7f 3c
       -0.04347406 -0.009592957 -0.087246016 0.015618509
000180 2b da 2e bd 58 07 82 bd ac 79 f6 bd 0e 05 0f bd
       -0.04268853 -0.06349057 -0.12034926 -0.03491693
000190 b4 f1 a7 bd f0 fd 8e bd fc 73 04 3f 4f af dc bd
       -0.08200398 -0.069820285 0.5173948 -0.10775625
0001a0 28 9d 3e bd 84 29 53 bd f4 cc 8c bd d5 c6 be bc
       -0.046536595 -0.051553264 -0.06875029 -0.02328817
0001b0 26 33 e1 bd 9a 9d ca bd 9c 6d 08 bd ba 13 bf bd
       -0.10996084 -0.09893341 -0.033307657 -0.093299344
0001c0 9a 63 55 bd 58 06 a3 bd 0d 4a 51 bd cf e4 b8 bd
       -0.05209694 -0.07960194 -0.05109601 -0.09028017
0001d0 ad 1d 58 bd 33 19 d3 bf 27 51 3c bd 47 47 4a bd
       -0.052762676 -1.6492065 -0.04597583 -0.04938438
0001e0 20 43 05 bd 60 d8 ca bd 08 b5 fc bd 2f 92 78 be
       -0.03253472 -0.099045515 -0.123392165 -0.24274515
0001f0 b0 ac 8d bc 55 3b b5 3c 8a 9c ce bd 20 04 49 3b
       -0.017294258 0.022123018 -0.10088451 0.0030672625
000200 ef 43 5f bd 6e 43 13 3c 4a a3 03 3a 7e 2d 7c be
       -0.054508146 0.008988244 0.00050215854 -0.24626729
000210 80 96 86 bd fb 7f 34 bd 3b 45 a3 3c 03 8d cb 39
       -0.06571674 -0.044067364 0.019930473 0.0003882424
000220 5c a5 b6 bc 36 69 89 bd 3c c3 e2 3c a7 9f 01 be
       -0.022295646 -0.067095205 0.027680986 -0.12658559
000230 16 41 db bd b9 e5 5d bd f0 9b 15 bd b1 bc eb bd
       -0.107057735 -0.05417416 -0.036525667 -0.115105994
000240 9c 36 db bc 1e 18 e1 bd fe 7d 8a be 62 27 be bd
       -0.026759438 -0.10990928 -0.2704925 -0.092848554
000250 a2 33 26 bd 95 a1 3a 3c b0 06 f7 bb ca e9 c5 bc
       -0.040576585 0.011391063 -0.007538639 -0.02415933
000260 c5 2b 2e 3b 93 d3 cb 3c 07 9f 09 be e0 37 4b bd
       0.0026576382 0.02488116 -0.1343957 -0.049613833
000270 f0 12 93 bd d7 0c cb bd 96 a5 a9 bd dd 33 5b bc
       -0.071813464 -0.099145584 -0.08283536 -0.013379064
000280 3c 2a 3b bc 3c bc 47 bd 85 ec bb bd 70 a9 5c 3c
       -0.011423644 -0.0487635 -0.09175972 0.013468131
000290 66 9c 93 bd 53 71 81 bd 30 a0 23 bd a4 7d 4c 3f
       -0.07207565 -0.06320443 -0.03994769 0.7987921
0002a0 52 4c 16 bd 60 29 43 bd 36 d0 c2 bb a9 2d 28 bd
       -0.03669388 -0.04764688 -0.005945231 -0.04105917
0002b0 cd b4 80 bd 70 fd dd bd b7 37 a9 bd b9 5f 8d bd
       -0.06284485 -0.10839355 -0.0826258 -0.06903023
0002c0 7e aa e6 bd e0 5a dd bd fc 74 83 bd 5c b7 b0 bc
       -0.112629876 -0.10808349 -0.064187974 -0.021571808
0002d0 ae 8f e6 bd 65 d4 26 bd c9 c7 99 bd ed ee 92 bd
       -0.112578735 -0.0407299 -0.07508809 -0.07174478
0002e0 75 d5 9e bd b4 26 01 3c a1 03 cd bd 64 95 63 bd
       -0.077555574 0.007882763 -0.10010458 -0.055562392
0002f0 fe 0d f6 3d 4f 97 8b 3f 8d ef bb bc 93 b0 0d bd
       0.120143875 1.0905551 -0.022941375 -0.034592222
000300 7f 0f ab bc dd 6f 8d bc b4 94 eb bc 5c 53 ea bd
       -0.020881413 -0.017265255 -0.02875743 -0.11441681
000310 9f 0e 2c 3c c3 12 fc bc 22 72 1f bd d1 2a b5 bd
       0.010501533 -0.030770665 -0.038927205 -0.08846057
000320 f2 b4 43 3c 08 28 ea bd fb a8 45 bd 16 d6 eb bd
       0.011944996 -0.114334166 -0.048256855 -0.11515443
000330 d8 25 af 3c ff 67 54 bd 5f fa 68 bd 9c b0 69 bd
       0.02138035 -0.05185699 -0.056879397 -0.057053193
000340 40 69 e6 bd 96 71 a9 bd bb 0b 17 3c ff eb 58 bd
       -0.112505436 -0.08273618 0.009219105 -0.05295944
000350 6a de 82 bd 20 cd ca bd 27 86 79 bd f6 5c 7b be
       -0.06390078 -0.09902406 -0.060918953 -0.2454718
000360 b4 8e e7 bd 0c 20 6d bc 6c 84 d9 bb e5 14 9f bd
       -0.11306515 -0.014472973 -0.0066381004 -0.07767657
000370 cc 44 09 be a3 ae c2 3c bb 1a 78 bc 45 d2 1d bd
       -0.1340515 0.023764914 -0.015143092 -0.038530607
000380 1d a9 cb 3c a7 85 c1 bd f2 b0 0b bc 6a 41 16 bd
       0.024860913 -0.0944932 -0.008526074 -0.036683477
000390 71 00 df bf 72 45 ba bd e1 8d 55 bc ab 15 01 c0
       -1.742201 -0.09095277 -0.013034315 -2.0169475
0003a0 b1 a8 2a bd 11 81 9a bd 5e f8 47 bd 65 c8 1d bd
       -0.041664783 -0.07544149 -0.048820846 -0.03852119
0003b0 2e c0 19 bd 64 eb df bc cd 31 b7 bd 60 58 a2 bd
       -0.037536792 -0.027333923 -0.089450456 -0.079270124
0003c0 ec 9b f3 bc c0 97 b8 bd b4 16 a0 bd d6 d2 30 bd
       -0.029737435 -0.09013319 -0.0781683 -0.04316982
0003d0 cd ea b8 3c f0 29 95 3c e4 ab 5c bd b8 8a f2 bc
       0.0225729 0.018208474 -0.053874865 -0.029607162
0003e0 96 53 b1 bd f0 84 52 3c 2a f7 8b bc d5 00 e2 bd
       -0.08658521 0.012849078 -0.01708563 -0.11035315
0003f0 5d c9 b3 bd ce 00 d2 bd 61 11 bd bd 20 b2 e8 3c
       -0.087786414 -0.1025406 -0.092318304 0.02840525

net.4.weight f4 [128, 256]
000000 8c 2c 4d bd 51 86 6d bd c7 44 a1 bc cc 67 24 bd
       -0.05009131 -0.057989422 -0.019686116 -0.04013805
000010 69 a7 21 bc 5a 38 35 3d 03 87 c2 bd 79 ad 05 bc
       -0.009866574 0.044243194 -0.09498408 -0.008159035
000020 85 0c 6e 3b fc 98 10 bb 52 0e 8c bc 73 1d 4a bb
       0.003632338 -0.0022063842 -0.017096672 -0.0030840307
000030 a4 80 6e bd 21 a4 1b bd 51 9b b8 bc 43 fd 60 bc
       -0.05822815 -0.037998322 -0.022534998 -0.013732257
000040 cc b4 e4 3e fb c8 12 3c 15 3f f0 bd 57 16 39 bc
       0.44669187 0.00895905 -0.11730782 -0.01129683
000050 9a 47 27 3d 74 81 46 3d 19 dd 7a bc b0 76 1a 3d
       0.04083977 0.0484633 -0.015311503 0.037710845
000060 f7 04 82 bd 8e ce 8d 3e 59 62 93 3d 39 39 2a 3b
       -0.06348603 0.2769665 0.07196493 0.0025974049
000070 10 a0 2d 3d 7c 81 0f bd bc bf bd 3d ab a2 d9 bb
       0.042388976 -0.035035595 0.09265086 -0.006641706
000080 f1 62 48 3d 9c 84 a2 bd 02 bd 24 3c 94 e8 89 bd
       0.048922483 -0.079354495 0.010054829 -0.06733814
000090 1d ab bc 3c e1 d8 b5 bd 5d 42 87 bd 23 da f3 3e
       0.023030812 -0.08879257 -0.06604455 0.47627363
0000a0 4a ea cf 3c bc 12 47 bd 78 38 2d bd 72 89 0e bd
       0.025380272 -0.04860185 -0.04229018 -0.034799047
0000b0 16 e2 52 bd 8e 62 46 bd b6 87 57 bd e8 d4 4f bc
       -0.051485144 -0.048433833 -0.05261966 -0.012685038
0000c0 d5 b4 b7 ba 3b ee 98 3c 62 70 16 3b dc 60 93 bd
       -0.0014015684 0.018668285 0.002295517 -0.07196209
0000d0 e9 96 dd 3c b1 ea 19 3c eb 6f df bc ae 80 79 bc
       0.027049499 0.009394334 -0.027275046 -0.015228434
0000e0 00 68 06 3b 1b 71 09 3d 18 d0 ad bd 67 f2 48 3b
       0.0020508766 0.03355513 -0.08486956 0.0030662061
0000f0 3e ca b2 bc db 91 24 bd 1d 08 2c bc b2 22 c8 bb
       -0.021824952 -0.04017816 -0.010499981 -0.0061076516
000100 17 c7 32 bd 5b 48 5e bd 04 5f 1e 3d 0c 55 b8 3e
       -0.043646898 -0.054268222 0.038664833 0.36002386
000110 c0 c3 1c 3d 58 ff b8 3c 64 90 68 3c c7 33 9f 3c
       0.03827262 0.022582695 0.014194582 0.019433869
000120 78 e6 84 bd 92 50 25 3d bb 61 23 bd 9d 20 82 bd
       -0.06489271 0.04036004 -0.039888125 -0.06353877
000130 1a 74 c2 3c b2 2c ef 3c a6 4b 04 ba 2a 6e 0f bd
       0.023737002 0.029196117 -0.0005046673 -0.03501717
000140 af b4 27 bd e0 49 24 bd d2 70 bd 3d 7c c0 29 3d
       -0.040943798 -0.040109515 0.092500344 0.041443333
000150 c2 7d 0d 3d 4c 0d d3 bc 00 40 fc bc 15 4c da 3e
       0.03454376 -0.025763176 -0.030792236 0.4263617
000160 6b c6 3e bd 10 23 d8 bc 8c 7f fe 3c 0d 03 03 bd
       -0.046575945 -0.026383907 0.031066678 -0.03198533
000170 91 70 c8 3c c3 ef 6a bd 31 1c f6 ba ff 61 e3 3c
       0.024467738 -0.05735756 -0.0018776712 0.02775669
000180 1b 48 49 3a 75 98 28 3d 52 1a 92 bc 2f 6f 07 b9
       0.0007678286 0.04116102 -0.017834816 -0.00012916022
000190 60 d9 7a 3d 68 ca f8 3c ac 0b ef c0 d1 97 f1 bb
       0.06124246 0.030369952 -7.470175 -0.0073728343
0001a0 df 98 98 bd 88 6a 72 bc 0f aa 7b bd f3 d6 94 bc
       -0.07451033 -0.014795907 -0.061441477 -0.018168902
0001b0 20 ab e0 3c c7 c0 82 bd 4f 8c 82 bd ad a7 3a 3d
       0.027425349 -0.063844256 -0.06374418 0.045570064
0001c0 b8 c5 de 3c 3b 0a 59 bd 31 14 1e 3d 41 e1 b1 3b
       0.027193889 -0.052988272 0.038593475 0.0054284637
0001d0 da 9a a2 3c e7 74 87 3d d7 bd d6 3c 60 e2 7f bd
       0.01984923 0.06614094 0.02621357 -0.062471747
0001e0 8a 2f b4 3c bf 48 6f 3b fa 3c a8 bd d7 ed c3 bd
       0.021995325 0.0036511866 -0.08214755 -0.09566849
0001f0 1e 0b 19 bc fe 3a 1b bc 14 13 31 3d 57 54 9b 3c
       -0.009341029 -0.009474514 0.043231085 0.018961115
000200 4d 69 67 3d 34 68 10 3c 3b d1 d9 bb 5f 79 47 3d
       0.056496907 0.008813906 -0.0066472567 0.048699733
000210 db 84 79 bd b0 67 6e bd d6 94 65 bc ba a3 0d bc
       -0.060917716 -0.058204353 -0.014012536 -0.0086449925
000220 09 ce 32 bd 46 2a 36 bd 44 9d 97 3c f7 fd 3e 3d
       -0.04365352 -0.04447391 0.018507607 0.04662892
000230 19 83 92 bd 16 b5 45 3d 6f a5 98 bd 72 fb a9 3c
       -0.07153911 0.0482684 -0.07453429 0.020749781
000240 d2 93 55 3d c2 8a 12 bd 8f 95 b7 3c b7 98 c0 3b
       0.052142926 -0.03577686 0.022410182 0.00587758
000250 ec fd 18 bc b7 3a 0d 3d d5 72 ac 3c 86 ab c6 3a
       -0.009337883 0.034479823 0.02105085 0.0015157319
000260 c1 8e 7a bd 7a a6 67 bd 30 cc 68 3d 4f 53 8d bd
       -0.061171297 -0.05655525 0.056835353 -0.069006555
000270 85 f0 1d bc d4 21 03 bd 0b 1b 1c bd a2 57 d2 3c
       -0.009639864 -0.032014683 -0.038111728 0.025676552
000280 e5 f4 23 bd ae 95 8a 3c 54 a5 4d bc 07 92 6a bc
       -0.04002847 0.016917076 -0.012551624 -0.014317042
000290 c4 c0 17 bd 2d 20 7c bc 08 76 50 bc bf ab 8a 3d
       -0.03704907 -0.015388531 -0.012723453 0.06771039
0002a0 78 a9 a1 bc 81 92 80 3d 58 1c 01 3d bd 55 0e 3d
       -0.01973413 0.062779434 0.03152117 0.034749735
0002b0 d0 7a da bc 8d 2a a3 bd 6f 18 a7 bc 7d 51 9e bd
       -0.02666989 -0.079671 -0.020397393 -0.077303864
0002c0 77 58 7f bc 5a e0 26 c0 b8 17 45 bc d2 fd b8 bc
       -0.0155850565 -2.6074433 -0.012029581 -0.022581968
0002d0 4f 84 9d 3d c9 dd 45 bd 78 a7 a8 3b 31 52 a9 bc
       0.076912515 -0.048307214 0.005146917 -0.020669075
0002e0 01 e6 cd 3b 58 d5 25 bd f8 8b 0a 3d a5 99 1b bd
       0.006283522 -0.040486664 0.03382489 -0.037988324
0002f0 52 fe 12 bf c7 f4 33 be a4 71 2b 3d 6c 52 4e bd
       -0.5741931 -0.17573844 0.041856423 -0.050371572
000300 0d b0 78 bd 6e 74 8b bd fd 50 7b 3c 61 57 ac bd
       -0.06071477 -0.068093166 0.015339133 -0.08415104
000310 65 81 2f bd 45 c8 45 3d 3d 32 6b bd d8 04 92 bd
       -0.04284801 0.048286695 -0.057420958 -0.0712983
000320 8d 8d 3f 3c f6 39 ee ba ba 8f 5f bd 73 c8 f7 3c
       0.011691463 -0.0018175233 -0.054580428 0.030246949
000330 b2 c8 0a 3d 17 3e 1a 3d 3b 45 b5 3c 71 a4 68 bd
       0.033882804 0.03765687 0.022127738 -0.05679745
000340 51 79 d9 bc 0c a7 dd bc 93 24 bf 3c ed a2 ee bc
       -0.026547106 -0.027057193 0.02333287 -0.029130423
000350 60 43 cf bc 5b 4d 99 3b 52 d5 10 bc 21 7a e2 3e
       -0.025300682 0.004678411 -0.008839922 0.44233802
000360 64 72 8b bc dd dc a9 3c 9c cf 6e 3c a8 1b 9d bc
       -0.01702232 0.020735199 0.014575865 -0.019178227
000370 87 0e 12 3c b1 9b f6 ba 88 9e 20 bd 64 12 04 bb
       0.008914596 -0.001881471 -0.039213687 -0.0020152563
000380 54 d8 82 bc 17 8e ac bc 17 a3 59 3d 69 4e 2b bd
       -0.015972294 -0.021063847 0.05313405 -0.041822825
000390 47 85 46 bf a2 db 69 3d 9b 1d 8c 3b 04 96 09 bd
       -0.77547115 0.057094224 0.00427599 -0.03359033
0003a0 a7 9a 0d bd 46 fa 5a bb a5 c2 d9 bc 8d 07 e0 bc
       -0.034571316 -0.0033413335 -0.026582072 -0.02734735
0003b0 81 e5 c2 bb 64 31 04 bd 6a 4a de 3c de 39 45 3d
       -0.005947769 -0.032273665 0.027135093 0.04815089
0003c0 48 60 d5 bc a1 83 bd bb 78 b5 87 3d d5 08 17 3d
       -0.026046887 -0.0057835137 0.06626409 0.036873657
0003d0 ad 69 ad 3b 43 db ec 3c fb fb 52 bd 18 d2 88 bb
       0.0052921386 0.028913146 -0.05150984 -0.0041754358
0003e0 a5 45 d5 bb 82 5a 63 bd 87 07 0f 3d f9 1f d3 bc
       -0.0065085464 -0.055506237 0.034919288 -0.025772082
0003f0 b4 f4 2c 3c 87 8f 0e 3d 0b 8c 49 bd 7c 5c 82 bd
       0.010556389 0.034804847 -0.04920582 -0.06365296

net.4.bias f4 [128]
000000 1f 05 27 bd d5 39 78 bd 11 1b bd bf 74 9e 6f 3c
       -0.04077637 -0.060602028 -1.4773885 0.0146251805
000010 1d 93 a8 bd 82 36 17 be de f0 91 bd 0b 22 29 bd
       -0.08231185 -0.14766887 -0.0712602 -0.04129223
000020 ce 86 73 bd b4 ec 12 bf 5d 0a a9 3f 69 20 05 c0
       -0.05945473 -0.5739243 1.3206288 -2.0801032
000030 06 49 9f 3f 43 98 b3 be 7d 7e a6 bd 9a 58 2f 3d
       1.244416 -0.35077104 -0.081295945 0.042809106
000040 ca 9d 13 bd e8 24 93 3f 07 9f b2 be 8d ac 80 be
       -0.03603915 1.1495638 -0.34886953 -0.25131646
000050 c7 dc 85 bf 1e d2 87 be a1 da a8 bd 54 8e b6 3d
       -1.0458001 -0.26527494 -0.08244825 0.08913866
000060 19 b7 2b 3e 8e ca e7 bc 38 35 d1 be a1 a4 01 3e
       0.16769065 -0.028294828 -0.40860915 0.12660457
000070 b6 a4 63 bd 00 b0 39 bc ae 77 92 be 39 97 8d bd
       -0.055577002 -0.011333466 -0.28606933 -0.06913609
000080 01 8d 81 be 42 2c c3 bc 01 0e 95 bd f5 5c 8a bd
       -0.2530289 -0.023824815 -0.07278062 -0.067560114
000090 2d 8f 74 bd 7b 43 ad bd 7b e6 7b be 4c db b3 3f
       -0.059706856 -0.084601365 -0.2459964 1.4051299
0000a0 ce d4 38 bc 7f c3 a3 bd cf 96 36 3e 84 3a 8a bd
       -0.011281205 -0.07996272 0.17830966 -0.06749442
0000b0 64 c2 68 bd ae 97 af be 95 fd 93 bd 4a 3e 93 bd
       -0.05682601 -0.3429541 -0.07226101 -0.07189615
0000c0 14 5c ae 3f 7a 12 ca bc 2d 15 e3 bd 03 4a bf bd
       1.362185 -0.024667013 -0.11088023 -0.093402885
0000d0 70 97 d3 bd ec c2 80 3f 62 a7 ec bc 04 d9 8d bd
       -0.10331619 1.0059485 -0.028888408 -0.06926158
0000e0 81 88 a4 bd 59 e8 f3 bf fd 1b 81 bd 4f 73 c9 bd
       -0.080338486 -1.9055282 -0.063041665 -0.098364465
0000f0 47 a2 a4 3f db cd c3 bd 74 3b 32 bf e9 fc 66 be
       1.2862023 -0.09560748 -0.6962197 -0.22557415
000100 e2 02 76 bd f3 79 88 bd a6 26 30 bf bc 39 c3 bd
       -0.060061343 -0.06663885 -0.6880897 -0.09532496
000110 01 85 00 3d 9d eb 48 bd 8a 34 4e 3d 7f 7e 8a bf
       0.031376842 -0.049052823 0.050343074 -1.0819854
000120 c4 57 0e be 36 8a d3 bd f5 69 f4 bc 09 a5 6b bd
       -0.13900667 -0.10329096 -0.02983568 -0.057530437
000130 4a 77 33 be 07 0e c1 bd 0c 49 55 bd e8 d6 db 3e
       -0.17525974 -0.09426504 -0.052071616 0.42937398
000140 d2 7f a8 bd f8 7f 71 bd 79 11 ea bf 01 50 57 bd
       -0.08227505 -0.05895993 -1.8286582 -0.052566532
000150 e5 4e 53 be e3 2d 94 bf 1f b0 41 bd ca cf 52 be
       -0.20635565 -1.1576504 -0.047287103 -0.20587078
000160 d4 bd 83 be ac c0 b6 3f 4e d4 fe bc 5b cf 91 bd
       -0.25730765 1.4277549 -0.031107094 -0.07119628
000170 8e d0 c7 3f 3a 6b 28 bd f8 16 93 bd 12 3e 98 3f
       1.5610521 -0.041117884 -0.07182115 1.1893942
000180 57 56 49 bd 4b a8 7f bf 00 08 3d bd a3 23 8d be
       -0.049154606 -0.9986617 -0.046150208 -0.2756625
000190 26 f6 8c 3d e6 ae 03 3f 91 d7 8c bd e4 3b 78 3e
       0.068828866 0.5143875 -0.068770535 0.24241596
0001a0 b8 29 a0 bd ba bf eb bd f7 5e ad bd 62 ae a4 bd
       -0.07820457 -0.11511178 -0.08465379 -0.080410734
0001b0 8a 14 a2 3e 20 d1 52 3e 87 71 2d c0 8f 8e ed bd
       0.31656295 0.20587587 -2.7100542 -0.115994565
0001c0 74 66 d3 3f 8e 60 da bd 41 06 2f be 2d 40 a7 bc
       1.6515641 -0.106629476 -0.1709223 -0.020416344
0001d0 65 51 df 3d b7 7f 20 bc 29 9f ac 3f 4e 4a 9f bf
       0.10904197 -0.009796075 1.3486072 -1.2444551
0001e0 9a 69 c8 3d f2 88 59 bd 79 8c 74 bd c2 87 1f bd
       0.09785767 -0.053109117 -0.059704278 -0.038947828
0001f0 07 68 9e 3f 45 a3 66 3e 2f 90 c6 bd 1a 7c 16 bf
       1.2375497 0.2252322 -0.096954696 -0.58783114

net.6.weight f4 [128, 128]
000000 63 ad c9 bd 97 a1 dc bd 92 f8 b2 3e e6 17 5a be
       -0.09847524 -0.10773008 0.3495527 -0.21298179
000010 51 d5 93 bd 6c 2c 97 3d a2 1b 2f 3c 9d f7 7a bd
       -0.07218421 0.0738152 0.0106877405 -0.0612713
000020 ee d1 b4 3c b7 00 41 be 7c fa 73 bd 83 cb 6a 3e
       0.022072759 -0.18847929 -0.059565052 0.22929196
000030 fd 8c 82 bd 4f ea 33 3d b9 8a a9 be de 61 9e bd
       -0.06374548 0.043924626 -0.3311365 -0.077335104
000040 e0 a7 55 3d 1c 91 e1 bd cd 54 a9 bd 6b f3 ef 3c
       0.05216205 -0.110140055 -0.082681276 0.029290875
000050 8f 07 24 3f 70 6c 39 be b5 3d c1 3c 11 da 0e be
       0.64074033 -0.18107772 0.023588995 -0.13950373
000060 58 9f 0e bf 35 e6 87 3d a5 cc 6f 3c ac a0 09 be
       -0.5571189 0.066357054 0.014636193 -0.13440198
000070 9e 4c a5 bc 01 3e 9a bd 3a e6 06 bd 56 70 af 3c
       -0.020178135 -0.075313576 -0.032934405 0.02141587
000080 58 44 56 be 6c b6 9d be fa 88 05 bd c0 14 cd bc
       -0.20924509 -0.3080324 -0.032601334 -0.025034308
000090 f2 56 7e bd de f0 a4 3c 69 52 25 bf d0 b0 fc bd
       -0.062094636 0.020134386 -0.6457887 -0.12338412
0000a0 6f 33 c8 3d bc e5 96 be df d5 77 be 3b e7 bf bc
       0.09775435 -0.29472148 -0.24202679 -0.023425689
0000b0 14 b2 24 3d 08 05 00 3d 21 ff a7 bc b2 bf d7 bd
       0.04020889 0.0312548 -0.020507397 -0.1053461
0000c0 ad 0e 33 be 3c 99 a2 bd 73 a0 16 3c 3b 39 9d bd
       -0.17486067 -0.079393834 0.0091935275 -0.076769315
0000d0 43 70 ab bb ad 83 22 be bd 5a 9d 3d a8 c2 7f 3d
       -0.0052318885 -0.15870543 0.076833226 0.062441498
0000e0 24 b2 47 3d 38 2e 1e 3f 3d 89 3d 3d d2 86 9e bd
       0.048753873 0.61789274 0.04627346 -0.07740559
0000f0 a0 9d 3d bd 87 21 25 be 37 8d 66 be 91 8f 23 bd
       -0.0462929 -0.16126071 -0.22514807 -0.039931837
000100 87 9d 61 bd 56 a9 73 3c 48 9f 39 be 3d 01 eb bc
       -0.05508187 0.014871916 -0.18127167 -0.028687114
000110 bb 2e f5 bc 7f 0d 89 bd d3 f0 ca bc c0 ee 1c 3d
       -0.02992951 -0.06692027 -0.024773037 0.038313627
000120 05 e6 1b 3a 65 69 b2 3c ab 71 42 bd 98 66 82 bd
       0.00059470563 0.021778772 -0.047471683 -0.063672245
000130 4d ed bc 3d e7 1c c2 bc d2 6b d7 3b bf d8 44 3e
       0.09224949 -0.023695422 0.0065741325 0.19223307
000140 d7 aa 95 3d 42 34 82 bd c2 58 05 bf a0 10 8f 3d
       0.07307976 -0.06357624 -0.5208856 0.06985593
000150 98 f3 4c be 19 db ba bd 2a 79 da 3b a6 11 e9 bd
       -0.20014799 -0.09123821 0.006667276 -0.11380319
000160 b1 0a a3 bc 8a 1a 1b bd 90 1e e2 3c 79 b5 01 3d
       -0.019902559 -0.037867106 0.027602464 0.031667206
000170 00 ac 00 bd a9 5d 8a 3c 53 f1 1b bd f9 a0 3d bd
       -0.031414032 0.016890364 -0.03807194 -0.046296094
000180 b4 80 be 3c 7e f7 85 3d d3 f6 28 be 5b 72 1f bd
       0.02325473 0.06541346 -0.16500406 -0.038927417
000190 3d 37 2e be 20 15 52 be fd e7 a3 bd f1 40 1c bb
       -0.17013259 -0.20515871 -0.08003233 -0.002384242
0001a0 c4 14 ef 3d ff 28 75 3c f4 77 39 bd 28 b0 97 bd
       0.116738826 0.0149633875 -0.04528041 -0.07406646
0001b0 bc 50 f5 be 69 87 64 be ea 11 0b bc b1 ae 68 3d
       -0.47913158 -0.2231728 -0.008488158 0.056807224
0001c0 d5 a6 a0 3d 6c 0b 34 bd c6 97 37 be 8a 35 89 bd
       0.07844321 -0.043956205 -0.1792899 -0.06699665
0001d0 b2 f5 3e be 2e db 89 bd 2e 27 8e bd 85 d6 b0 be
       -0.18648413 -0.06731258 -0.06941067 -0.34538665
0001e0 85 3f 16 be ae a9 18 be 47 fc c5 3d d7 5f b4 bc
       -0.14672668 -0.14908478 0.09667259 -0.022018356
0001f0 fe bd 42 be f1 f3 2b be 5a 14 96 bd 8a 43 44 3d
       -0.19017789 -0.16792275 -0.073281005 0.047915973
000200 c8 c6 17 3d df 6f 36 3d c3 6f d8 bb a0 6b 0e bd
       0.037054807 0.044540282 -0.00660512 -0.034770608
000210 93 06 fa 3c 5d 8b 8a bd 1d 94 05 3d e9 48 8c bd
       0.030520713 -0.06764863 0.032611955 -0.06849844
000220 27 6c 07 3d d2 29 ad 3d 64 4e c3 bc d9 4c a5 bb
       0.033062126 0.08455242 -0.02384109 -0.0050445613
000230 fd d1 87 bd 97 e2 38 bd 32 82 a1 bd 80 ee 44 bd
       -0.06631849 -0.045137968 -0.07886161 -0.048079014
000240 30 81 68 3d 8e 27 d5 bd 23 41 ba bc 05 81 10 3d
       0.056763828 -0.10407935 -0.022736138 0.035279293
000250 a6 e6 89 bd 60 04 6e bd c2 34 93 bd be 42 dc bd
       -0.06733446 -0.05810964 -0.07187797 -0.107549176
000260 9e 31 26 3d c0 22 04 3b 98 2c 19 3d c8 7e 13 bd
       0.040574662 0.0020162314 0.037396044 -0.03600958
000270 ae 1e ab 3b 10 41 0b bd 44 fc 92 3d e2 da b3 bc
       0.005222163 -0.033997595 0.07177022 -0.021954957
000280 1f c0 d6 bd 95 c1 f2 39 e9 b2 0d 3d 43 c0 79 3d
       -0.10485863 0.00046302067 0.03459445 0.06097437
000290 bd 52 21 bd ac 08 7f bc 73 a6 9e bd ac 80 41 bc
       -0.039385546 -0.015566032 -0.077465914 -0.011810463
0002a0 55 39 a6 3c b7 81 46 3d 85 9c 3e 3d 57 20 a6 3c
       0.02029101 0.04846355 0.046535987 0.020279093
0002b0 67 c3 68 3d 48 ba 6f bc 7b ee 42 3d 20 17 ab bd
       0.056826975 -0.014631815 0.047590714 -0.0835402
0002c0 df 5e d0 3c a1 69 45 3c da 25 24 3c b9 64 23 bc
       0.025435863 0.01204911 0.01001879 -0.009972745
0002d0 5f 88 b7 3c a6 21 cd 3c 20 a5 1b 3d ae d5 8f bc
       0.022403894 0.025040459 0.037999272 -0.017557945
0002e0 35 63 67 bd e1 12 1c bd 24 4f 7a bd a7 5b a5 ba
       -0.056491096 -0.03810394 -0.06111063 -0.0012615816
0002f0 b4 3f a7 bc 88 34 9a bd 66 b3 dc ba bc 02 a4 bd
       -0.020416118 -0.07529551 -0.0016838133 -0.08008334
000300 45 0b a3 3d 9e f7 64 ba 9e bc 9a bb 45 4f a3 bd
       0.07961134 -0.00087344076 -0.004722192 -0.07974104
000310 37 2f 90 3d 0e f1 3e bc 0a 8c d5 bd a9 3f 68 3d
       0.070402555 -0.011654152 -0.10427101 0.056701336
000320 d6 2a e2 3b b9 c9 ab 3d 50 d4 69 bd 97 88 01 3d
       0.006902079 0.08388085 -0.057087243 0.031624403
000330 c2 45 5b 3d 09 ac c4 bc da 2a 12 bc ec e7 b2 bc
       0.053533323 -0.024007814 -0.008921349 -0.021839105
000340 35 03 b2 bd 1e 5b a2 3c a8 82 40 bd 13 12 2f 3d
       -0.08692018 0.019818839 -0.046999604 0.042741846
000350 94 3f 15 3c 31 8d ed bc 9c 14 8c bc 4e 6c 91 bd
       0.0091093965 -0.02899799 -0.017099671 -0.071007356
000360 01 df 22 3d 7c b3 dc ba 37 2c ec 3c f4 55 3a 3d
       0.039763454 -0.0016838158 0.028829677 0.045492128
000370 de 80 d9 bd d4 9f 07 bd ab 3e 26 3d c7 e7 c9 bd
       -0.106202826 -0.03311141 0.04058711 -0.09858661
000380 66 4d 8c 3b b4 74 5d bc 0b e0 4f bd 62 ae 4b bd
       0.0042816876 -0.013516594 -0.050750773 -0.04972685
000390 a0 e6 bd bd 08 05 ec 3c 62 3a 6b 3d fa e1 eb bc
       -0.09272504 0.028810993 0.057428725 -0.028794277
0003a0 e3 0c f3 bb 1b aa 6b bd 46 8f a8 3d c7 5b 8a 3d
       -0.0074173077 -0.057535272 0.08230452 0.067557864
0003b0 7a 72 aa bc 49 f3 e1 bb ab 9b be bc a5 93 9e 3d
       -0.02080654 -0.006895457 -0.023267588 0.07743005
0003c0 e8 0b ba bd d2 93 7c bd 81 26 bd bd 7c f3 a9 bb
       -0.09084302 -0.06166441 -0.0923586 -0.0051864963
0003d0 db 05 65 bd 91 ee 62 bd ff 25 0c 3c 18 f9 38 3c
       -0.055913787 -0.055403296 0.008553981 0.011289857
0003e0 6d 20 13 bd 83 1e b9 bd 86 f9 b4 bc 9d 78 97 bd
       -0.035919596 -0.09039023 -0.022091638 -0.07396052
0003f0 68 15 86 3d 51 95 d7 bd 25 f2 cd 3b 91 ed 20 bd
       0.06547052 -0.10526527 0.0062849694 -0.03928906

net.6.bias f4 [128]
000000 51 7a 37 3f 4c 5a 19 bb 8d 59 a2 bd 32 bd 86 bc
       0.71671015 -0.0023399768 -0.07927237 -0.016447637
000010 a1 32 44 3c 69 c6 58 3c 11 b2 3c bd c4 0c 45 bd
       0.0119749615 0.013230898 -0.046068255 -0.048107877
000020 28 fd 11 40 81 6c 01 bd 15 ab 33 3f ee 0e b3 bc
       2.2810764 -0.031597618 0.70182925 -0.021857705
000030 24 fe 8d bc c9 ac 26 bd 1e c3 77 bd 7a 93 60 bd
       -0.017333098 -0.040692125 -0.060488813 -0.054828145
000040 66 4d 96 3d 14 3b a0 bb 41 6c 98 bd 44 58 cd bd
       0.07338981 -0.004889855 -0.07442523 -0.10026601
000050 68 05 14 3e 74 9f 10 bd 94 28 91 bd b1 67 0e 40
       0.14455187 -0.035308316 -0.07087818 2.2250788
000060 26 ac 17 40 36 6d ac bd ed fc 0a 3e c9 49 95 bd
       2.369882 -0.08419268 0.13573046 -0.07289464
000070 e1 65 64 3e 03 24 e9 3a fd d3 54 bc dc 06 9f 3d
       0.22304489 0.0017787222 -0.012989995 0.0776498
000080 0c 4a c8 bd 01 da 86 3e df 85 dc 3d 3c 35 b5 3c
       -0.09779748 0.263382 0.107677214 0.02212011
000090 99 fa ce bc 80 a8 a0 bd f6 ec 9d 3c ad ef 83 bc
       -0.025265979 -0.07844639 0.01927803 -0.016105497
0000a0 57 8f 66 bd c0 90 01 be be 74 6a 3d 11 ca da 3e
       -0.056289043 -0.12652874 0.05724024 0.4273229
0000b0 c7 6e ca 3d 15 5b 52 3d b0 76 3f 3e 98 28 04 3d
       0.0988441 0.051356394 0.1869762 0.032265276
0000c0 49 66 34 3c 32 20 3b 3f de 32 0c 40 54 b5 35 bd
       0.011010715 0.73096 2.1906047 -0.04436238
0000d0 70 02 bb 3c 11 6d 28 bd ab 1e 11 3e ca 2c 1a 3e
       0.02282831 -0.04111964 0.14171855 0.15056148
0000e0 06 73 cb bd 68 19 95 3c 1c 8c e4 bd 38 b8 ae 3d
       -0.09934048 0.018200591 -0.11159536 0.08531231
0000f0 7b b1 91 3d f3 9e 81 bd 72 2e 94 3e 6b 8d 2e bd
       0.0711393 -0.06329145 0.28941685 -0.042615335
000100 85 9b 08 bd 81 6f 98 3f 00 3c 27 bc 41 79 86 3f
       -0.03335144 1.1909028 -0.010207176 1.0505754
000110 34 83 f6 bc da 06 24 3d b2 f5 d1 bd 94 2b a5 3d
       -0.03009186 0.040045597 -0.10251941 0.080649525
000120 85 49 fb 3c 0a 26 fc 3d e0 f6 d1 bd ee 75 9a bd
       0.030674705 0.12311943 -0.10252166 -0.075420246
000130 ce 6f fa 3a 51 e2 09 bd c2 f1 c0 ba ca 82 e1 bd
       0.0019106807 -0.033663098 -0.0014720487 -0.11011274
000140 cd 9f ef bd 88 7d 7a 3d 68 91 a4 ba eb d1 eb bc
       -0.117004015 0.061154872 -0.0012555541 -0.02878662
000150 c6 7f bd bb 6e b2 8f bd d9 13 c4 bd cb 5b 10 3e
       -0.005783054 -0.07016455 -0.09574098 0.14097516
000160 03 c1 4b bd a7 97 d5 3c 42 05 33 bd 79 e6 4a bc
       -0.049744617 0.02607329 -0.043706186 -0.0123840505
000170 bd 25 2d 3c 24 30 c5 bd 02 61 f7 3c 3e 55 45 bd
       0.01056808 -0.09628323 0.030197624 -0.048176996
000180 bc 88 d2 3c b8 fe ba bc 27 34 31 3e 64 0e c7 3f
       0.025699966 -0.022826537 0.17305051 1.5551267
000190 0b 42 d8 bd 87 91 f8 3c fb 8a 15 40 45 d1 b3 3e
       -0.10559472 0.03034283 2.3366077 0.35120597
0001a0 a8 38 d6 bd c4 d8 81 3e 9f 2f 11 bd 89 3a f8 3c
       -0.10460025 0.25360692 -0.035445806 0.03030135
0001b0 4b 67 c7 bc 5b 36 8d 3d 39 15 e6 3d d6 43 25 3f
       -0.024341246 0.06895133 0.11234517 0.64556634
0001c0 23 66 82 bd 4d f0 0f 3d f2 fe c9 bd 04 45 82 3c
       -0.06367137 0.035141278 -0.0986308 0.01590205
0001d0 16 0f fa 3c f0 46 1b 3d 82 62 cf 3d fb dc aa bd
       0.030524772 0.03790945 0.10126211 -0.0834293
0001e0 bb 2a 75 bb d5 d1 a3 bd 95 40 c1 3d 4f 18 96 ba
       -0.0037409503 -0.07999007 0.09436146 -0.0011451336
0001f0 90 9f 01 3e 95 82 d4 bd 56 38 b4 bd e3 29 a6 bd
       0.12658525 -0.10376469 -0.08799808 -0.08113458
